params/ba2_net.pt (torch, 9991 bytes, 10 tensors)

conv_first.bias f4 [20]
000000 f0 a7 da 3d 9e ae 38 3d fd e1 dd bb 3e 6e d1 bb
       0.10676563 0.045088403 -0.0067713247 -0.0063913157
000010 8a c6 5b 3e 97 68 b2 3d fb 5d 2f be f9 68 b9 bb
       0.21462455 0.08711355 -0.17125694 -0.0056582657
000020 b4 dc b9 bb 1a 74 5b 3e c6 c7 b7 bb 4d eb d7 bb
       -0.005672062 0.21431008 -0.0056085316 -0.0065893293
000030 d5 d1 52 be c7 97 d6 bb 35 ed 6c 3d d0 20 51 3d
       -0.20587857 -0.006548855 0.057843406 0.051056683
000040 41 0b de bb 5d 5c d9 bb c2 ef dd bb 54 57 bd bb
       -0.006776244 -0.006633325 -0.006772966 -0.0057782326

conv_first.lin.weight f4 [20, 10]
000000 c2 a7 3f 3e 9f eb 0a be 91 0b 40 3e a1 85 77 bd
       0.18716338 -0.13566445 0.18754412 -0.060430173
000010 4b f1 39 3e 27 da 6d 3e a7 b7 70 bc e1 d5 4c 3e
       0.18158452 0.2322775 -0.014692224 0.20003463
000020 bd e0 a6 3d 67 9e 22 3e 3e 65 20 3d 58 a1 61 3e
       0.08148334 0.15880738 0.039159052 0.22034204
000030 b1 d9 f5 3d da 6f 89 3e 98 6c a4 bc cb bf 91 3e
       0.12004412 0.26843148 -0.020071313 0.2846664
000040 de cd c4 3d d8 3a 07 3e 31 07 27 3e fc 9f 93 3c
       0.096095785 0.13206041 0.16311337 0.018020622
000050 15 f0 c5 bb 15 f0 c5 bb 15 f0 c5 bb 15 f0 c5 bb
       -0.006040583 -0.006040583 -0.006040583 -0.006040583
000060 15 f0 c5 bb 15 f0 c5 bb 15 f0 c5 bb 15 f0 c5 bb
       -0.006040583 -0.006040583 -0.006040583 -0.006040583
000070 15 f0 c5 bb 15 f0 c5 bb c3 4e b4 bb c3 4e b4 bb
       -0.006040583 -0.006040583 -0.005502553 -0.005502553
000080 c3 4e b4 bb c3 4e b4 bb c3 4e b4 bb c3 4e b4 bb
       -0.005502553 -0.005502553 -0.005502553 -0.005502553
000090 c3 4e b4 bb c3 4e b4 bb c3 4e b4 bb c3 4e b4 bb
       -0.005502553 -0.005502553 -0.005502553 -0.005502553
0000a0 2d 25 43 be e9 8a 6e be 4a 82 14 be db 7e 51 be
       -0.1905715 -0.23295178 -0.14502826 -0.20458548
0000b0 ab a9 51 be a6 6c 48 be ce e8 14 be c5 fd 70 be
       -0.2047488 -0.19572696 -0.14541933 -0.23534305
0000c0 fa 30 69 be 73 fb 50 be fa bf b3 3e b1 33 9c bd
       -0.2277259 -0.2040842 0.35107404 -0.07627047
0000d0 33 1e 69 3e d9 58 b3 bd 32 bd 86 bb a4 ef b5 3e
       0.22765426 -0.08757181 -0.0041119093 0.35534394
0000e0 ee 68 67 bd b6 80 b3 3e a9 98 2a 3e 3e 7e f7 3d
       -0.056496553 0.35059136 0.16659798 0.12084626
0000f0 20 70 30 3e 23 7d 2f 3e 76 6e 30 3e ea 75 30 3e
       0.17230272 0.1713758 0.17229638 0.1723248
000100 7b 97 31 3e c4 63 30 3e 26 73 30 3e b0 4c 30 3e
       0.17342941 0.17225558 0.17231426 0.17216754
000110 be 0e 31 3e be b4 2c 3e 76 c9 94 bb 76 c9 94 bb
       0.1729078 0.16865823 -0.0045406176 -0.0045406176
000120 76 c9 94 bb 76 c9 94 bb 76 c9 94 bb 76 c9 94 bb
       -0.0045406176 -0.0045406176 -0.0045406176 -0.0045406176
000130 76 c9 94 bb 76 c9 94 bb 76 c9 94 bb 76 c9 94 bb
       -0.0045406176 -0.0045406176 -0.0045406176 -0.0045406176
000140 10 66 95 bb 10 66 95 bb 10 66 95 bb 10 66 95 bb
       -0.004559286 -0.004559286 -0.004559286 -0.004559286
000150 10 66 95 bb 10 66 95 bb 10 66 95 bb 10 66 95 bb
       -0.004559286 -0.004559286 -0.004559286 -0.004559286
000160 10 66 95 bb 10 66 95 bb 83 82 9a ba 94 9a b3 3d
       -0.004559286 -0.004559286 -0.0011788163 0.08769718
000170 0c 40 e6 3d 87 b1 0f 3e 87 26 89 3c 33 21 66 3d
       0.11242685 0.14032565 0.016742004 0.056184005
000180 50 c9 ad bd e7 c6 7a bc a1 98 cd 3d e5 75 aa bd
       -0.08485663 -0.015306211 0.10038877 -0.08323268
000190 be ab 92 bb be ab 92 bb be ab 92 bb be ab 92 bb
       -0.0044760397 -0.0044760397 -0.0044760397 -0.0044760397
0001a0 be ab 92 bb be ab 92 bb be ab 92 bb be ab 92 bb
       -0.0044760397 -0.0044760397 -0.0044760397 -0.0044760397
0001b0 be ab 92 bb be ab 92 bb 7d cf cd bb 7d cf cd bb
       -0.0044760397 -0.0044760397 -0.006280838 -0.006280838
0001c0 7d cf cd bb 7d cf cd bb 7d cf cd bb 7d cf cd bb
       -0.006280838 -0.006280838 -0.006280838 -0.006280838
0001d0 7d cf cd bb 7d cf cd bb 7d cf cd bb 7d cf cd bb
       -0.006280838 -0.006280838 -0.006280838 -0.006280838
0001e0 5d f7 49 3e 06 75 9d 3e 1c 51 ea 3d 00 1b 47 3e
       0.19723268 0.30753344 0.11441252 0.19443893
0001f0 45 51 86 3e fe fd 9e 3e 93 08 e4 3d 07 e0 40 3e
       0.2623388 0.31053156 0.11134448 0.1883546
000200 32 94 2c 3e 9a 54 54 3e e0 90 be bb e0 90 be bb
       0.16853407 0.20735398 -0.0058156103 -0.0058156103
000210 e0 90 be bb e0 90 be bb e0 90 be bb e0 90 be bb
       -0.0058156103 -0.0058156103 -0.0058156103 -0.0058156103
000220 e0 90 be bb e0 90 be bb e0 90 be bb e0 90 be bb
       -0.0058156103 -0.0058156103 -0.0058156103 -0.0058156103
000230 4e 27 82 3e df 02 3b 3e 43 62 56 3d c2 5e ac bc
       0.25420612 0.18262814 0.052339803 -0.021041278
000240 ff a8 58 3e c2 6a 94 3e 43 10 11 3d 6a 78 2d bd
       0.21158217 0.289877 0.0354159 -0.042351164
000250 92 93 4c 3e 04 19 93 3d 2d e4 a1 3d 7c 37 22 bd
       0.19978169 0.07182506 0.07904849 -0.039603695
000260 1e 05 0f 3e 0a 47 10 3e 79 5c 74 3e 8f ed 60 3e
       0.13966796 0.14089599 0.238634 0.21965621
000270 73 d4 ee bc 1c ea 9f 3d d2 df 32 3e da 67 b1 3d
       -0.029154038 0.07808325 0.17468193 0.08662386
000280 68 a8 c1 bb 68 a8 c1 bb 68 a8 c1 bb 68 a8 c1 bb
       -0.005909968 -0.005909968 -0.005909968 -0.005909968
000290 68 a8 c1 bb 68 a8 c1 bb 68 a8 c1 bb 68 a8 c1 bb
       -0.005909968 -0.005909968 -0.005909968 -0.005909968
0002a0 68 a8 c1 bb 68 a8 c1 bb eb fb c5 bb eb fb c5 bb
       -0.005909968 -0.005909968 -0.006041994 -0.006041994
0002b0 eb fb c5 bb eb fb c5 bb eb fb c5 bb eb fb c5 bb
       -0.006041994 -0.006041994 -0.006041994 -0.006041994
0002c0 eb fb c5 bb eb fb c5 bb eb fb c5 bb eb fb c5 bb
       -0.006041994 -0.006041994 -0.006041994 -0.006041994
0002d0 51 41 c4 bb 51 41 c4 bb 51 41 c4 bb 51 41 c4 bb
       -0.0059892316 -0.0059892316 -0.0059892316 -0.0059892316
0002e0 51 41 c4 bb 51 41 c4 bb 51 41 c4 bb 51 41 c4 bb
       -0.0059892316 -0.0059892316 -0.0059892316 -0.0059892316
0002f0 51 41 c4 bb 51 41 c4 bb 38 86 b7 bb ac 52 c0 bb
       -0.0059892316 -0.0059892316 -0.005600717 -0.0058692303
000300 66 f3 c0 bb b0 ca b7 bb 7c 1b b8 bb 53 ae b7 bb
       -0.0058883904 -0.005608879 -0.005618511 -0.005605498
000310 08 9a b7 bb 1b 8d b7 bb 54 86 b7 bb ef bb b9 bb
       -0.0056030788 -0.005601538 -0.00560073 -0.0056681554

conv_block.0.bias f4 [20]
000000 bf f7 a0 3d ec fa a3 bb 5c 2c 13 3e 07 00 a5 bb
       0.07859754 -0.0050042775 0.1437239 -0.0050354037
000010 14 bc c5 bb d9 89 c7 bb 20 92 cb 3e 5b ae 13 bb
       -0.0060343836 -0.006089431 0.39759922 -0.0022534344
000020 4a 5e 7b 3d bb a8 b8 ba 96 20 70 3c 63 4d a5 bb
       0.061369218 -0.0014088372 0.014656207 -0.0050446256
000030 48 5f 92 bb 67 2d 93 bb 4c 51 32 3d d7 24 a4 bb
       -0.004466925 -0.0044914964 0.043534562 -0.0050092745
000040 fc 4a 93 bb 5c c3 ed 3d d8 d3 ee bb d7 6d ab bd
       -0.004495023 0.116095275 -0.0072884373 -0.0837056

conv_block.0.lin.weight f4 [20, 20]
000000 37 2a ba 3e 64 a2 58 3e c2 49 3d 3b 5c 1f 5f 3b
       0.36360332 0.21155697 0.0028883074 0.0034045791
000010 c9 f7 9f be 2c a0 85 3e 9e 99 5a 3f 5f 27 63 3b
       -0.31243733 0.26098764 0.8539065 0.0034660918
000020 45 73 62 3b c8 b9 9f 3e 4a 5d 65 3b fc 64 37 3b
       0.003455357 0.31196427 0.0034998232 0.0027983775
000030 d9 4f 72 3f 5b 3a 54 3b ea f9 1c 3e c2 6e 18 3e
       0.9465309 0.0032383415 0.1532971 0.14886001
000040 f3 30 40 3b d8 66 39 3b 9b 91 3e 3b e9 b4 7a bb
       0.002932605 0.002829006 0.0029078487 -0.0038254804
000050 bc 4a 96 bb 94 34 8f bb 62 bb 04 00 ab 97 04 80
       -0.0045865458 -0.0043702815 4.34562e-40 -4.2175e-40
000060 43 6d f8 ba fc 68 93 bb a4 58 11 ba be eb 03 80
       -0.0018953461 -0.004498599 -0.00055445195 -3.60075e-40
000070 7e 09 04 80 0e f6 94 bb cb e4 02 80 55 f8 05 80
       -3.70747e-40 -0.0045459336 -2.65746e-40 -5.48262e-40
000080 9d 95 5e ba 37 8a 06 00 d0 da 8d bb 67 8b 8a bb
       -0.0008490922 6.00595e-40 -0.004329063 -0.004228044
000090 e4 c0 03 00 0c 11 00 00 a5 c2 06 00 90 65 ab b1
       3.44703e-40 6.115e-42 6.20838e-40 -4.9883013e-09
0000a0 78 47 6e 3e 36 0d ef 3d 7c 94 4c 3b 77 1b 6f 3b
       0.2326945 0.11672442 0.0031216433 0.0036484876
0000b0 ef fa b7 bd 41 65 80 3e 9d 8e 87 3f b6 61 82 3b
       -0.08983409 0.2507725 1.0590397 0.003978933
0000c0 d0 f0 81 3b 64 49 85 3e 42 c1 83 3b 3e a2 49 3b
       0.0039654747 0.26032555 0.004020841 0.003076687
0000d0 3d 7b 9b 3f 53 13 66 3b 0b fc 28 3e 49 6b 18 3e
       1.2146984 0.0035106733 0.16502397 0.14884676
0000e0 8c 64 4f 3b 8e c0 48 3b 84 d4 4d 3b 97 42 85 bb
       0.0031645624 0.003063235 0.0031407187 -0.004066776
0000f0 a1 f5 9b bb a7 77 97 bb 1f 8c 8c ab 52 56 20 ad
       -0.004759506 -0.004622418 -9.98649e-13 -9.114114e-12
000100 c3 a9 33 bb 74 2f 9a bb 24 1a a9 ba 0b 21 00 00
       -0.0027414418 -0.004705364 -0.0012901467 1.1854e-41
000110 48 1a 00 00 cb 2e 9b bb 36 34 00 00 cc ea 54 9e
       9.428e-42 -0.0047358028 1.873e-41 -1.12717414e-20
000120 90 f1 db ba 96 07 e7 9a 5b 97 96 bb 7e 6a 94 bb
       -0.0016780365 -9.5551616e-23 -0.0045956797 -0.0045292964
000130 0a 72 84 ac 75 04 78 aa 1f cd eb ab 84 c5 7c b2
       -3.7643265e-12 -2.2028371e-13 -1.6754687e-12 -1.471324e-08
000140 95 0d 68 bb 11 8a 51 bb 0b 62 03 00 76 c8 02 80
       -0.0035408486 -0.0031973163 3.10678e-40 -2.55583e-40
000150 6e 1e 95 ba e3 19 5d bb e8 31 b9 b8 57 9e 05 00
       -0.0011376867 -0.0033737354 -8.830783e-05 5.15979e-40
000160 2d b0 05 00 16 b5 62 bb 37 bc 00 80 fd 5b 00 00
       5.22377e-40 -0.00345928 -6.7519e-41 3.2999e-41
000170 1f 32 53 b9 9c 00 00 80 5f ae 4e bb 32 87 48 bb
       -0.000201412 -2.19e-43 -0.0031537039 -0.003059816
000180 6d ea 00 80 49 d5 04 00 3c de 03 80 01 7d 05 00
       -8.4096e-41 4.43854e-40 -3.55229e-40 5.0402e-40
000190 e8 25 bb bb d0 27 b5 bb f6 31 1a b7 11 c8 ce b7
       -0.005711306 -0.0055284277 -9.190748e-06 -2.4650277e-05
0001a0 8b d7 4a bb a5 ed b8 bb 08 62 9c ba 05 5e 73 b0
       -0.0030951228 -0.005643564 -0.0011931071 -8.8536495e-10
0001b0 fc 01 79 b0 f3 41 ba bb a6 60 65 b0 85 31 f1 b4
       -9.058849e-10 -0.0056841313 -8.344706e-10 -4.4925778e-07
0001c0 cc 69 db ba 86 9b 46 b6 d9 f0 b3 bb eb cb b0 bb
       -0.0016739904 -2.9594826e-06 -0.0054913578 -0.0053954027
0001d0 2e eb 57 b7 3e a8 cc b6 bd ca 30 b7 b6 9b 00 00
       -1.2869756e-05 -6.0992597e-06 -1.0537621e-05 5.5859e-41
0001e0 58 f5 d0 3e 24 38 9e 3e d3 40 5e ba ff 11 66 ba
       0.40812182 0.30902207 -0.00084782875 -0.00087764853
0001f0 ee 39 24 3f 9b 38 a7 3e d6 08 56 3e 0a 09 cc b4
       0.64150894 0.32660374 0.20901808 -3.8004538e-07
000200 57 4e e1 b4 b1 f7 a9 3e 03 0c 98 b4 e9 c9 97 b9
       -4.1966516e-07 0.33196786 -2.8320946e-07 -0.000289514
000210 09 e8 c2 3e f4 8b d0 b9 5d 25 8f 3e f3 76 9c 3e
       0.38067654 -0.00039777125 0.27958193 0.305595
000220 1c 0a 6e ba 80 52 4d ba ac 52 64 ba 45 83 82 bb
       -0.0009080486 -0.0007832423 -0.0008709829 -0.0039829337
000230 4c 06 36 b8 af 65 aa b6 78 39 06 80 f4 40 02 00
       -4.3398046e-05 -5.0782323e-06 -5.71629e-40 2.06972e-40
000240 5e 4d 5c 93 71 70 91 b7 8e 75 00 00 6c 4e 02 00
       -2.7806049e-27 -1.7337707e-05 4.217e-41 2.11803e-40
000250 ba 6d 06 80 72 2d e2 b7 7b b5 05 00 45 55 00 00
       -5.90375e-40 -2.6962462e-05 5.2428e-40 3.0589e-41
000260 1f 12 00 80 6c 97 00 00 31 20 5f b6 b8 2f a0 b5
       -6.5e-42 5.432e-41 -3.3248327e-06 -1.1934817e-06
000270 8a 08 06 00 16 30 00 00 3a 0a 00 80 0f 9c 00 80
       5.54076e-40 1.725e-41 -3.669e-42 -5.5983e-41
000280 84 5e 6d bc c3 55 60 3d 11 25 79 3b fa 1a 8c 3b
       -0.014487866 0.05476929 0.0038016478 0.004275677
000290 a3 eb 73 bd 52 1b 22 3e 30 12 dc 3f 06 4e 9f 3b
       -0.059550893 0.15830734 1.719305 0.004861596
0002a0 dd d0 9e 3b 29 1d 59 3e 36 dd a0 3b a7 34 79 3b
       0.004846676 0.2120253 0.004909183 0.0038025768
0002b0 32 83 ea 3f ef d0 88 3b 5e 40 29 3d 50 a6 aa b9
       1.8321288 0.0041752975 0.04132115 -0.0003254884
0002c0 f7 30 7b 3b d8 44 76 3b 64 13 7a 3b b8 57 80 bb
       0.0038328746 0.0037577655 0.003815853 -0.003916707
0002d0 ea ef 4a b7 80 48 94 b5 09 22 06 00 21 4e 00 00
       -1.2095998e-05 -1.104796e-06 5.63222e-40 2.8027e-41
0002e0 29 48 9a 05 a9 9d 99 b6 e4 a7 00 80 45 d0 05 80
       1.4508598e-35 -4.5781094e-06 -6.0228e-41 -5.3389e-40
0002f0 83 76 05 80 be c3 05 b7 38 d2 04 80 1f 25 04 80
       -5.01691e-40 -7.9729925e-06 -4.42754e-40 -3.80659e-40
000300 72 3a 00 80 9e 27 06 00 d6 36 3a b5 92 f3 66 b4
       -2.0966e-41 5.65225e-40 -6.9370196e-07 -2.150903e-07
000310 1b 88 05 00 84 25 03 00 7d 4a 02 00 3c cf 04 00
       5.08003e-40 2.88965e-40 2.10392e-40 4.41684e-40
000320 35 0b d6 3d e0 b9 bb bb f8 c1 83 3b 7e 3b 93 3b
       0.10451356 -0.005728945 0.0040209256 0.004493176
000330 fd c3 ef 3e 27 fa 78 bc 8c ca 3d 40 7b 3f 9c 3b
       0.46829215 -0.01519636 2.9654875 0.0047683096
000340 da ce 9b 3b d7 66 84 bd bd ab 9d 3b 65 2f 81 3b
       0.0047548832 -0.06464928 0.0048117326 0.0039424174
000350 bf 53 48 40 ea ec 8d 3b 3d 46 83 bd 49 e9 f3 bc
       3.1301115 0.004331221 -0.06409881 -0.029774325
000360 5e 05 85 3b fb 07 82 3b 1f 51 84 3b f2 ea 6e bb
       0.0040594777 0.0039682365 0.0040379907 -0.0036455956
000370 38 47 96 bb f9 2f 8f bb 65 30 05 00 13 0c 05 80
       -0.0045861267 -0.0043697325 4.76538e-40 -4.63509e-40
000380 d3 3f f8 ba 14 65 93 bb ef 1b 11 ba c6 48 04 80
       -0.001893992 -0.0044981334 -0.00055354735 -3.93448e-40
000390 62 bc 04 80 51 f2 94 bb 1b 81 03 80 61 53 05 80
       -4.34921e-40 -0.004545488 -3.21821e-40 -4.89088e-40
0003a0 7d 4a 5e ba a7 dc 05 00 00 d6 8d bb 2a 86 8a bb
       -0.00084797275 5.38333e-40 -0.0043284893 -0.0042274194
0003b0 4b 8f 05 00 cc 5b 00 00 f5 7c 06 00 fa 9a a9 b1
       5.10581e-40 3.293e-41 5.95839e-40 -4.936166e-09
0003c0 e9 56 8a bb a9 33 87 bb 90 18 1d b8 63 b9 a9 b8
       -0.0042217863 -0.0041260314 -3.7454593e-05 -8.093079e-05
0003d0 99 18 33 bb 26 65 89 bb a6 aa ae ba 21 f8 05 b3
       -0.0027327894 -0.004192966 -0.0013326004 -3.1192148e-08
0003e0 3e 04 08 b3 2f 2a 8a bb cd 0a 01 b3 36 a0 71 b6
       -3.1668826e-08 -0.0042164545 -3.0044976e-08 -3.6005054e-06
0003f0 ce 85 e0 ba ac f0 84 b7 55 84 86 bb d3 96 84 bb
       -0.0017129721 -1.5847698e-05 -0.0041051307 -0.0040463

conv_block.1.bias f4 [20]
000000 27 39 98 bb 0d 2a b1 be 05 15 6c ba 65 bc 44 bb
       -0.004645485 -0.34602395 -0.00090058177 -0.0030019518
000010 8e d7 46 bc ab 3e df ba 35 2a df be 00 2f b5 bb
       -0.012136353 -0.0017032226 -0.4358689 -0.0055292845
000020 5a a9 ec 3a a3 f3 c0 b6 eb 0c 03 bf 73 91 a2 bb
       0.0018055842 -5.750409e-06 -0.51191586 -0.0049611866
000030 65 98 c4 bc a6 9e a5 3e 77 23 54 3d 12 3c b7 bb
       -0.023998449 0.32347602 0.051791634 -0.0055918777
000040 38 54 06 3e 6d 92 ef be 93 d7 87 bb f1 03 d3 bb
       0.13118064 -0.46791402 -0.0041455715 -0.006439679

conv_block.1.lin.weight f4 [20, 20]
000000 dd 61 62 bb d7 2f 00 80 b4 81 67 bb dd 43 01 00
       -0.0034543194 -1.7162e-41 -0.0035325112 1.1618e-40
000010 d8 0a 00 80 5e 7e 15 87 5f 72 79 bb 87 c4 05 00
       -3.89e-42 -1.124665e-34 -0.0038062555 5.29678e-40
000020 d5 bd 2c bb 0c e0 03 00 6e 62 0b bb 1c d0 00 00
       -0.0026358266 3.5588e-40 -0.0021268385 7.4656e-41
000030 91 1d 82 92 3e f9 05 80 85 17 2c bb 3e 64 00 80
       -8.211442e-28 -5.48589e-40 -0.0026259136 -3.596e-41
000040 d7 fa 05 00 af 81 5f bb 1a 63 06 80 b8 71 bb b4
       5.49162e-40 -0.0034104397 -5.86564e-40 -3.4914206e-07
000050 a2 2c 5b 3d 01 07 45 32 cd 39 04 3e 49 5b 39 ba
       0.053509362 1.1468502e-08 0.12912674 -0.00070707925
000060 52 5d e0 ba 03 46 9b bb e4 e4 2b 3e 35 23 0c 26
       -0.0017117655 -0.0047385707 0.16786534 4.861997e-16
000070 41 fa 0f 3e c8 2a 00 28 92 00 69 3e dc f3 79 00
       0.14060308 7.114704e-15 0.22754124 1.1199575e-38
000080 13 cd bc bb 14 a5 05 00 98 1a 1f 3e b0 41 de b5
       -0.0057617514 5.18396e-40 0.15537488 -1.6559407e-06
000090 60 bc 16 3a 1c 75 28 3e e8 80 c6 3a 38 4f 8f be
       0.0005750116 0.16450924 0.0015144618 -0.27990127
0000a0 9c 4d 12 ba 48 01 00 00 89 f2 2f ba 6b 34 00 00
       -0.00055810227 4.6e-43 -0.0006711861 1.8804e-41
0000b0 7e 68 00 00 9d 16 01 80 b6 9d 62 ba 4c 2d 02 80
       3.7485e-41 -9.9948e-41 -0.00086447166 -1.9992e-40
0000c0 b0 6b a0 b9 69 79 01 00 39 7a 45 b9 c4 9b 00 80
       -0.00030597812 1.35389e-40 -0.00018832916 -5.5878e-41
0000d0 d7 2c 00 00 ce 1a 00 00 2b dc 94 b9 0f 44 00 80
       1.6086e-41 9.616e-42 -0.00028392798 -2.4415e-41
0000e0 29 6d 00 00 c5 1a 32 ba 56 79 04 80 07 c8 12 b9
       3.9159e-41 -0.000679415 -4.10869e-40 -0.00013998161
0000f0 82 3d 80 ba d7 41 03 00 01 c2 8c ba 5e 32 00 80
       -0.0009783956 2.99125e-40 -0.001073897 -1.8068e-41
000100 4c 68 00 00 78 cf 00 80 e9 27 a7 ba 78 97 00 00
       3.7415e-41 -7.4426e-41 -0.0012752983 5.4337e-41
000110 62 4e 66 ba 85 66 00 00 52 fd 27 ba 62 4b 00 80
       -0.00087854837 3.6777e-41 -0.0006408292 -2.7042e-41
000120 8a 81 00 80 6f aa 05 80 33 e6 59 ba 0c e1 05 80
       -4.647e-41 -5.20318e-40 -0.00083121954 -5.39909e-40
000130 bf 39 00 00 91 2d 88 ba b3 41 00 80 c2 93 36 b0
       2.0715e-41 -0.0010389556 -2.3568e-41 -6.642119e-10
000140 38 50 d2 bb 81 58 00 80 e7 74 df bb f5 4f 06 80
       -0.006418254 -3.1749e-41 -0.006819356 -5.79696e-40
000150 eb 91 00 80 03 84 01 80 8a 89 29 bc 9d bb 03 80
       -5.2346e-41 -1.39192e-40 -0.010347733 -3.4281e-40
000160 0b 4d 44 bb 8a c0 05 80 d0 61 5b ba 3c 36 00 00
       -0.0029953148 -5.28247e-40 -0.0008368762 1.9456e-41
000170 e1 1d 00 00 a1 af 00 00 70 6d 3a bb ee 04 06 00
       1.0719e-41 6.3004e-41 -0.0028446577 5.52781e-40
000180 ba 2f 00 80 17 c5 c8 bb b0 a9 05 80 ed 2c 66 2a
       -1.7121e-41 -0.0061270106 -5.2005e-40 2.044369e-13
000190 ca dd f1 b8 38 4c 00 80 bd d5 2e ba c2 0d 06 80
       -0.00011533087 -2.7342e-41 -0.0006669423 -5.55948e-40
0001a0 17 3a 06 00 19 a8 00 00 5d 2e 79 b9 e3 68 06 80
       5.71852e-40 6.0302e-41 -0.00023763762 -5.88639e-40
0001b0 86 a6 f1 b7 c2 a0 05 80 b7 b6 ba b6 e2 79 00 00
       -2.8806982e-05 -5.16847e-40 -5.5645028e-06 4.3723e-41
0001c0 6a 35 06 00 d3 8b 00 00 62 54 b8 b7 49 f9 05 80
       5.70174e-40 5.016e-41 -2.1973803e-05 -5.48604e-40
0001d0 73 3b 06 80 22 52 50 b9 bd 22 00 80 ff 45 00 00
       -5.7234e-40 -0.00019867023 -1.2462e-41 2.511e-41
0001e0 6f 43 9b 3d 0c be 98 33 16 c5 1e 3e 13 35 70 ba
       0.07581221 7.112621e-08 0.1550487 -0.0009163182
0001f0 ee 35 00 bb 0c 26 9e bb 38 96 54 3e d9 a5 43 2a
       -0.0019563395 -0.004826313 0.20760429 1.7377019e-13
000200 35 ef 21 3e 60 80 5e 2b df 33 7f 3e bb 5d 55 07
       0.15813906 7.90484e-13 0.24922131 1.6051884e-34
000210 b1 29 bf bb da 07 01 00 0c 7e 32 3e 4e 24 93 b6
       -0.0058338274 9.4652e-41 0.17430896 -4.385168e-06
000220 e2 ab 4f 3a 3f 91 46 3e b1 f8 fc 3a 22 6b a0 be
       0.0007922036 0.19391344 0.001930019 -0.31331736
000230 8a 55 a8 bb 3d 89 00 80 26 2c a9 bb cc 4b 05 00
       -0.00513715 -4.9232e-41 -0.0051627336 4.86368e-40
000240 40 69 01 80 85 65 00 00 af 8c ab bb fc 2b 00 80
       -1.29592e-40 3.6418e-41 -0.0052352767 -1.5779e-41
000250 fe 7a 9d bb 56 59 05 00 12 c1 94 bb d4 6d 05 80
       -0.0048059216 4.91225e-40 -0.0045396173 -4.98576e-40
000260 82 1b 18 80 6d 4c 05 00 ee 55 9d bb e4 91 00 00
       -2.21392e-39 4.86594e-40 -0.0048015034 5.2336e-41
000270 c6 de 00 00 59 71 a7 bb 63 29 06 00 0c 36 2e ba
       7.9916e-41 -0.0051099476 5.6586e-40 -0.0006645627
000280 22 99 cc 3c c2 fd 4c 23 ba 21 63 3d 80 ca 06 b8
       0.024975363 1.11125975e-17 0.055452086 -3.2136682e-05
000290 ce b9 b5 b9 7e b3 87 bb ac b8 a2 3d bf e6 a9 12
       -0.00034661446 -0.00414127 0.079453796 1.0722283e-27
0002a0 9a 48 e0 bc 35 08 00 80 d8 c5 05 bd 66 52 00 00
       -0.02737837 -2.944e-42 -0.03265938 2.9559e-41
0002b0 3f e2 af bb b5 9f 05 00 55 06 0b bd 4d 2c 42 ad
       -0.005367547 5.1647e-40 -0.033941586 -1.103746e-11
0002c0 91 64 bf 37 6a 97 2d 3d 4d 98 55 39 51 71 97 bf
       2.2815804e-05 0.042380728 0.0002037 -1.1831456
0002d0 46 e1 7f b6 1f a0 00 00 f8 dc 8a b6 e7 7f 03 80
       -3.8129087e-06 5.744e-41 -4.1384446e-06 -3.21389e-40
0002e0 e4 82 06 80 9b 8c 00 00 c3 27 03 b7 25 02 06 80
       -5.97968e-40 5.044e-41 -7.817466e-06 -5.51782e-40
0002f0 1f 84 7c b5 96 1c 06 80 cc 08 54 35 ef 2d 06 00
       -9.4069577e-07 -5.61268e-40 7.8988955e-07 5.67491e-40
000300 35 0b 04 80 da 47 00 00 a7 9a 63 b5 df 22 06 80
       -3.71362e-40 2.5775e-41 -8.478914e-07 -5.63522e-40
000310 9f 85 00 00 31 c5 75 b6 79 a9 00 80 50 73 84 b5
       4.7934e-41 -3.6622625e-06 -6.0795e-41 -9.868327e-07
000320 33 00 b2 3d 55 6a c4 34 35 db 3f 3e c3 d4 9a ba
       0.08691444 3.6585212e-07 0.18735965 -0.0011812676
000330 db 0d 12 bb b7 58 a1 bb d3 6b 77 3e c5 4b 8a 2d
       -0.002228609 -0.0049239057 0.24162225 1.5722432e-11
000340 13 a7 3d 3e 0c 6f 41 2e 0d e4 8f 3e 4f 13 1b 8f
       0.18520765 4.398175e-11 0.28103676 -7.645809e-30
000350 75 b3 c1 bb a2 62 03 80 5b ad 52 3e 83 93 3b b7
       -0.0059112855 -3.10889e-40 0.20573942 -1.1180414e-05
000360 14 d7 8b 3a 0a 66 6a 3e 88 1d 17 3b 34 a6 ac be
       0.0010668957 0.22890487 0.0023058373 -0.33720553
000370 a8 62 96 bb d5 f3 00 80 4d bc 97 bb bd 5c 02 80
       -0.0045893975 -8.747e-41 -0.0046306015 -2.16939e-40
000380 4e 86 02 00 26 61 00 80 42 3b 9c bb 97 65 00 80
       2.3185e-40 -3.485e-41 -0.0047678063 -3.6444e-41
000390 56 67 86 bb b6 e7 03 00 ab ec 75 bb 59 23 01 80
       -0.004101674 3.58629e-40 -0.0037525098 -1.04516e-40
0003a0 9a c3 02 80 0d 31 06 00 77 3b 86 bb f1 8b 01 00
       -2.5384e-40 5.68609e-40 -0.004096444 1.42037e-40
0003b0 c4 e0 05 80 32 86 95 bb 3b 7f 00 80 5e d1 3b b9
       -5.39808e-40 -0.0045631165 -4.5642e-41 -0.00017911705
0003c0 34 0b 90 3d fd 89 08 04 91 70 a0 3d 49 46 4c b8
       0.07033387 1.6050084e-36 0.0783397 -4.870285e-05
0003d0 46 a1 ee b9 39 a4 1d bb 59 33 0e 3e 6d 4a 1d 85
       -0.00045515056 -0.0024054183 0.13886775 -7.3957744e-36
0003e0 53 fd 37 be 81 fe 00 00 dc ec 23 bf 43 b1 00 80
       -0.1796773 9.1299e-41 -0.64033294 -6.359e-41
0003f0 7e 59 65 bb 53 89 05 00 dc bf 5c be 97 29 b0 ac
       -0.0034995968 5.0844e-40 -0.21557564 -5.0068383e-12

conv_last.bias f4 [20]
000000 b0 22 69 3c 3f 9c e1 bc 12 e3 26 bd 24 38 10 bd
       0.014229462 -0.027540324 -0.040743895 -0.03520979
000010 6e 47 ae 3c 8b 9a 0b 3d 9f 85 ec 3c c1 09 21 3d
       0.021274295 0.03408293 0.02887231 0.039315943
000020 57 b5 26 bc eb 9c 1f bd 72 02 16 3d 84 09 c1 bc
       -0.010175071 -0.038968008 0.036623426 -0.023564108
000030 a4 a2 1c 3d 89 6b d6 3c 21 5c 37 3d 76 aa 24 bd
       0.038241044 0.026174324 0.044765595 -0.040201627
000040 30 17 88 3c b4 4d f4 3c 1e 94 df 3b b0 a5 ee bc
       0.01661262 0.029822208 0.006823077 -0.02913174

conv_last.lin.weight f4 [20, 20]
000000 e4 38 3d bb 43 9d 84 3f 44 c0 d1 33 95 d5 00 80
       -0.002887302 1.0360492 9.767294e-08 -7.6619e-41
000010 81 91 1d 3b ca f4 23 2a ce b8 86 3f e2 96 62 3b
       0.0024043026 1.4562237e-13 1.0525148 0.0034574796
000020 bd 6c 34 3e 5b 34 ab b4 52 11 9d 3f cf 52 cb 3a
       0.17619605 -3.1889326e-07 1.2270911 0.001551235
000030 31 f3 f5 3f 81 6c 88 bd aa 16 f1 3f 63 48 7a bb
       1.9214841 -0.066613205 1.8835042 -0.0038190119
000040 fa 15 c3 3f cc eb 02 c0 ff 1c 2f bb f1 de 51 bb
       1.5241082 -2.045642 -0.0026720164 -0.0032023753
000050 86 62 96 3a f2 1a 3d bf 4d c9 58 3a bc 95 01 80
       0.0011473454 -0.7386924 0.0008269742 -1.4555e-40
000060 d8 d6 cc b9 d7 73 b4 8c 7e 77 59 bf f6 b7 31 bb
       -0.00039069983 -2.780311e-31 -0.84947956 -0.0027117706
000070 1c 2a 39 be 0b af 22 b3 0b b7 83 bf 39 b4 07 ba
       -0.1808247 -3.7877765e-08 -1.0290235 -0.00051766966
000080 b1 d3 fb bf bf 31 a6 3e df b6 ed bf a0 cb 17 3b
       -1.9673978 0.32459828 -1.8571433 0.0023162141
000090 0f 33 b7 bf 50 64 f5 3f 25 72 83 3a ed af 1b 3b
       -1.4312457 1.9171238 0.0010028525 0.0023755983
0000a0 d8 1f 2d 3b c6 91 69 bf ef 1a 74 3a 90 3c 01 00
       0.0026416685 -0.9123806 0.0009311875 1.13561e-40
0000b0 71 a2 03 bb 23 03 dd a7 9b b5 8e bf e6 5d 5d bb
       -0.0020085836 -6.1343223e-15 -1.1149172 -0.0033777892
0000c0 a1 70 40 be a2 a1 95 34 99 52 ac bf 79 cc b6 ba
       -0.18792965 2.7871016e-07 -1.3462707 -0.0013946436
0000d0 db 0a f9 bf a7 37 3d 3e 35 72 f2 bf 99 74 6e 3b
       -1.9456438 0.18478261 -1.8941103 0.0036385416
0000e0 7b f5 c1 bf 99 69 07 40 d2 52 1f 3b bb e9 4b 3b
       -1.515304 2.1158202 0.002431084 0.0031114656
0000f0 e4 13 29 3b 53 78 64 bf 66 d3 8c 3a 74 2d 00 80
       0.002579921 -0.892461 0.0010744154 -1.6306e-41
000100 9f a3 01 bb 88 ee 3c a7 a2 a9 7b bf c2 fc 5b bb
       -0.0019781364 -2.621955e-15 -0.98305714 -0.0033567403
000110 9a 9b 30 be 07 08 92 34 d9 03 9a bf 17 bf b1 ba
       -0.17246857 2.720046e-07 -1.2032424 -0.0013560978
000120 f2 40 f8 bf 8e 0c 12 3e f4 a3 f5 bf ab 65 6b 3b
       -1.939482 0.14262602 -1.919066 0.0035918753
000130 f4 91 c6 bf 45 8f 03 40 b4 5e 1b 3b 23 53 4a 3b
       -1.5513291 2.0556195 0.002370757 0.0030872307
000140 66 a7 3e bb 9b 50 80 3f cc bc ae ba 65 01 01 80
       -0.0029091476 1.0024599 -0.0013331412 -9.2336e-41
000150 e8 ff 1e 3b e2 ff 53 2a e9 8a 9a 3f 36 06 63 3b
       0.0024261419 1.8829342e-13 1.2073642 0.0034641153
000160 14 6b 3c 3e dc 17 ac b4 87 78 9d 3f 4f 22 cd 3a
       0.18400222 -3.2054857e-07 1.2302407 0.0015650484
000170 ad 80 f6 3f b3 ce b2 bd 6c 69 f0 3f 72 52 7b bb
       1.9258019 -0.08730831 1.8782172 -0.0038348702
000180 3b 3b c1 3f 30 26 05 c0 9f 85 30 bb 47 68 52 bb
       1.5096201 -2.0804558 -0.0026935113 -0.0032105611
000190 ae 65 05 bb a5 02 51 3f b3 40 4a bb 77 a7 00 00
       -0.0020354795 0.8164466 -0.0030861318 6.0075e-41
0001a0 9c 05 ad 3a ac 26 59 20 f6 7c 6e 3f 77 b9 4e 3b
       0.0013200524 1.839341e-19 0.93159425 0.003154365
0001b0 4f 8b 3b 3e 8d 48 1c b4 b9 2e 92 3f a0 15 86 3a
       0.18314861 -1.4555026e-07 1.1420509 0.0010229833
0001c0 b3 3a fc 3f 44 6e 73 be c3 dc fa 3f d3 f2 4e bb
       1.9705414 -0.23772532 1.9598621 -0.003157784
0001d0 43 cb c0 3f be 7b 00 c0 1a 96 f1 ba c7 4f 3b bb
       1.506203 -2.0075526 -0.0018431575 -0.0028581487
0001e0 f7 65 ce ba d0 86 41 3f 46 1c 27 ba 5c b3 00 00
       -0.0015746941 0.7559633 -0.00063747575 6.4342e-41
0001f0 d5 4c 4d 3a 6a 69 97 96 43 8a 5b 3f e6 34 41 3b
       0.0007831578 -2.4461891e-25 0.85757846 0.0029480993
000200 03 0c 2a 3e 34 0e e0 b2 85 c0 84 3f bf a9 45 3a
       0.16606145 -2.6083491e-08 1.0371252 0.0007540248
000210 d7 ad fb 3f 6c ab 80 be 3c c0 fa 3f 1a 19 34 bb
       1.9662427 -0.25130785 1.9589915 -0.0027480782
000220 0b f5 bc 3f 62 30 f7 bf 91 f6 b7 ba 22 66 2c bb
       1.4762281 -1.931164 -0.0014035275 -0.0026305993
000230 9e e0 2f bb ea 6f 76 3f 75 ba f7 ba 9f 05 01 00
       -0.0026836763 0.9626452 -0.0018900173 9.3852e-41
000240 92 96 04 3b 9a 6b 44 28 66 29 8c 3f 52 4a 5e 3b
       0.0020231348 1.0903518e-14 1.0950134 0.003391881
000250 a1 1e 3a 3e 9c 93 97 b4 c0 14 ad 3f b1 41 ba 3a
       0.18175747 -2.8233342e-07 1.3521957 0.0014210251
000260 d9 c5 f7 3f 6b d8 26 be 51 72 f3 3f a9 84 70 bb
       1.9357253 -0.16293494 1.9019262 -0.0036700165
000270 e2 67 c2 3f 09 dd 06 c0 2f 04 22 bb a4 f9 4c bb
       1.5187953 -2.107241 -0.0024721732 -0.0031276727
000280 7e 77 2e 3b 8f 77 2f bf eb 5d 97 3a e1 0b 00 80
       0.0026621516 -0.68541807 0.0011548375 -4.261e-42
000290 b6 67 f8 ba 96 b7 13 a8 a6 ba 3a bf c9 db 5d bb
       -0.0018951807 -8.199948e-15 -0.7294105 -0.0033852926
0002a0 6f ad 0e be 70 5a 90 34 47 31 42 bf 40 90 b8 ba
       -0.13933347 2.6887892e-07 -0.7585644 -0.0014081076
0002b0 3a d1 f1 bf 17 5c 92 bc 2b 8e f3 bf d2 71 6f 3b
       -1.8891976 -0.017866177 -1.9027761 0.0036536348
0002c0 dd eb cd bf 99 f7 e4 3f 07 a3 20 3b 42 61 4c 3b
       -1.6087605 1.7888061 0.0024511234 0.00311859
0002d0 25 42 2a 3b 56 e1 63 bf 36 3b ef 38 93 55 00 80
       0.0025979367 -0.8901571 0.00011407437 -3.0698e-41
0002e0 d2 b1 f3 ba 14 04 72 a7 10 66 8c bf 6c 68 5c bb
       -0.0018592423 -3.3586457e-15 -1.0968647 -0.0033631576
0002f0 9f 03 34 be fd b3 8c 34 75 b6 a3 bf 43 29 b3 ba
       -0.17579506 2.620799e-07 -1.2790056 -0.0013668913
000300 56 7e f6 bf 72 95 f6 3d de fb f1 bf b5 4e 6c 3b
       -1.9257305 0.12040223 -1.8904989 0.0036057655
000310 ee 6f c3 bf cf 86 04 40 b2 85 1c 3b 2a d5 4a 3b
       -1.5268533 2.070728 0.00238834 0.003094981
000320 db 96 35 bb 0b e1 82 3f a7 da 20 bb b4 f3 00 00
       -0.0027708325 1.0224928 -0.002454439 8.7424e-41
000330 42 84 04 3b 45 1a 1e 29 83 ff 95 3f aa 2c 60 3b
       0.0020220433 3.5105833e-14 1.1718601 0.003420631
000340 e8 c5 40 3e fc ab 99 b4 2d a9 b4 3f a3 77 c1 3a
       0.18825495 -2.8623606e-07 1.4114128 0.0014760386
000350 4f 84 f5 3f 53 93 09 be e9 8a ee 3f 66 c0 74 bb
       1.9181002 -0.13435106 1.8636142 -0.0037346124
000360 1f 7e be 3f da 8d 06 c0 02 9d 27 bb 14 25 4f bb
       1.4882239 -2.102408 -0.0025575762 -0.0031607794
000370 d1 51 39 3b e4 eb 7b bf 02 ae 6b 3b 2b da 00 80
       0.0028277526 -0.98406816 0.003596187 -7.8264e-41
000380 f0 cd 17 bb b7 be 9c a9 ca d5 86 bf 00 5a 61 bb
       -0.002316352 -6.9608754e-14 -1.0533993 -0.003438592
000390 0e 82 32 be 80 54 a7 34 84 a2 99 bf 0a 52 c6 ba
       -0.17432424 3.1167656e-07 -1.2002721 -0.0015130651
0003a0 dc ae f6 bf 56 47 b5 3d 4e 36 f2 bf 34 74 77 3b
       -1.9272113 0.08851497 -1.8922822 0.0037758471
0003b0 32 94 c3 bf 98 51 05 40 93 46 2b 3b 9b 73 50 3b
       -1.5279601 2.083105 0.0026134595 0.0031807187
0003c0 de 39 34 bb 32 7d 77 3f 3c 75 62 b9 a0 b4 00 00
       -0.0027500312 0.9667541 -0.00021596713 6.4796e-41
0003d0 f9 a4 08 3b af 2c ed 28 f7 7c 93 3f 72 b8 5f 3b
       0.0020850284 2.6331664e-14 1.1522511 0.0034137038
0003e0 7c 22 3a 3e 5e 21 9c b4 34 3a a7 3f 53 c2 bf 3a
       0.18177217 -2.9081542e-07 1.3064637 0.0014630057
0003f0 d1 eb f6 3f 90 ea 07 be 37 a3 f0 3f ea bd 73 bb
       1.9290715 -0.13273072 1.8799809 -0.0037192055

pred_model.weight f4 [2, 80]
000000 f8 96 a4 bd 13 4b 07 be d7 0b 03 b9 1a 88 77 b9
       -0.080366075 -0.13212232 -0.00012497544 -0.00023606457
000010 48 4c ae 3e 2d 50 14 bd d9 e3 ce be 9c c4 bc b4
       0.34042573 -0.036209274 -0.4040821 -3.516078e-07
000020 2a 1a bf b4 f9 a8 ec 3d b4 77 b7 b4 6f 6f a6 b7
       -3.559556e-07 0.115556665 -3.4173502e-07 -1.9840632e-05
000030 19 b7 08 bf 58 67 87 b8 ac ea c1 bd d6 ef 82 bc
       -0.53404385 -6.456551e-05 -0.09468588 -0.015983503
000040 ca 1e 20 b9 80 d6 cc b8 31 35 0e b9 65 30 98 37
       -0.00015270259 -9.767432e-05 -0.0001356199 1.8142347e-05
000050 76 97 c4 bd 71 4f 00 80 77 62 1b 3d 3b 8d 09 00
       -0.095992014 -2.8498e-41 0.0379357 8.77183e-40
000060 5e a6 74 9d 0c 3c 94 b8 60 2d c4 3b f0 56 01 80
       -3.237914e-21 -7.0683745e-05 0.0059868544 -1.23023e-40
000070 7d f1 34 be 23 5c 01 80 a2 aa 26 bd 21 e4 01 00
       -0.17670245 -1.24888e-40 -0.040690072 1.73673e-40
000080 ff 32 9a b9 6c 64 04 80 f4 32 c2 bd 13 7c 00 80
       -0.00029411164 -4.03367e-40 -0.09482375 -4.451e-41
000090 52 5e 00 80 d0 70 96 3d b4 db 02 8b 7c 1f 3c bf
       -3.3836e-41 0.07345736 -2.5202376e-32 -0.7348554
0000a0 0c b9 77 b7 c5 5d 56 3f 9b 58 28 b9 eb 5d 01 80
       -1.4765432e-05 0.8373683 -0.00016054737 -1.25527e-40
0000b0 85 5a 02 2b a1 bf 00 00 c9 73 66 3f 0e 83 64 3a
       4.63109e-13 6.8743e-41 0.90020424 0.00087170384
0000c0 1a 38 1c 3d 06 2c 9e 30 b4 fa 90 3f 63 7c 49 36
       0.03813944 1.1508525e-09 1.1326509 3.0023737e-06
0000d0 3c 34 a8 3f b8 83 41 3d 68 21 84 3f 09 03 6f b9
       1.3140941 0.047244757 1.0322695 -0.00022793947
0000e0 46 d8 45 3f 16 90 25 c0 58 0d 23 b7 c8 75 1d ba
       0.7728313 -2.5869193 -9.718664e-06 -0.00060066255
0000f0 ce f8 aa 40 4e 35 40 c0 6c ba 9e c0 bc b7 9d c0
       5.3428717 -3.0032535 -4.9602566 -4.9286785
000100 57 ac ab 40 d9 31 86 40 aa ff 64 40 aa cf 9f 40
       5.3647876 4.193585 3.5781045 4.9940996
000110 27 2f 99 c0 2f 66 97 c0 44 04 9e 40 9c 1f a8 c0
       -4.787006 -4.7312236 4.9380207 -5.2538586
000120 10 65 9f 40 aa 55 a4 40 31 27 a2 40 f7 56 a1 c0
       4.9810867 5.135457 5.067284 -5.041866
000130 b5 a8 a8 40 73 9e 5f 40 b5 50 8f 40 80 ec a6 c0
       5.270594 3.494046 4.478602 -5.2163696
000140 48 f7 0b 3e f6 a7 2f 3d d5 0b 03 39 1a 88 77 39
       0.13668549 0.04288479 0.00012497541 0.00023606457
000150 99 72 ae be 48 fb cf 3d c3 b7 ca 3e 9c c4 bc 34
       -0.34071806 0.1015535 0.39593324 3.516078e-07
000160 2a 1a bf 34 86 2f c4 bd b4 77 b7 34 6f 6f a6 37
       3.559556e-07 -0.09579377 3.4173502e-07 1.9840632e-05
000170 61 73 07 3f 58 67 87 38 b5 df 18 3d 7e 11 b9 3d
       0.5291043 6.456551e-05 0.03732272 0.090365395
000180 ca 1e 20 39 7e d6 cc 38 30 35 0e 39 9e 30 98 b7
       0.00015270259 9.76743e-05 0.00013561989 -1.8142451e-05
000190 a6 17 d0 3d 71 4f 00 00 46 cf 03 3e 3b 8d 09 80
       0.101607606 2.8498e-41 0.12872037 -8.77183e-40
0001a0 4d fd 8c 1d 0c 3c 94 38 01 50 48 bc 06 12 00 00
       3.73196e-21 7.0683745e-05 -0.012226106 6.466e-42
0001b0 6e bf ac 3d bc 27 01 80 b6 57 cf 3c 21 e4 01 80
       0.0843495 -1.0609e-40 0.025310379 -1.73673e-40
0001c0 ff 32 9a 39 6c 64 04 00 bf 2a 55 3d 13 7c 00 00
       0.00029411164 4.03367e-40 0.05204272 4.451e-41
0001d0 b4 60 00 00 a2 a4 88 bd 2e fd 02 0b 6c fe 3a 3f
       3.469e-41 -0.06672026 2.522756e-32 0.73044467
0001e0 0c b9 77 37 af da 55 bf c0 a3 27 39 bf 96 03 80
       1.4765432e-05 -0.8353681 0.00015987363 -3.29584e-40
0001f0 dd 58 02 ab 35 8a 00 80 7e 7c 62 bf 0e 83 64 ba
       -4.63086e-13 -4.958e-41 -0.8847121 -0.00087170384
000200 ce 33 69 bd 79 21 97 b0 d2 cd 90 bf 6b 7c 49 b6
       -0.05693417 -1.099621e-09 -1.1312811 -3.0023755e-06
000210 99 2c a2 bf c7 5a 46 bd 99 52 85 bf 09 03 6f 39
       -1.266986 -0.048426416 -1.0415832 0.00022793947
000220 95 ae 44 bf b1 c4 27 40 54 0d 23 37 c8 75 1d 3a
       -0.7682889 2.62138 9.71866e-06 0.00060066255
000230 9e f8 aa c0 74 39 3f 40 69 48 9d 40 13 af 9c 40
       -5.342849 2.9878817 4.915089 4.8963714
000240 b9 a1 ab c0 55 88 87 c0 a9 aa 64 c0 92 da 9c c0
       -5.3634915 -4.235392 -3.5729163 -4.901681
000250 c7 21 99 40 d0 43 9a 40 86 7c 9d c0 c2 31 a8 40
       4.785373 4.820778 -4.9214506 5.256074
000260 dd 20 a1 c0 96 53 a4 c0 96 bf a2 c0 bd 3f a1 40
       -5.0352616 -5.1352034 -5.085887 5.0390306
000270 10 a6 a8 c0 bd 78 62 c0 a2 4f 8f c0 95 df a6 40
       -5.2702713 -3.5386193 -4.478471 5.2147927

pred_model.bias f4 [2]
000000 60 fe 8b 3d 9e c5 0c bc
       0.068356276 -0.0085920375
