params/explainer.ckpt (torch, 93003 bytes, 30 tensors)

gcn_shared.module_0.bias f4 [32]
000000 f8 59 b8 bd 55 fa 8a bd 3c 59 9f bd 40 f6 92 bd
       -0.09001535 -0.06786028 -0.07780692 -0.07175875
000010 43 2b 83 bd 78 9c ba bd f2 11 83 bd 7a df 09 be
       -0.06404736 -0.09111875 -0.06399907 -0.13464156
000020 e1 85 b3 bd 41 c3 56 bd b6 e6 55 bd e4 06 0c be
       -0.0876577 -0.052432302 -0.052221976 -0.13674504
000030 78 b7 da bd e3 10 af bd f6 2d ba bd 8e 28 8e bd
       -0.10679525 -0.08548143 -0.090907976 -0.06941329
000040 79 60 5f bd 26 3a 0b bd de 98 c2 bd 0b 0f c6 bd
       -0.054535363 -0.033991 -0.09501813 -0.09670838
000050 a7 ac af bd fc 13 e5 bd e0 d8 e2 bd cf 92 ea bd
       -0.08577853 -0.11185452 -0.11076522 -0.11453783
000060 e2 bb c3 bd 3b 16 32 bd 2a 9f b8 bd 6a de 74 bd
       -0.0955732 -0.043478232 -0.09014733 -0.059782423
000070 6e 8d be bd 69 c9 78 bd d4 45 29 3d b4 da d5 bd
       -0.09304319 -0.060738955 0.04132636 -0.10442105

gcn_shared.module_0.lin.weight f4 [32, 37]
000000 99 46 2d be ed 84 96 3c aa a2 9f 3d 77 f4 ac bb
       -0.16921462 0.01837393 0.077946976 -0.005278166
000010 2e 20 9e be d3 1f 19 bd 2b b5 70 be 5b ec 37 3d
       -0.30883926 -0.037383866 -0.2350661 0.04490314
000020 c9 e8 88 bd 68 1a 80 3d 23 c0 d0 3c ce c4 24 3d
       -0.06685025 0.062550366 0.025482243 0.04022675
000030 3c 22 07 00 94 9a 6f bd 59 0c 08 80 a8 a9 2d 3d
       6.5513e-40 -0.058497027 -7.39113e-40 0.042398125
000040 47 83 8c bd a1 25 1c 3d d7 d4 2a bd ad 1d a4 3d
       -0.06860977 0.038121823 -0.041706886 0.08013473
000050 59 3b b6 3c 2f 0f 42 bb c8 db 09 00 94 e9 12 3d
       0.022245096 -0.00296111 9.05362e-40 0.03586729
000060 07 eb 87 3d 87 73 32 bd da a2 cf bc 9f 11 09 80
       0.06636625 -0.043567207 -0.025346208 -8.32841e-40
000070 31 0e 3d 3d 52 97 a9 bd e6 42 02 80 dc f9 03 00
       0.046156112 -0.08280815 -2.0767e-40 3.65139e-40
000080 2c 99 0a 00 a6 80 12 00 4b f1 10 80 a1 d4 76 3d
       9.73303e-40 1.699189e-39 -1.555928e-39 0.060261372
000090 31 2f 03 00 14 38 85 be 79 f8 de 3d 1d 98 17 bd
       2.92436e-40 -0.26019347 0.10887236 -0.0370103
0000a0 c7 a3 26 bd 3c 74 54 3d 2b 6b 4e bc 38 a1 52 3d
       -0.040683534 0.051868662 -0.012598793 0.05142328
0000b0 2f c8 09 00 1c 7a 17 3d c4 34 c2 3c d1 0a 00 00
       8.98332e-40 0.036981687 0.023706801 3.88e-42
0000c0 aa 8a 59 3d 84 04 59 3d a1 b3 09 80 33 fb 04 80
       0.053110756 0.052982822 -8.90958e-40 -4.57455e-40
0000d0 8e 3a 01 80 51 90 01 bd 1a d2 59 3d 68 b5 59 3c
       -1.12841e-40 -0.03163177 0.053178884 0.0132878795
0000e0 19 f5 11 3e 78 77 03 00 5b e6 db 3d 4d 9c 04 80
       0.14253654 3.18364e-40 0.10737296 -4.23412e-40
0000f0 cc 54 3d 3d 07 75 02 3e 1a 99 f9 3c 64 ed 04 80
       0.046223447 0.12739955 0.030468512 -4.52502e-40
000100 b4 1e 56 3d 12 5f 3e bb 2a 92 03 80 d1 dc 5a 3d
       0.052275375 -0.0029048366 -3.2794e-40 0.053433243
000110 1a 6e 06 80 22 fe 0d 80 14 ba 0e 80 7a 5a 09 00
       -5.9051e-40 -1.285027e-39 -1.352449e-39 8.58976e-40
000120 5b 6d 07 80 66 54 01 80 13 83 90 3c 28 90 21 bd
       -6.82078e-40 -1.22112e-40 0.017640626 -0.03944412
000130 0b d9 85 3d 09 2b cf bc 4d 6a 31 be 95 7e 9c 3c
       0.06535538 -0.025289075 -0.17325707 0.019103328
000140 0c 74 92 be 65 8f 30 3d ed 26 85 be 6d cd 01 00
       -0.28604162 0.0431055 -0.2600626 1.65528e-40
000150 43 da 12 00 b2 b5 02 80 a8 8f 09 00 e9 84 b9 3c
       1.731336e-39 -2.48851e-40 8.78054e-40 0.022646384
000160 57 1d 00 00 d6 44 05 80 2e 8c 26 3b 39 bf 01 00
       1.0525e-41 -4.83871e-40 0.0025413143 1.60433e-40
000170 20 a3 d3 3a 0b 22 8e 3d d6 a4 28 be fa 29 d0 ba
       0.0016146637 0.06940087 -0.1646913 -0.0015881651
000180 81 0c 02 00 00 26 3a 3d 37 08 47 3c 98 9c e0 bc
       1.88157e-40 0.045446396 0.012147955 -0.02741842
000190 99 16 05 3c 2b ac 10 00 2d c5 39 3d 0e 9b d1 bc
       0.0081230635 1.53113e-39 0.045354057 -0.025586631
0001a0 5c 0c 96 3c 73 68 0a 00 f9 a6 02 00 4b 84 02 00
       0.01831644 9.55824e-40 2.4357e-40 2.31129e-40
0001b0 04 16 13 80 4e 50 01 00 6a e2 59 3d f7 38 bd bc
       -1.752772e-39 1.20643e-40 0.05319444 -0.023098452
0001c0 1f fb dc 3d 7a 99 ad bc c6 3b 0f bd 01 bc ad 3c
       0.10790085 -0.021191347 -0.034969114 0.021207811
0001d0 fa 50 6e 3c 7b ad 26 3d 89 f8 0b 00 78 80 12 3d
       0.0145456735 0.040692788 1.099348e-39 0.03576705
0001e0 e0 a1 3d 3d 63 72 23 3d 4e cd 35 3d f8 80 63 3d
       0.046296954 0.03990401 0.044385247 0.055542916
0001f0 25 aa 04 3d a9 5e 33 3d b5 9c 01 00 3d fd b9 bc
       0.032388825 0.043791447 1.48051e-40 -0.022703761
000200 7c 7f 38 3d cf 58 99 3c 0e 39 01 80 3e a9 36 3d
       0.045043454 0.018719105 -1.12303e-40 0.044594996
000210 10 fe 03 3e fc e2 04 80 2b e3 26 3d 52 9c 01 00
       0.12889886 -4.48769e-40 0.040743988 1.47913e-40
000220 45 0f 0a 00 be b4 90 be bd 82 04 80 16 0f 50 3d
       9.23833e-40 -0.28262895 -4.14242e-40 0.050795637
000230 a2 ce 8f bd fd ce 8d 3c 1c fb 00 80 7f 23 02 00
       -0.07021834 0.017310614 -9.0081e-41 1.96405e-40
000240 a5 21 35 3d 17 0f 34 3d cc 93 09 80 cc ad 9b 3d
       0.04422154 0.043959703 -8.79539e-40 0.076015085
000250 97 18 86 bd cc d0 f9 3d 0a c6 a0 bd 93 21 d4 bd
       -0.06547659 0.12198028 -0.07850273 -0.10357966
000260 a3 84 c6 3c 7b 8c 44 bd 81 a2 65 bc 40 eb 0c 80
       0.024233168 -0.047985535 -0.014015795 -1.186418e-39
000270 43 52 06 80 6b e7 04 00 7e 9b 01 80 40 f0 01 80
       -5.80523e-40 4.50359e-40 -1.47616e-40 -1.78021e-40
000280 82 d5 ea 3c 92 0e f2 bb 0a ee 3e 3c 33 6d 84 3b
       0.028666262 -0.007386991 0.011653433 0.004041338
000290 45 c4 c1 bd a8 8a 0c 00 e0 80 07 00 f4 df 09 00
       -0.094612636 1.151766e-39 6.8908e-40 9.06859e-40
0002a0 78 0b 02 80 72 e0 df 3d 42 21 09 00 fd e0 10 80
       -1.87785e-40 0.109314814 8.3845e-40 -1.550079e-39
0002b0 2b 3a 08 80 e7 b6 0c 80 07 71 08 80 7b 5e 02 00
       -7.55551e-40 -1.167639e-39 -7.7523e-40 2.17564e-40
0002c0 66 f3 80 bc 3c 3e 09 80 8a d4 5e 3c 57 1c 2e 3c
       -0.015741061 -8.48845e-40 0.013600478 0.010626874
0002d0 9c 3b 05 80 21 fe 08 00 71 69 11 3c 7f 41 3d 3c
       -4.80561e-40 8.25848e-40 0.008875237 0.01155126
0002e0 18 c0 07 00 58 f8 87 3d d6 d5 01 3e 4b 39 cb bd
       7.11759e-40 0.06639165 0.12679228 -0.09923037
0002f0 46 54 5f 3d fa 78 90 3d 9a b5 61 be 55 e9 ea 3a
       0.05452373 0.070543244 -0.22041932 0.0017922322
000300 07 84 00 80 4e f0 93 3d d5 aa cf 3c 48 df 02 80
       -4.7362e-41 0.07223569 0.025350014 -2.63769e-40
000310 52 ec 04 00 27 56 00 00 a9 9f 0e 80 fb ee 08 00
       4.52118e-40 3.0906e-41 -1.342972e-39 8.20414e-40
000320 5b e9 81 3d 5d 22 c0 3c bc c4 6c bb f8 bc 92 3d
       0.06343337 0.023453886 -0.0036128005 0.07164949
000330 86 65 08 00 b2 db 0e 00 01 78 0b 80 96 1d 03 80
       7.71104e-40 1.364509e-39 -1.05324e-39 -2.8612e-40
000340 3c ab 14 00 d4 ef 09 80 99 ef af 3c ed c0 06 80
       1.898137e-39 -9.12554e-40 0.021476554 -6.20222e-40
000350 cb e2 86 3d 7e 7c 87 bc e3 43 0f 00 e1 9c 20 3d
       0.06586226 -0.016538855 1.401886e-39 0.03921211
000360 36 3c 03 80 cb b9 07 00 d0 2b 0b 80 af 51 11 80
       -2.97106e-40 7.09498e-40 -1.025907e-39 -1.590506e-39
000370 1a 36 09 80 2f 6a 34 bd ab 42 95 bd aa 01 c8 3c
       -8.45927e-40 -0.044046577 -0.072881065 0.024414856
000380 76 02 5e 3d 5b 51 90 be c6 c1 7d be d4 52 b9 bb
       0.054201566 -0.2818707 -0.2478095 -0.005655626
000390 35 8e 8a bd 47 f3 23 3d a1 9d bd bd 5a 1d 00 80
       -0.06765405 0.04002693 -0.09258581 -1.053e-41
0003a0 af 72 10 00 1d 18 10 3d 52 73 07 3d 52 08 2c bc
       1.510509e-39 0.035179246 0.033068962 -0.010500031
0003b0 86 dd 0e 3d a4 d8 1b 3d 33 f8 b0 bd c7 3e 05 80
       0.03487923 0.0380484 -0.0864109 -4.81698e-40
0003c0 38 9c 1c bc d3 ea 75 3d f3 b0 4a 3c 5d 52 19 3a
       -0.00955873 0.0600384 0.01237129 0.000584876
0003d0 1d 15 03 00 c6 e7 06 3d 07 84 47 3d 07 14 b9 3c
       2.8308e-40 0.03293588 0.048709895 0.022592558
0003e0 15 ca 2e be 52 9a 11 00 a2 f9 2b 3c 3e 08 14 bd
       -0.17069276 1.616563e-39 0.010496529 -0.036140673
0003f0 af 68 03 00 24 8c 2a 3d bf d5 02 00 71 97 04 3d
       3.1306e-40 0.041637555 2.60349e-40 0.03237099

gcn_mu_causal.bias f4 [64]
000000 63 b1 37 3b 6a 32 e0 ba 0f 71 15 3b 07 1b a4 ba
       0.0028029315 -0.0017104868 0.0022802984 -0.0012520262
000010 ba 62 7d ba 9e 92 3b bb 73 9a c2 39 54 ad 86 ba
       -0.00096658955 -0.0028621326 0.00037117637 -0.0010275044
000020 90 f7 7a 3a 4c 55 01 bb 6c 94 34 3b f5 51 11 3b
       0.0009573633 -0.0019734679 0.0027554287 0.0022174094
000030 9c fb 21 3b db 0a 4d bb e1 f5 25 bb b1 d5 28 bb
       0.0024716621 -0.0031286988 -0.0025323557 -0.0025762136
000040 26 59 01 3b 1d 0f a1 3a b7 19 c8 ba ab 71 32 ba
       0.0019736975 0.0012287829 -0.0015266453 -0.0006807099
000050 c7 4f 0d 3b ff 4a 67 ba 24 c4 ff 3a e6 7a 63 bb
       0.0021562444 -0.0008823126 0.001951341 -0.0034710704
000060 62 33 5f 3b d0 77 a8 37 41 eb ee ba 68 a7 69 ba
       0.0034057726 2.0082953e-05 -0.001822807 -0.000891319
000070 35 be 0b 3a 3a 18 c3 3a 73 55 0f 3b 3d 46 c3 ba
       0.0005330772 0.0014884539 0.0021871 -0.0014898252
000080 f3 d8 15 3b f0 e7 01 3b 9a 0e 72 b9 9c 04 fd ba
       0.0022864908 0.0019822083 -0.00023084358 -0.0019303742
000090 62 30 f7 38 b4 cc 4b bb 17 8e 60 3b cd 22 10 bb
       0.0001178689 -0.0031097354 0.003426438 -0.00219934
0000a0 f9 5b 0f bb 3d 97 76 3a 63 c1 e5 ba b0 5e 39 ba
       -0.0021874888 0.00094066915 -0.0017528947 -0.00070712995
0000b0 e8 61 47 bb 17 30 9c ba 75 64 0c b9 e5 09 60 3a
       -0.0030423347 -0.0011916187 -0.00013388864 0.0008546396
0000c0 5d 2e d6 ba a9 5f 15 3b 46 ff f7 ba 35 21 15 3b
       -0.0016340722 0.0022792614 -0.0018920682 0.0022755389
0000d0 4d af 71 ba 95 8d 26 bb ed 9d 66 3b 78 6c cb ba
       -0.0009219542 -0.002541398 0.0035189346 -0.0015519997
0000e0 c1 bc 69 3a f2 98 7e ba 3b ca 46 3b 83 ef 2a bb
       0.0008916371 -0.00097121217 0.003033294 -0.0026082702
0000f0 80 80 d5 3a 29 5f fe 3a 65 42 b1 39 98 1f 0f bb
       0.0016288906 0.0019407022 0.0003380954 -0.00218389

gcn_mu_causal.lin.weight f4 [64, 32]
000000 31 af e0 bd 2a fd bb 3d c3 99 c3 3d 3d e6 06 be
       -0.10970915 0.091791466 0.09550812 -0.13173766
000010 a9 ff 26 3d ba b8 89 bd 5f 13 d0 bc 9d 05 f2 bd
       0.04077116 -0.06724687 -0.025399862 -0.11817477
000020 5e 22 34 be 13 d5 f1 bd 42 b5 92 3d 59 0a ca bd
       -0.17591235 -0.11808219 0.071634784 -0.09865255
000030 e4 7b 85 3e 58 3c 23 be d6 10 22 3c c9 95 60 3c
       0.26071084 -0.15940988 0.009891709 0.013707587
000040 3e b5 1d bd be 53 b9 3d 3d 45 aa 3d fc 5a 78 3e
       -0.038502924 0.09049176 0.083139874 0.24253458
000050 bb 0c d5 3d 64 48 1a 3e 29 e3 ca bb a2 5a fc bc
       0.10402819 0.15066677 -0.0061916304 -0.030804936
000060 5a cc b3 bc 43 62 89 3e a1 8c 94 bd 7f 3a 45 3d
       -0.021948028 0.2683278 -0.07253385 0.04815149
000070 b5 ac 34 3d b8 b9 0b be 7f 25 ef 3c fc de d4 bd
       0.04411002 -0.13645065 0.029192684 -0.103940934
000080 0d f7 8b 3d d7 11 08 3c e2 82 1e be 21 2c 3b be
       0.068342306 0.008305035 -0.15479615 -0.18278553
000090 02 34 aa 3d 3b 71 18 3d cd a8 55 3d ed 83 d3 3c
       0.08310701 0.03721736 0.052162934 0.025819743
0000a0 bd f6 c2 3d 10 5c 66 3e cb 09 2e be 57 29 20 be
       0.09519718 0.22496057 -0.16995923 -0.1564077
0000b0 54 4d 93 3d cd 3e c0 3d bf 19 66 3d 98 ed 25 be
       0.071924835 0.09386978 0.056176897 -0.16203916
0000c0 3e 27 11 3b b2 ef 52 be 5b 6c 3d 3e a2 af ee bd
       0.0022148634 -0.20599249 0.18498366 -0.11654593
0000d0 1b 1e 1e bc 56 c8 fa 3d 79 e1 35 be 4e 54 e1 3d
       -0.009650732 0.12245242 -0.17761792 0.11002408
0000e0 32 86 ab bd cd a1 f5 3d 87 72 aa bc 19 9e ef bd
       -0.08375205 0.11993752 -0.020806564 -0.117000766
0000f0 f9 04 23 bd bf b2 cc 3d 43 4f 87 3d af 8f 40 3e
       -0.039799664 0.099950306 0.06606915 0.18804811
000100 85 1f 0d 3e 4f 51 09 3d 79 60 7d 3d 5e df 63 3d
       0.13781555 0.033524808 0.06185958 0.05563294
000110 b6 1d 9f bd a3 08 f7 3c 51 15 a4 bd 18 6c 16 bc
       -0.07769339 0.030155485 -0.08011878 -0.009181045
000120 01 5a 2f be 49 56 c1 3d 7a 0a 40 be d9 96 9b bc
       -0.17124178 0.09440286 -0.18753996 -0.018992828
000130 11 f7 08 be 03 9a ed 3d 2a 06 38 be 16 76 83 bd
       -0.13375498 0.11601641 -0.17971101 -0.064190075
000140 73 1b 79 3d 15 70 1a 3e e2 c2 0e 3d 27 3f 6f bd
       0.060817193 0.15081818 0.034853823 -0.058409836
000150 79 45 96 bc 1a d9 44 be 6a 57 e2 3d f9 01 02 be
       -0.018343674 -0.19223443 0.11051829 -0.12696065
000160 45 83 2c be a5 14 05 be 79 b3 95 bd b0 db 67 bd
       -0.1684695 -0.12996157 -0.07309622 -0.056605995
000170 94 3e 50 3d 33 ff 08 3e 74 23 10 3b 79 1d 3c 3e
       0.05084093 0.13378601 0.0021993788 0.18370618
000180 47 4a 86 bd c6 3c db 3d 76 97 25 3d dd 2d 19 3e
       -0.06557136 0.10704951 0.040427648 0.14958902
000190 95 3c 43 be 28 81 0f 3c e0 9a 2d 3e 43 52 c5 bd
       -0.19066079 0.008758821 0.16953611 -0.09634831
0001a0 8c 04 6d 3e fa 9e 82 bd 93 45 38 3e 60 a5 15 be
       0.23146266 -0.063779786 0.1799529 -0.14613867
0001b0 00 28 2a bd ee 15 2f 3d 74 27 52 3e a5 a9 15 3e
       -0.041542053 0.042745523 0.20522863 0.14615496
0001c0 d3 00 a2 3d 9d 13 ec bd 1c 6c d8 bc 59 64 0c be
       0.079103135 -0.115271784 -0.026418738 -0.13710155
0001d0 16 7e 9b bd 95 0d d4 bd 08 74 e4 bd 0c fe 1a 3d
       -0.07592408 -0.10354153 -0.11154944 0.037839934
0001e0 de 43 56 3d bb 89 1a 3e e3 fe 8e bd 6d 7f f6 3d
       0.052310817 0.15091603 -0.069822095 0.12036023
0001f0 04 4b 1d be 4b 5c 20 bd fb 32 9b bd 7d af 5a 3d
       -0.15360647 -0.039150517 -0.07578083 0.053390015
000200 2e f0 52 3d 10 28 fa bd 57 b4 a5 bd f4 94 6e bd
       0.051498584 -0.122146726 -0.08091038 -0.05824752
000210 20 25 9a 3d 8f e4 9c bb 18 5a 86 3b d8 f9 d9 3d
       0.07526612 -0.0047879885 0.0041000955 0.10643357
000220 c1 df 5a 3d 20 98 68 3d 4a dc c3 3c 8e 53 2a bd
       0.053436045 0.056785703 0.023908753 -0.04158359
000230 3a e0 73 3d ce c0 f3 bb 27 30 37 3e 7f 2a f6 3d
       0.05954001 -0.0074387556 0.17889462 0.12019824
000240 34 50 5d be cf 9a 93 3d 41 d0 a0 3d 42 6b 16 3c
       -0.21612626 0.07207262 0.07852221 0.009180846
000250 4f 5b fc 3c 2f 29 09 3e 2c 29 20 be d0 0f 0f 3e
       0.030805258 0.13394617 -0.15640706 0.13970876
000260 b1 18 31 be 9c c9 43 3d 13 04 30 bd 4b 0a 89 bb
       -0.17294575 0.04779969 -0.042972635 -0.004182135
000270 df 95 81 bc db dd 6d 3d a5 7a 19 bc 9d 08 d0 bc
       -0.015818534 0.058072906 -0.00936762 -0.025394732
000280 b7 bf ee 3d 91 8a 1b be f8 c9 2c 3e 5e 95 1d 3e
       0.116576605 -0.15189578 0.1687392 0.1538901
000290 6b 6a a0 bc 65 71 a7 3d 94 9a 8f be 9b 09 0a 3d
       -0.019581994 0.08175925 -0.2804762 0.033700567
0002a0 cc 08 10 bd 2b f2 1a 3e 25 8d ff 3d b6 6e f9 3d
       -0.03516464 0.15131442 0.12478093 0.121793196
0002b0 ed d3 2a be 4b c6 85 be b3 21 56 bd 05 69 72 bd
       -0.16682406 -0.26127848 -0.05227823 -0.059182186
0002c0 fd 14 69 be 77 3e 1c be 73 37 44 3e da 3d 16 3e
       -0.22761913 -0.15258203 0.19161777 0.14672032
0002d0 fd 78 71 3c fb 1e c5 3d 62 3b 8e 3d fc f1 27 3e
       0.0147383185 0.0962505 0.0694492 0.16400903
0002e0 72 38 03 be a2 28 59 bd 15 e8 18 be c8 aa 5d be
       -0.12814501 -0.053017266 -0.14932282 -0.21647179
0002f0 c7 19 a2 3e c4 5f ea bd 76 f3 8c 3c 9b 8e 0c bd
       0.31660292 -0.11444047 0.017205935 -0.034315687
000300 a4 f4 86 bd 70 ac 17 3e 90 89 b8 3d de 14 09 be
       -0.0658963 0.14811873 0.09010613 -0.13386866
000310 75 25 13 bd 62 f5 7f bd fa 30 5e be a5 0a 12 3d
       -0.035924394 -0.062489875 -0.2169837 0.035654683
000320 0b c1 e1 3d 82 be 16 be 0c 86 48 be 0e 13 44 bd
       0.11023148 -0.1472111 -0.19582385 -0.047869734
000330 be 3c 2f 3d 8b 6b a2 bc 23 aa 4f be a1 03 45 3e
       0.042782538 -0.019826671 -0.20279746 0.19239666
000340 5a b0 f4 bd b3 11 8c bd 12 cc 8f bd f0 a1 ac bd
       -0.11947699 -0.06839313 -0.07021345 -0.084293246
000350 84 ab 4d 3b 4b 18 29 3e 17 e2 11 3d 1b d9 d0 bd
       0.003138275 0.16513173 0.035616007 -0.101976596
000360 71 b8 b9 bd b0 ca da 3d ad 8d db 3d 4c 7b aa 3d
       -0.090683825 0.10683191 0.10720382 0.08324298
000370 21 40 46 3d 09 6f 2c 3d cb 61 a9 3d 24 ef c8 bd
       0.048401 0.04209808 0.08270606 -0.098112375
000380 d5 1f c5 bd 7d a6 0d bd c6 2e 0a be c3 d3 e6 3c
       -0.09625212 -0.034582604 -0.13494405 0.028177148
000390 ec a9 42 3d c7 cb f5 bc c1 5d 6f 3e 5a 25 2e be
       0.04752533 -0.030004395 0.23375608 -0.17006436
0003a0 f4 0b 5c 3e 9d b2 a1 bd c4 b1 81 3e 49 12 03 be
       0.21488935 -0.07895396 0.25330937 -0.12799944
0003b0 cb 5b 9e 3d 38 94 05 3d aa 9f d2 bb 7c a7 ef ba
       0.07732352 0.032612056 -0.006427725 -0.0018284167
0003c0 b3 cf 26 3e 28 b6 c4 3c a4 1f 0f be d8 a1 a8 bd
       0.16290168 0.02401264 -0.13976914 -0.08233994
0003d0 5e cf 0f 3d 18 df c2 bd a2 f7 82 bd 9c f6 6c 3d
       0.03510987 -0.09515208 -0.063948885 0.057852373
0003e0 6f e0 d6 3d 78 a0 a7 3e 65 7c 13 bd ba 68 aa bb
       0.10492026 0.32739615 -0.036007304 -0.0052004727
0003f0 e4 e4 73 be 62 bd 2d be d0 f1 24 be bc bb e4 bd
       -0.23817784 -0.16966775 -0.16107869 -0.1116862

gcn_mu_non_causal.bias f4 [64]
000000 c7 08 1c 3b 9e 16 49 39 bd fa 76 3a 57 a0 f5 3a
       0.0023808943 0.0001917728 0.0009421518 0.0018739802
000010 a0 80 00 ba f1 02 6e 3b 2c e1 4d 3a 0a 2f 70 ba
       -0.0004901979 0.0036317671 0.00078536826 -0.0009162283
000020 99 4b 8c ba 8b 43 c3 ba 5e 67 c4 3a 56 83 26 bb
       -0.0010703682 -0.0014897449 0.0014984419 -0.0025407872
000030 ca a5 ce 3a 83 cf 16 3a 01 e7 fd 3a 23 e5 42 3b
       0.0015765962 0.00057529676 0.0019371213 0.0029738627
000040 84 b1 0d 3b 85 52 07 3b 54 fc 38 3b 78 d5 20 bb
       0.00216207 0.002064855 0.002822657 -0.00245413
000050 35 d1 16 bb 1e f8 c0 ba f1 9c d1 ba 78 00 78 ba
       -0.002301288 -0.0014722382 -0.0015992207 -0.0009460519
000060 a6 ba be ba 7f 22 3d 3b 4c 42 e4 3a 1c 7b 00 ba
       -0.0014551475 0.0028859673 0.0017414778 -0.0004901157
000070 ca f4 a8 3a b1 22 31 39 83 0a e5 b8 a3 20 09 3b
       0.0012890336 0.00016892959 -0.00010921529 0.0020923994
000080 c1 ff 17 39 1f 63 51 bb 93 87 55 3b 8d e7 83 3b
       0.00014495758 -0.003194995 0.003258203 0.0040254057
000090 bd b2 20 3b 1b 05 a3 3a bd f0 da ba e3 86 24 3b
       0.0024520599 0.0012437435 -0.0016703826 0.0025104813
0000a0 ec 29 67 3a 5c be 6a bb 05 3a a7 3a 5c b3 18 3b
       0.00088181975 -0.003581903 0.001275838 0.0023300266
0000b0 04 cc 41 3b 4a 87 ee ba f1 66 d9 3a b6 6f 45 bb
       0.0029571066 -0.0018198278 0.0016586465 -0.00301264
0000c0 ea 90 0f bb 87 8b 1b 3b 15 28 b7 ba 0d 7a 50 3a
       -0.0021906444 0.0023734288 -0.0013973737 0.00079527573
0000d0 f9 ff 95 3a 03 8c bf 3a 4b b9 37 bb fb 09 fc ba
       0.0011444084 0.001461387 -0.0028034027 -0.0019229049
0000e0 d6 73 17 bb 00 6e aa ba 93 ff a0 ba 79 21 ea 3a
       -0.0023109815 -0.0013002753 -0.0012283198 0.0017862759
0000f0 19 97 03 bb 82 aa 50 ba 4b 49 52 bb 21 85 3a bb
       -0.0020079075 -0.0007959978 -0.0032087143 -0.0028460699

gcn_mu_non_causal.lin.weight f4 [64, 32]
000000 d2 f4 20 be e3 96 19 be 21 47 86 3d 17 92 7e 3c
       -0.15718392 -0.14998965 0.065565355 0.01553776
000010 62 97 02 bc 84 26 13 be c1 91 2a 3d db 7d 03 3e
       -0.007970663 -0.14370161 0.041642908 0.12840979
000020 9a 96 ef bb 95 b5 f3 3d 4e 23 c4 bd 93 bb fa bd
       -0.0073116543 0.118998684 -0.09577046 -0.12242808
000030 5f e2 e9 bd 49 93 33 3e a9 d1 dc 3d ee f7 3b 3e
       -0.1142013 0.17536654 0.10782177 0.18356296
000040 bc 56 4b be f3 01 17 be 3a 0d 91 3d 6a 27 03 3e
       -0.19857305 -0.14746837 0.07082601 0.12808004
000050 47 0e 0d 3e 7d 3d 50 bd 34 5d 21 3d 63 a2 8a 3d
       0.13774978 -0.05083989 0.039395526 0.06769254
000060 81 e0 1e 3e fc 80 86 3d e5 b2 c5 bc d9 bc 84 bc
       0.15515329 0.065675706 -0.024133155 -0.01620333
000070 de e6 2c 3d 52 fc 2c bd f7 e6 4f 3d c0 dc 21 3d
       0.04221236 -0.04223282 0.050757375 0.039517164
000080 9f f0 57 3d 0e d1 5d bd b1 6e 98 bd 1b dc 81 3d
       0.05271971 -0.05415445 -0.07442988 0.0634081
000090 eb a0 a7 bd 2d 61 36 bc 1e 3d 9c 3d 68 a3 11 3e
       -0.081849895 -0.011131567 0.07628845 0.14222491
0000a0 47 4a 69 3d 00 9b 15 3e de 21 95 3d 28 77 10 be
       0.056955602 0.14609909 0.0728185 -0.14107955
0000b0 61 57 ba 3c be ae 29 3d 38 53 aa bc 3c 0d a0 3d
       0.022746744 0.041426413 -0.020791635 0.07815024
0000c0 0c ee cc bc 9e ca b6 bd 36 65 92 bd 32 2b 3f 3e
       -0.025015853 -0.08925365 -0.07148211 0.18668821
0000d0 33 fb 0e bc 1b 46 01 be 27 51 0a be 15 5e 35 be
       -0.008726883 -0.126244 -0.1350752 -0.1771167
0000e0 e5 38 06 3e e8 af 26 3d 92 3b 35 3d 0c 3e 2f 3c
       0.13107641 0.0406951 0.044246264 0.0106959455
0000f0 89 2d d7 bd 13 99 82 b9 ca f3 a9 3a 82 17 01 3e
       -0.10506732 -0.0002490958 0.0012966332 0.12606624
000100 80 a6 19 bd a2 a2 f7 bd a8 44 03 be 8b dd 61 3e
       -0.037512302 -0.120915666 -0.12819159 0.22057168
000110 a0 b4 ee bd cb 7d db 3c b8 6c e5 bd 22 b2 aa bd
       -0.11655545 0.026793381 -0.11202377 -0.083347574
000120 1e 34 23 3e 64 1a 2e 3d 2f 9c 32 bd 68 64 32 be
       0.1593785 0.042505637 -0.04360598 -0.17421114
000130 53 f7 d8 3d a6 ca e5 bc 5a df 47 3e e5 7c 16 3e
       0.10594048 -0.028050732 0.19518796 0.14696081
000140 ad b0 13 be 68 0d 0e 3e ef f9 6e 3d 22 df 4b 3e
       -0.14422865 0.13872302 0.058343824 0.19909337
000150 42 de 92 bc 2a aa 1d bd 6e 51 2b be de 93 84 bc
       -0.017928246 -0.03849236 -0.16730282 -0.01618379
000160 90 1c 31 3d d1 0c 35 3e 32 b6 3d bd a9 68 fc 3d
       0.04324013 0.1768067 -0.046316333 0.1232465
000170 7a cf b5 bd 04 1d 84 3e 3b 06 0a bd 7f e4 6d 3d
       -0.08877464 0.25803387 -0.033697348 0.05807924
000180 ec 8b 5a 3c 1b 33 e6 3d 88 e6 17 3e 3d 71 b0 bd
       0.013339024 0.11240216 0.14834034 -0.086153485
000190 c6 e0 c4 ba b5 53 5d 3d 07 d8 11 3e d8 f6 72 bc
       -0.0015020601 0.054034907 0.14242564 -0.01482936
0001a0 33 8f 12 be 4c d4 b1 3c 48 57 1c 3c ab 03 c7 bd
       -0.14312439 0.021707676 0.009542294 -0.097174965
0001b0 d2 4b 83 be 7f 41 05 3e 7a 60 5d be fc 01 2d bd
       -0.25643784 0.13013266 -0.21618834 -0.04223822
0001c0 19 53 e1 bd 21 d4 2b be 00 4e 3a be 9d eb 20 3d
       -0.11002178 -0.1678014 -0.18193817 0.0392872
0001d0 ed 98 b5 bc 61 91 53 be 6b c8 e6 bd e1 f1 52 be
       -0.022167647 -0.20660926 -0.112686954 -0.20600082
0001e0 80 61 81 3d 00 9c ca bc f3 b2 00 3e b4 05 9d 3d
       0.06317425 -0.02473259 0.12568264 0.076671034
0001f0 34 0f db bd c4 e8 41 3e 86 dc 04 ba df 01 45 3e
       -0.10696259 0.1893645 -0.0005068261 0.19238995
000200 fe 74 f2 3d 8b f8 de 3d d4 1a 81 3c c2 15 cb 3d
       0.11838721 0.108872496 0.015759863 0.09916259
000210 ef 90 02 be 72 19 e8 bc a8 24 d8 3d 76 eb 79 bd
       -0.127506 -0.028332446 0.105538666 -0.06101557
000220 87 52 6d bd c5 31 bf bd 2f aa 0a be 8a 7c 86 bd
       -0.057940032 -0.09335665 -0.13541482 -0.06566723
000230 cf 6c d4 3d 32 5c c1 bc 09 9b a1 3d e2 4f 9e 3d
       0.10372316 -0.023603532 0.07890899 0.0773008
000240 6d 6b 2c be 2d 71 40 bd 05 53 30 be 14 c5 8d bc
       -0.16837855 -0.046982933 -0.1721917 -0.017305888
000250 9f e3 4d 3d 61 7b 1a 3e 3b d8 c4 bd 97 df e7 3c
       0.050265905 0.15086128 -0.09611555 0.028304858
000260 b3 bc b7 bd 53 76 7d bd 18 5e 01 be 6a cf f6 3c
       -0.089715384 -0.06188042 -0.1263355 0.0301282
000270 a0 d0 b4 39 a5 13 b3 bd d6 df f8 3c f8 33 96 3c
       0.00034487713 -0.08743981 0.03038017 0.018335328
000280 d4 65 d6 bd a0 b5 82 3c b4 5c 89 bd a7 94 75 3e
       -0.10468641 0.015955746 -0.06707135 0.23982488
000290 61 4e 09 be de 7a ec bb 25 0a a1 bd 2f f0 07 bd
       -0.13408805 -0.0072167953 -0.07863263 -0.03318804
0002a0 36 86 09 be c7 db a7 bd 80 7c 64 bd 49 07 d6 bc
       -0.13430104 -0.08196216 -0.055782795 -0.02612652
0002b0 c6 15 1f 3e 8c e1 b4 bc 86 20 f5 bd a3 2b 6b bd
       0.1553565 -0.022080205 -0.11969094 -0.057414662
0002c0 42 e1 a9 3d 74 41 73 3e 5e c6 57 be 09 65 29 3e
       0.08294918 0.23755437 -0.21071765 0.16542448
0002d0 1b 58 3d 3c 57 24 a7 bd 3d f2 9b 3d c6 44 12 3e
       0.0115566505 -0.08161228 0.07614563 0.14284047
0002e0 07 94 ed 3c 65 a4 b0 3d 2b cc 09 bd de b1 53 bd
       0.029001249 0.08625106 -0.033641975 -0.0516833
0002f0 5e 2d d7 3d 18 51 2d be ec 68 13 3d 75 98 14 3e
       0.105067 -0.16925466 0.035988733 0.14511283
000300 e2 a0 d7 bb b7 fd 02 3e 37 6b 10 bc 82 95 b1 bd
       -0.006580458 0.12792097 -0.0088146245 -0.086710945
000310 69 c2 99 3c 40 2b 9d bb d1 f3 12 3e eb f3 f7 bb
       0.01876946 -0.0047964156 0.14350821 -0.007566919
000320 97 c9 1a 3e 74 c5 55 bd e6 90 ba 3b 05 23 ff 3b
       0.15115963 -0.05219026 0.005693543 0.007786157
000330 f8 b8 15 bd 7f 81 43 be bf c1 cc bd df a0 a8 bd
       -0.036553353 -0.19092368 -0.09997892 -0.08233809
000340 2e e6 86 bc c4 61 75 3d c5 0c ca 3d cc 9b e8 3d
       -0.01646718 0.05990769 0.09865717 0.11357841
000350 b3 59 f7 3c e2 4d 04 be 9f 73 cc bc 0c 58 06 3e
       0.03019414 -0.12920335 -0.024957476 0.13119525
000360 86 0f 54 3e 2d 7b f1 3b 70 33 ed 3c 2d 07 e9 bd
       0.20709047 0.00736942 0.028955191 -0.11378322
000370 38 85 c6 bc 42 c2 b6 bd 62 d9 2b 3c 93 65 27 3e
       -0.024233446 -0.089237705 0.01048884 0.16347341
000380 9f 64 24 3c 83 3e 89 3c 33 04 2a bc be 97 c9 bd
       0.010033756 0.01675344 -0.010376978 -0.09843396
000390 bb 87 af 3d 5c 16 2b 3d 6d d7 14 be 5b f7 01 bd
       0.085708104 0.04176937 -0.14535303 -0.031730037
0003a0 15 87 3f 3e 2f a2 8d bd b0 51 ae 3d 6e 37 08 3e
       0.18703873 -0.069157 0.085116744 0.13302395
0003b0 48 58 22 be a6 10 16 be 74 e0 d4 3d fb 90 f3 bc
       -0.15853989 -0.14654788 0.103943735 -0.029732218
0003c0 b5 3f 43 3d 95 30 07 3e 48 85 d6 bd 64 f7 04 3e
       0.047668178 0.13202126 -0.1047464 0.12984997
0003d0 75 82 3c bd b2 67 b2 3d de 0c 7b 3d df e5 95 bd
       -0.04602285 0.087111846 0.061291568 -0.07319235
0003e0 ba de 0b be 46 97 dd bd e4 3b 99 bd cf ff 92 bd
       -0.13659182 -0.10819869 -0.07482126 -0.07177698
0003f0 74 88 d8 3d fc e9 ad 3d 27 b5 61 bc e7 54 4d be
       0.10572901 0.084918946 -0.0137761 -0.20051919

gcn_logvar_causal.bias f4 [64]
000000 6b 14 b1 3a fb 59 11 ba 85 92 38 bb 41 89 b0 3a
       0.0013510113 -0.0005544719 -0.0028163504 0.0013468639
000010 e1 d3 3b bb 57 7b ca 3a 44 d5 12 bb c1 23 a9 ba
       -0.0028660225 0.0015448135 -0.0022404948 -0.0012904332
000020 fc e8 2e bb 81 0a 8a b9 6e 5c 17 bb a6 89 f2 ba
       -0.0026689162 -0.00026329237 -0.0023095864 -0.0018504157
000030 5c 51 15 3b 50 ad 6f ba b7 c9 45 bb dc 36 f5 b9
       0.002278409 -0.0009142952 -0.0030180046 -0.00046770915
000040 e1 84 e3 3a 6b d8 55 3a 70 24 fa ba 38 4f 86 ba
       0.0017358327 0.0008157554 -0.0019084346 -0.0010246998
000050 23 2b a3 ba 67 67 f9 b9 d0 d5 27 bb 72 87 02 bb
       -0.0012448769 -0.00047570022 -0.002560962 -0.0019917157
000060 f1 2c 16 bb 80 8c b5 3a 47 85 18 3b a8 2e 0c 3b
       -0.002291497 0.0013851076 0.00232728 0.0021390114
000070 ca ec c3 3a d6 6a b0 39 ca c5 e8 3a 66 de 87 b8
       0.0014947888 0.00033648935 0.0017759141 -6.4787266e-05
000080 e5 b1 b2 ba e6 22 28 3a 89 6f 85 3a 2c d0 5c 3b
       -0.0013633339 0.00064138917 0.0010180335 0.0033693416
000090 7d 49 44 3b 0f 02 f7 ba e1 1d 47 bb 61 1b e2 ba
       0.002995103 -0.0018845218 -0.00303828 -0.0017250591
0000a0 12 19 0b bb d0 2d b4 b9 c8 54 e2 3a 9f 81 5d 3a
       -0.002122466 -0.00034366408 0.0017267698 0.0008449796
0000b0 76 2a c0 3a 67 66 d3 ba c6 7f 31 3a 78 d2 2c bb
       0.0014661092 -0.0016128541 0.0006771054 -0.0026370566
0000c0 6a 8e 52 bb d3 12 ca b9 35 b5 9a 3b 42 54 fb 3a
       -0.0032128342 -0.00038542468 0.0047213086 0.0019174891
0000d0 db 4a 9a 3a 18 6e c9 39 3e 71 b5 3a 2e 7e 19 3a
       0.0011771576 0.00038419734 0.0013842953 0.0005855289
0000e0 3d e2 af ba eb d7 5e bb 7d f8 28 3b bb c1 dd 3a
       -0.0013418865 -0.003400321 0.0025782876 0.0016918698
0000f0 1c b2 06 39 f3 be ec 3a 67 ef a4 3b 67 75 33 bb
       0.00012845587 0.0018062278 0.005033422 -0.002738321

gcn_logvar_causal.lin.weight f4 [64, 32]
000000 48 19 e2 3d 8e f5 e6 bd 81 a2 11 3d 4c 2f b4 bd
       0.11039978 -0.112773046 0.035555366 -0.08798084
000010 bc 5f fe 3d f9 63 09 3e db ea 63 3e e6 69 76 bd
       0.12420604 0.13417043 0.22257559 -0.060159586
000020 59 5a 0d be af 7e 08 3e 15 58 eb bd 16 65 bb bc
       -0.13803996 0.13329576 -0.1149141 -0.02287535
000030 53 50 fd bd 5f cf 16 be 5c 6d e8 bc 61 ad e5 bd
       -0.12368836 -0.14727543 -0.02837246 -0.1121471
000040 1a a8 15 3e b6 54 3c be 19 a8 88 bb 91 86 ab 3d
       0.14614907 -0.1839169 -0.0041704294 0.08375276
000050 fa 16 2d be cb d2 82 bd e5 4c b8 bd 98 f4 0c be
       -0.16903296 -0.06387862 -0.089990415 -0.1376518
000060 05 f7 19 be eb 48 72 bc 3f d8 e1 3c 1f 91 aa bd
       -0.15035637 -0.014787893 0.027568934 -0.08328461
000070 e2 3d 7c 3d 01 1a 1a 3e 1e 0b a2 39 5f 2f 35 3e
       0.061582454 0.15048982 0.0003090733 0.17693852
000080 9d 3e 07 3c 90 18 bc bd a3 1b ff 3d fb 91 a6 bd
       0.008254674 -0.091843724 0.12456443 -0.08133312
000090 1c e9 7f 3d 1c 78 bc 3d 69 b9 39 be 2e 09 14 3e
       0.06247817 0.092025965 -0.18137135 0.14456627
0000a0 c4 96 e9 bd 54 d5 ff 3d e9 d6 ee bc 50 e0 d4 bd
       -0.114057094 0.12491861 -0.029155212 -0.10394347
0000b0 8c 19 25 3e 0b 70 23 3e 72 c3 8b 3d 52 4d 8d 3d
       0.16123027 0.1596071 0.068243876 0.06899513
0000c0 b1 af 25 be 46 df a0 3d 9e f4 8f be b2 36 1b 3e
       -0.16180302 0.07855086 -0.28116316 0.15157583
0000d0 d8 02 9c bd 4b 5e ca 3c 73 69 e0 3d e6 b9 91 bd
       -0.0761773 0.024703166 0.10957613 -0.071155354
0000e0 9e 19 ba 3d f3 8f 03 3e df ba cc bd 1e 0f f1 bd
       0.09086917 0.12847881 -0.0999658 -0.117704615
0000f0 4c 6e 6f 3d 83 db 29 be ee 06 a2 bc 47 ac 34 be
       0.058454797 -0.16587643 -0.019778695 -0.17643844
000100 0d 4b d7 3c 01 fc 93 bd 62 1d 09 be 89 97 8d bd
       0.026280904 -0.072258 -0.13390115 -0.06913669
000110 a9 5a 17 3e 84 78 79 bd 03 62 b1 3c c6 5c 11 3e
       0.14780678 -0.06090595 0.021653181 0.14195547
000120 ec 77 44 3e fe 0c 7c 3d d4 eb 25 3e 36 72 0b be
       0.19186372 0.061535828 0.16203243 -0.13617787
000130 41 46 fb bd d8 4a 78 3e c2 82 08 3e 2b 62 2e be
       -0.12269259 0.242473 0.1333113 -0.17029636
000140 92 22 8a 3d f5 36 d7 3d 53 6a 03 3e 13 9d bd bd
       0.06744875 0.10508529 0.12833528 -0.09258475
000150 0a 51 d9 3d 9d a7 c4 3d 5f 07 df bd 35 4a 51 3e
       0.1061116 0.09602282 -0.10890078 0.20438464
000160 d9 ea 2a 3c ce 0f 01 bd dc 7b 53 be 4c 80 1a 3e
       0.010431969 -0.031509213 -0.20652717 0.15088004
000170 6b 20 16 be 96 6a ea 3d cf 6a 56 bd aa 1a fd bd
       -0.14660804 0.11446111 -0.052347954 -0.123586014
000180 84 22 1a be 40 4c 70 bc 47 db 51 bd ea 6e 85 bc
       -0.15052229 -0.014666617 -0.05123451 -0.01628824
000190 03 27 2d 3d 79 b9 78 bd de b6 22 be c6 15 15 bd
       0.042273533 -0.060723756 -0.15890071 -0.036397718
0001a0 ef 33 99 b9 83 3f e9 3c 7f 1c 4d 3e 3a 29 e0 3d
       -0.00029221128 0.028472668 0.20030402 0.10945363
0001b0 ab 48 b0 3d d4 f4 1c be 62 94 0d bd 03 56 9f bd
       0.0860761 -0.1532777 -0.034565337 -0.07780077
0001c0 73 f0 b0 bd f1 28 54 be 6b b1 bd 3d 24 7f c3 bd
       -0.08639612 -0.20718743 0.092623554 -0.095457345
0001d0 ff b0 08 3e db 02 68 bb dd 90 c3 bd 56 8f 0d 3d
       0.13348769 -0.0035402093 -0.09549115 0.034560524
0001e0 3b 3d 7d 3e 2a 81 90 3d b9 d0 22 3d 2c be 1d 3e
       0.24730389 0.07055886 0.039749835 0.15404576
0001f0 d1 b3 68 3d 1f d7 e9 3d 3a ec 91 bb 0e bb 27 3e
       0.05681211 0.11417984 -0.004453209 0.1637995
000200 6f fc cb 3d 45 af 07 3e 78 32 94 bd ca 34 19 be
       0.09960257 0.13250454 -0.07236189 -0.14961544
000210 1f c4 58 bc bf ff 31 bd 0d 1b 97 bd 33 9d f0 bd
       -0.013230353 -0.04345679 -0.073782064 -0.11748733
000220 e1 18 1b 3e 92 24 e1 bc 9e 5c 6f 3e 98 23 15 3e
       0.1514621 -0.027483258 0.23375174 0.14564359
000230 19 e3 5b be 90 ec 34 be 2b 16 75 3c 02 5f de 3d
       -0.2147335 -0.17668366 0.014958899 0.10857965
000240 1f bb 4d 3e 9d 0b 6a 3e 0d 31 84 bd 31 f4 1c be
       0.20090912 0.22855993 -0.06454668 -0.15327527
000250 1b 54 3f bd 22 5d 39 bc 09 58 bf bd 3e ea b1 bd
       -0.04671107 -0.0113137085 -0.09342963 -0.08687256
000260 3b c4 0c 3e ea e9 05 3d 89 c2 39 3e 02 c5 7f 3d
       0.13746731 0.03269378 0.18140616 0.06244374
000270 ef 8f e2 bd 9b 02 69 3d 60 4d d5 bd c6 a5 0f be
       -0.110626094 0.05688725 -0.10415149 -0.14028081
000280 e7 8e 72 be 2c 7c 80 3d f6 61 24 bd 96 28 c9 bd
       -0.23687325 0.06273684 -0.040132485 -0.09822194
000290 3c 4c 13 3d 73 c0 18 bc 1b 5b 4a 3d 41 e4 50 bc
       0.035961375 -0.009323227 0.04940329 -0.0127497325
0002a0 73 52 13 3e d4 1a 0b be 26 3d 64 3e ed 14 11 bd
       0.1438692 -0.13584453 0.22288951 -0.035420347
0002b0 55 87 d0 bd 08 42 1c 3e e1 4d 66 3e 7e 19 98 3d
       -0.101820625 0.15259564 0.22490646 0.07426737
0002c0 31 62 b1 3d 3a 76 af 3b cb 01 d4 bd 41 23 0e 3e
       0.08661307 0.00535467 -0.103519045 0.13880636
0002d0 47 41 8e bd 5c 71 c1 3c af 3a e9 3d fb f1 1f be
       -0.069460444 0.023613624 0.11388146 -0.15619652
0002e0 96 9e 43 3e f5 32 9f bc f9 a3 64 be 0a 6a 54 3c
       0.19103464 -0.019433478 -0.22328176 0.012964735
0002f0 4a 96 88 3d 61 dc 17 be 40 56 04 3d 14 03 ae bd
       0.0666929 -0.14830162 0.032308817 -0.08496681
000300 4f 77 a0 3d a3 dd 8b 3c be 82 b1 3d ce 69 eb bd
       0.07835256 0.017073458 0.08667515 -0.1149479
000310 19 49 73 3d f2 3f ce bd 86 ea 22 3e 1e df 1b be
       0.059395883 -0.1007079 0.15909776 -0.15221831
000320 b1 fd 27 3e 6b e8 6e 3d fe 3d 4a 3e d5 71 ab bd
       0.1640537 0.05832712 0.1975021 -0.08371321
000330 ab 40 81 3d 13 80 2d 3d cc 7c 57 bd dd 82 96 bd
       0.063111626 0.04235847 -0.05260925 -0.07349179
000340 27 53 bd 3d 8f 8d 97 bd 4f 36 d8 3d e2 b0 8d bd
       0.09244376 -0.07400047 0.105572335 -0.06918503
000350 f8 a5 fb 3d 7d a1 d1 3d d9 50 4e be 49 34 a7 bd
       0.122875154 0.102358796 -0.20148028 -0.081642695
000360 68 29 30 be 06 61 ee 3d 15 c6 0c 3d fe 78 7b be
       -0.17203295 0.116395995 0.034368593 -0.24557874
000370 5e 47 cf bd 2e 8f c7 bd 53 a2 1d bc f0 4e e3 bb
       -0.10121034 -0.09744106 -0.009621221 -0.0069369003
000380 0c 26 c7 bc 58 9a 15 be 78 e6 85 3d 92 35 1e bd
       -0.024310134 -0.14609659 0.06538099 -0.038625307
000390 46 66 cf 3d ae fc 0a 3d 5b c5 ed 3d 2a 7d e0 3d
       0.10126929 0.03393238 0.11609908 0.10961373
0003a0 67 a5 d9 bd a3 26 27 3e ef d1 4c 3e 0f fa 3b bd
       -0.10627251 0.16323332 0.20001958 -0.04589277
0003b0 15 cf 2c 3e 32 f6 4a 3d 47 dc 82 3e f1 5b 28 bd
       0.1687587 0.049551196 0.25558683 -0.041103307
0003c0 b9 99 42 be 19 47 25 3e 29 d6 8d be aa 34 16 bd
       -0.19003953 0.16140403 -0.27702454 -0.036671318
0003d0 cb 39 85 3c 0c 64 98 bd 86 e3 a8 3d 86 2c aa 3c
       0.01626291 -0.074409574 0.08246522 0.020773184
0003e0 44 5c fe ba 7f c6 41 bd ae 52 13 be e9 55 69 3c
       -0.0019406159 -0.04730844 -0.14387009 0.014241674
0003f0 6f 76 65 3c 5c 87 57 be 0f 46 94 3c a2 a6 0c 3e
       0.014005288 -0.21047729 0.018099813 0.1373544

gcn_logvar_non_causal.bias f4 [64]
000000 8e b9 2d 3b 86 1d 32 3b a8 6e c9 ba fe 9d 40 bb
       0.0026508304 0.0027178242 -0.0015368061 -0.0029391046
000010 4a ac 16 bb 21 97 07 b9 70 71 13 bb 79 7e ac 3a
       -0.0022990876 -0.00012930903 -0.0022498034 0.001316025
000020 b4 82 0f 3b 1e 46 1d 3b b6 85 10 3a ea 50 63 3b
       0.0021897973 0.0023998092 0.00055130885 0.003468568
000030 fc ab c7 ba 3e 31 b7 3a c9 37 94 b8 90 11 2c 3b
       -0.001523375 0.0013976467 -7.067581e-05 0.0026255585
000040 3e 73 95 b8 92 e3 84 3a f3 13 23 bb 36 6d 9b 3a
       -7.126339e-05 0.0010138622 -0.0024883717 0.0011858109
000050 92 f2 38 3b 5d 67 55 ba dc 73 0e 3b 68 32 40 39
       0.0028220755 -0.00081407075 0.0021736538 0.00018329325
000060 5c eb 0b ba 92 ca 3e 39 9c de 25 bb 9d 05 e6 ba
       -0.00053375005 0.00018195275 -0.0025309687 -0.001754928
000070 7a 5b 6f b9 43 4c 92 ba bc 93 f4 3a b5 a5 0a bb
       -0.00022826894 -0.0011161644 0.0018659751 -0.0021155898
000080 0d b8 2a bb 9f 84 59 bb 1e af 13 bb 8a b2 4d bb
       -0.0026049644 -0.003319062 -0.0022534798 -0.0031386935
000090 a0 ef 32 3b 36 57 99 39 58 47 89 38 f7 c9 de 3a
       0.0027303472 0.0002924741 6.545958e-05 0.0016997446
0000a0 c6 3e 97 ba 98 4a 84 b9 2c e7 f1 b9 5a 03 42 3b
       -0.0011539094 -0.0002523258 -0.00046139339 0.0029604048
0000b0 78 5a f8 3a 8c 98 08 37 3d 75 e5 ba 7f ca 26 bb
       0.001894786 8.141749e-06 -0.0017506253 -0.0025450287
0000c0 02 15 49 3a 50 40 09 3b a2 6c 90 ba 8f 72 4d 3b
       0.0007670672 0.0020942874 -0.0011018703 0.00313488
0000d0 78 e8 f9 ba 76 75 3f 3a 1e 62 10 3b 8d 23 c9 ba
       -0.0019066473 0.0007303575 0.0022031139 -0.0015345678
0000e0 52 3b 65 3a 39 e8 01 bb e7 2c 06 3a 9a be 15 bb
       0.0008744496 -0.0019822253 0.00051183853 -0.0022849203
0000f0 77 29 27 3b dd 13 2d b9 15 eb 12 bb 6e 36 cb 3a
       0.0025506893 -0.00016505965 -0.0022417952 0.0015503892

gcn_logvar_non_causal.lin.weight f4 [64, 32]
000000 ce af 05 be 96 88 3c bd 82 37 a0 3d b3 53 25 be
       -0.13055345 -0.046028696 0.07823087 -0.1614521
000010 48 12 35 3e 8a e6 a2 3d 27 4a 08 3e 1d b9 57 3e
       0.17682755 0.07954128 0.13309537 0.21066709
000020 80 f6 0d be aa 06 b9 bc 31 e7 65 3e b3 2f 5f 3c
       -0.13863564 -0.022586185 0.22451474 0.013622212
000030 77 a7 e6 3d 17 64 65 3e b1 f3 24 bd 39 45 6e bd
       0.1126241 0.22401462 -0.040271465 -0.058171485
000040 6e 07 e1 bc 69 ad 63 bd d7 24 1e bc 95 92 96 bd
       -0.027469363 -0.0555853 -0.009652338 -0.07352177
000050 80 e7 9e bd 3f 8a 04 bd 66 29 89 3d 99 41 3d 3d
       -0.07758999 -0.032358404 0.06697349 0.046205137
000060 ba 3c 8a 3c 6f 0d 92 bd 9b cf f7 bc 78 ad b6 3d
       0.01687466 -0.071314685 -0.030250361 0.08919805
000070 bb f2 d2 bd 2a 9f e2 bd 6e 86 f5 bb e9 db 56 bd
       -0.103002034 -0.110655144 -0.007492832 -0.052455816
000080 5b c8 88 bd 7e 5c 45 3c cf c2 05 3e c7 f7 6b bd
       -0.0667884 0.012045978 0.13062595 -0.057609346
000090 bb ed 03 bd 3c 3d 0c bd 27 63 04 be fb 43 a3 3d
       -0.03220914 -0.034238085 -0.12928449 0.079719506
0000a0 2a a3 6c be 88 bf 3e 3e 3a fc ac 3b 0a c4 2e 3c
       -0.23109117 0.18627751 0.005279091 0.010666857
0000b0 63 31 23 be 07 7b 40 3e 94 35 7a bd 15 72 51 bd
       -0.15936808 0.18796931 -0.061086252 -0.051134188
0000c0 27 4e 58 3e 5e fe 07 be eb a5 02 3e e2 fd 2c 3d
       0.21123563 -0.13280627 0.12758605 0.04223431
0000d0 2f 33 0b bd 07 1e f5 3c 79 8a e1 3d 42 d7 0c 3e
       -0.03398436 0.029921545 0.1101274 0.1375399
0000e0 fe af 0c 3e 44 0c 50 3d 68 70 b8 3d 4d 76 c2 bd
       0.1373901 0.050792947 0.09005815 -0.0949522
0000f0 27 d2 53 3d 92 93 74 be f8 31 0b 3d d9 e5 09 be
       0.05171409 -0.23884419 0.0339832 -0.13466586
000100 46 c3 6f 3d 99 08 51 3c 6f da 32 be 5b de 96 3d
       0.058535837 0.0127583975 -0.17466138 0.0736663
000110 18 0e c4 3b 44 26 49 3d 9f f9 b2 3d b6 2b d0 3d
       0.0059831254 0.04910876 0.08739018 0.10164587
000120 a6 20 d5 3c bc c6 29 be 63 fa 19 3e 2f 24 89 bb
       0.026016545 -0.16579717 0.15036921 -0.0041852216
000130 38 96 3f 3e 96 4f 89 bd 8f af 0a be 74 56 07 bd
       0.18709648 -0.06704633 -0.13543533 -0.033041432
000140 c2 7b 0d 3e ef 66 b9 bd 7d d3 41 3e 73 7e 02 be
       0.13816741 -0.09052836 0.18928333 -0.12743549
000150 83 76 ce bd 80 89 35 bd bd 4b b8 3d 9b 9c 37 3e
       -0.10081198 -0.044320583 0.08998821 0.17930834
000160 cc 38 bd bc d1 2f 8f bd e9 b5 9b bd 63 10 52 3d
       -0.023098372 -0.06991542 -0.07603056 0.05128516
000170 51 87 f1 bc d2 88 b2 3d 33 d1 93 3c de ab 17 3e
       -0.02948347 0.08717503 0.01804409 0.14811656
000180 8b d0 3c 3d 15 84 51 3d 8d b7 1b 3e 8b 90 96 bd
       0.04609732 0.051151354 0.15206738 -0.07351788
000190 08 dd 55 bd 9e 79 03 3d ac 6e bc bc 6f 69 db bc
       -0.052212745 0.032098405 -0.023001991 -0.026783673
0001a0 fa b5 2e 3e bf 14 eb 3d c4 0b 18 3e e6 dc b6 3d
       0.17061606 0.114785664 0.14848238 0.08928852
0001b0 e0 6a a7 bd 3d 35 2d be c0 94 f6 3d ee 87 af 3d
       -0.08174682 -0.1691484 0.120400906 0.085708484
0001c0 da f5 32 be 31 a6 ff bd 22 24 e3 bd 10 87 10 be
       -0.17476597 -0.1248287 -0.11090876 -0.14114022
0001d0 31 36 a6 bc 4a 75 11 3e 72 a1 3c 3d d0 50 17 3e
       -0.020289512 0.14204898 0.046052404 0.14776921
0001e0 ec e2 5f be f1 52 04 bd 0b 71 2d bc 3b fc 0d be
       -0.21863908 -0.03230566 -0.010586034 -0.1386575
0001f0 fa b3 bf 3d 06 54 83 3a 24 18 e9 3c 8d ea b0 bd
       0.093605 0.0010019548 0.028453894 -0.08638487
000200 b9 ff 3f 3d 79 a6 f1 bd 75 e9 49 be 46 d7 19 3e
       0.046874736 -0.1179933 -0.19717963 0.15023527
000210 fb 61 e2 bd 51 8e c2 bd 29 6f 40 3e 7b 0c 69 bd
       -0.110538445 -0.09499801 0.18792404 -0.056896668
000220 af 79 4c be 21 2b 97 3d ed ee 11 3e 41 e7 38 be
       -0.19968294 0.07381273 0.14251299 -0.18056966
000230 a8 2f 27 be 41 1c 18 3e c9 e9 84 3e 64 9e 37 3e
       -0.16326773 0.14854528 0.25959614 0.17931515
000240 78 62 55 bd 2e bc 3f be ef 1d cb 3d 56 05 6a 3e
       -0.05209586 -0.18724129 0.09917819 0.22853598
000250 3f ed 97 3d d4 22 1a 3e 9c bb 41 be 22 e4 e9 3d
       0.07418298 0.15052348 -0.18919224 0.11420466
000260 81 92 46 be 52 7a 8f 3d 82 45 ef bd 9b bd 96 3d
       -0.19391824 0.070057526 -0.116831794 0.07360383
000270 c3 ca 3d 3d 6d 37 af 3d bc ff e8 b9 17 41 93 bd
       0.046335947 0.085554935 -0.00044441025 -0.07190149
000280 02 cf 07 be 2f 8a 89 bd 5d 72 cc bd 7c 1d 20 3e
       -0.13262561 -0.067158096 -0.099827506 0.15636247
000290 34 f7 87 3b ac c3 d9 3c 35 b9 38 3e e7 09 10 3e
       0.004149342 0.026582561 0.18039401 0.14066277
0002a0 96 69 6c 3c 6c 81 19 bd ad 36 29 3e bc 0d d0 3d
       0.0144294705 -0.037476942 0.16524763 0.101588696
0002b0 78 e8 29 bd f4 88 72 3d 57 19 73 be fd b8 9f bd
       -0.041481465 0.05921264 -0.23740135 -0.077989556
0002c0 cb ce 4e be 2c f9 8d 3d e0 13 12 3e f5 b4 6f 3e
       -0.20196073 0.069322914 0.14265394 0.23408873
0002d0 41 4f f3 3d 84 bc 54 bd 5e d2 0b bd 20 ab 1a 3e
       0.11880351 -0.051937595 -0.03413617 0.15104342
0002e0 ea f1 ad bd b0 02 ae bd 6c 1a b7 bd f6 ae 79 bb
       -0.08493407 -0.08496606 -0.089405864 -0.003809867
0002f0 33 d7 42 bc 1a 15 34 be f0 7d bc bd 94 e3 22 be
       -0.011892128 -0.17586175 -0.09203708 -0.15907127
000300 5e 10 bd bd dc a2 fe 3d ad ba 3f be ae a3 dd bd
       -0.092316374 0.12433407 -0.18723555 -0.10822235
000310 f2 21 21 bd 9a 3e 08 bd 74 80 1b 3d 6b 7e 32 be
       -0.039339013 -0.033262827 0.0379643 -0.17431037
000320 cf b7 a8 3d 71 b5 23 3e 84 e7 80 bd aa 17 51 3e
       0.08238184 0.15987183 -0.06294158 0.20419183
000330 17 65 43 3d 01 2e ff bd 6d 8e a1 3d d9 5c 2c bd
       0.04770383 -0.124599464 0.07888494 -0.042080734
000340 b8 6c 01 be 42 75 35 be f4 af 02 be d7 ea 80 bd
       -0.12639129 -0.17720512 -0.12762433 -0.06294792
000350 18 09 d4 3d 85 13 11 be 89 b6 82 bb 9b 65 df 3d
       0.10353297 -0.14167602 -0.003989045 0.109080516
000360 c8 de 4e bc 84 77 ad bd 02 12 21 be c6 f8 17 be
       -0.012626357 -0.084700614 -0.15729526 -0.14840993
000370 b9 8a 5f 3d 96 64 1d be ff 68 46 bd 55 ff 73 3e
       0.054575656 -0.15370402 -0.048439976 0.2382787
000380 ad 8c 22 3e f2 8c 46 be 49 77 b7 3c ec 6f 01 be
       0.15873976 -0.19389704 0.022395747 -0.12640351
000390 7f a0 9d 3d 16 86 46 bc 9d b9 49 be 76 e2 ba bd
       0.07696628 -0.0121169295 -0.19699712 -0.09125225
0003a0 c4 68 27 3e f4 55 67 3e 0c 42 de 3d 2d 2b 15 3d
       0.16348559 0.22591382 0.10852441 0.03641813
0003b0 ac be 07 bd 7e c7 14 be 22 92 8e 3e 35 7b 40 3e
       -0.033140823 -0.14529225 0.27845865 0.18797
0003c0 f4 0f 49 be db 4c c1 3d 3b cb a5 3d b2 57 4b 3e
       -0.19634992 0.09438487 0.08095404 0.19857672
0003d0 d2 c2 67 bb 04 03 9b bc 20 e6 93 3d 9e 79 23 be
       -0.0035363925 -0.018922336 0.07221627 -0.15964362
0003e0 16 69 6f be 68 a2 05 be 73 b1 20 3e 54 08 f9 3c
       -0.23379931 -0.13050234 0.15692692 0.030399479
0003f0 60 18 f9 bd 72 7a 48 be 5a cb 03 3d aa a8 0c be
       -0.12162852 -0.19577959 0.032176353 -0.13736215
