params/mutag_net.pt (torch, 24285 bytes, 12 tensors)

conv_first.bias f4 [50]
0.11042607 0.038591105 -0.21716 0.027750583 0.029858787 0.008190094 -0.04031159 -0.22675487
0.1434261 0.09847442 0.19161536 0.19144794 -0.1230877 0.019339137 -0.3141032 -0.014557786
-0.18292375 -0.06498119 -0.06203294 0.05768523 0.063760206 -0.033211775 0.059053484 -0.088518366
-0.19483896 -0.021620989 -0.2172838 0.06704363 -0.050775163 -0.034391534 -0.008118219 -0.007782905
-0.11438942 0.05697348 0.13918898 -0.2131966 0.16347009 0.04702708 0.071074 -0.12567632
0.14109568 -0.08919986 -0.0021286164 0.05268802 -0.04787607 -0.17534375 -0.1600882 -0.046507757
-0.060914442 0.039367106
00000000: 1027 e23d b511 1e3d 315f 5ebe 3155 e33c
00000010: 6a9a f43c be2f 063c c41d 25bd 6e32 68be
00000020: 4bde 123e f5ac c93d d136 443e ee0a 443e
00000030: 6715 fcbd 1c6d 9e3c 22d2 a0be c883 6ebc
00000040: 5d50 3bbe dc14 85bd 4116 7ebd 5947 6c3d
00000050: b694 823d 1209 08bd 11e2 713d 1e49 b5bd
00000060: dd83 47be 801e b1bc a57f 5ebe 2c4e 893d
00000070: 9ef9 4fbd 23de 0cbd 4702 05bc bd07 ffbb
00000080: 0045 eabd 065d 693d 8e87 0e3e 3650 5abe
00000090: b464 273e 789f 403d 3f8f 913d 4bb1 00be
000000a0: 637b 103e 6bae b6bd 4280 0bbb 65cf 573d
000000b0: b319 44bd 508d 33be 29ee 23be eb7e 3ebd
000000c0: 6c81 79bd 673f 213d

conv_first.lin.weight f4 [50, 14]
0.4664137 -2.3728597 -0.64717525 -1.3499929 0.44380346 -0.19346222 0.7325281 1.7611712
0.497529 0.11576264 -0.21342166 0.11769304 2.12836e-40 0.18625906 0.31014258 -0.011245567
-0.9139348 -0.75865483 0.46444267 -0.51131517 -0.3425463 -0.54830164 -1.2916652 -0.52142894
-0.08253916 0.060782846 1.6837e-41 0.08395476 -1.458663 0.59674615 -0.08081698 -0.08329173
0.6170484 -6.166506e-31 0.43756914 -0.31103852 0.4755147 -0.2902129 7.173e-41 9.7282e-41
5.886327e-14 -7.7031e-41 -0.25922602 -0.29790562 1.4160756 0.13675444 0.9816655 -0.2688266
-0.9717094 -0.2906923 0.816217 -0.070226274 0.20609744 0.012444876 -1.51904e-40 -0.041670017
-0.27704623 0.51182365 -1.1111437 -0.15873048 0.11187943 0.15324314 0.4648666 0.24569158
0.8533327 0.3682257 -0.04393479 0.076067574 1.7244e-41 0.14215705 0.4954491 -1.3257776
-0.7250341 -1.3786592 -0.44148457 0.9144754 0.70695937 2.1358678 -0.3663476 -0.43177974
-0.033038534 -0.014276784 1.87296e-40 -0.019905733 0.33138308 -0.3098194 -0.29429394 -0.16843276
0.57555807 0.28836048 -0.6517252 -0.07683781 0.31891367 -0.3231501 -0.0055883694 8.649807e-20
-5.35935e-40 -8.972633e-19 -0.21658467 1.1046077 -1.028969 0.5658008 -0.30995822 0.5863369
0.58348346 0.8250227 -1.0570973 0.60795593 -5.39023e-08 6.929e-41 -4.12088e-40 -1.3987e-40
-1.5701706 -1.3791085 -0.96103734 -0.86674416 0.07260291 -0.0010056801 0.57494456 0.5084495
2.479168 4.8744e-41 -0.19625102 -0.14343539 -2.58154e-40 -0.1423906 -1.0481939 -0.71099395
-1.0265058 0.31209916 0.82583994 7.327e-41 0.35223675 -0.13948666 -1.2942457 -6.7656665e-11
-0.10840881 -0.085973814 4.37232e-40 -0.10798108 -0.5111124 0.23745209 0.342389 0.52856016
-1.7777046 0.44195613 -0.7080632 0.5770182 -0.03278344 0.284523 1.3807982 -0.022560973
-1.87132e-40 -0.013883185 -0.0851702 0.34015986 1.7744119 -2.2444577 -0.1425325 -0.39346123
-0.46789706 0.5084949 -2.8447936 0.42804316 2.1176836 -0.0688036 1.98118e-40 -0.01941988
-1.1861506 1.0283054 -0.9602053 -0.6262288 0.05424674 -6.938408e-11 0.7724788 -0.7228299
-1.3417878 -1.1533118 4.327297e-34 -3.7514e-41 -1.57925e-40 5.5384e-41 -1.0433165 -0.60323584
1.0172898 0.35492125 -0.1794825 0.0008716157 0.82647735 -0.061225466 0.6536665 -0.01292658
1.529292 0.22045028 -1.47323e-40 -0.021915432 0.47084245 -0.36236954 -0.4196418 0.29761514
0.03763626 0.11063841 0.47933465 1.5322868 -1.3420335 -0.02989797 6.0505e-41 9.4729e-41
1.37446e-40 -9.305e-42 0.54903144 -0.7192962 -1.1373022 -0.5244874 -0.2535363 -0.08992216
-1.1082922 0.4506428 2.558987 -0.36564672 4.2085e-41 5.842185e-29 -1.40765e-40 -9.4802e-41
-1.4888885 0.59481597 -0.14909706 -0.05063188 0.5316088 6.3424e-41 0.24355394 -0.012808914
-0.49810067 -0.3186926 -7.0309e-41 -1.1970015e-09 2.07528e-40 8.2497e-41 0.4800738 0.2912587
-0.9978758 -0.33792844 -0.43846497 0.47433373 0.24119899 -1.4198983 -0.8910652 0.27393666
-2.3096e-41 6.9758e-41 5.46899e-40 -1.61798e-40 -0.18786451 0.69056743 -0.96650624 0.3157899
00000000: c7cd ee3e efdc 17c0 47ad 25bf 91cc acbf
00000010: 353a e33e f61a 46be f686 3b3f 0f6e e13f
00000020: 1fbc fe3e f714 ed3d 358b 5abe 0c09 f13d
00000030: 4d51 0200 b2ba 3e3e 02cb 9e3e 543f 38bc
00000040: a2f7 69bf 3437 42bf 6ecb ed3e 8de5 02bf
00000050: 3b62 afbe 7f5d 0cbf 4955 a5bf 5e7c 05bf
00000060: 4b0a a9bd 6ff7 783d ef2e 0000 79f0 ab3d
00000070: 78b5 babf 5bc4 183f 5f83 a5bd db94 aabd
00000080: e2f6 1d3f 541d 488d 1009 e03e 7140 9fbe
00000090: aa76 f33e c996 94be f4c7 0000 2f0f 0100
000000a0: 5d8c 8429 bbd6 0080 46b9 84be 1687 98be
000000b0: f741 b53f 5b09 0c3e 6e4e 7b3f a4a3 89be
000000c0: f2c1 78bf 9fd5 94be 99f3 503f cbd2 8fbd
000000d0: 350b 533e 98e5 4b3c 72a7 0180 2eae 2abd
000000e0: 01d9 8dbe e006 033f f539 8ebf 3e8a 22be
000000f0: 0b21 e53d c5eb 1c3e ff02 ee3e 9396 7b3e
00000100: 0374 5a3f 1488 bc3e f7f4 33bd 51c9 9b3d
00000110: 1230 0000 9e91 113e 81ab fd3e 15b3 a9bf
00000120: d69b 39bf e877 b0bf 440a e2be 0f1b 6a3f
00000130: 4afb 343f 0fb2 0840 ea91 bbbe 3c12 ddbe
00000140: 6a53 07bd 2ce9 69bc 1b0a 0200 5911 a3bc
00000150: 0bab a93e a6a0 9ebe b2ad 96be a379 2cbe
00000160: c657 133f fca3 933e 76d7 26bf 245d 9dbd
00000170: a748 a33e ee73 a5be a41e b7bb e03c cc1f
00000180: f8d5 0580 a669 84a1 5fc8 5dbe c963 8d3f
00000190: 42b5 83bf 52d8 103f d8b2 9ebe 2d1a 163f
000001a0: 2c5f 153f b034 533f f74e 87bf 00a3 1b3f
000001b0: 3582 67b3 27c1 0000 bc7c 0480 e785 0180
000001c0: 5afb c8bf a186 b0bf 8b06 76bf f2e2 5dbf
000001d0: d6b0 943d 06d1 83ba 912f 133f bf29 023f
000001e0: b0aa 1e40 e187 0000 07f6 48be bae0 12be
000001f0: a1cf 0280 d7ce 11be 382b 86bf b303 36bf
00000200: 8b64 83bf 76cb 9f3e 3f6a 533f 3fcc 0000
00000210: 6058 b43e 97d5 0ebe d8a9 a5bf 51c7 94ae
00000220: 7005 debd 0a13 b0bd d3c2 0400 2f25 ddbd
00000230: 43d8 02bf a426 733e 9c4d af3e b84f 073f
00000240: d38b e3bf 1348 e23e a143 35bf 77b7 133f
00000250: ee47 06bd 00ad 913e ffbd b03f cad1 b8bc
00000260: a609 0280 4c76 63bc b76d aebd 6f29 ae3e
00000270: ee1f e33f 32a5 0fc0 0af4 11be c073 c9be
00000280: 3490 efbe b92c 023f 1911 36c0 7928 db3e
00000290: 2188 0740 e7e8 8cbd 4628 0200 7116 9fbc
000002a0: c8d3 97bf 839f 833f 04d0 75bf 8850 20bf
000002b0: d431 5e3d c493 98ae 2cc1 453f 610b 39bf
000002c0: b4bf abbf b99f 93bf 92cc 0f08 9368 0080
000002d0: 3bb8 0180 639a 0000 658b 85bf aa6d 1abf
000002e0: 8d36 823f 3db8 b53e 43ca 37be 247d 643a
000002f0: 0594 533f 8ec7 7abd b056 273f 02ca 53bc
00000300: d7bf c33f b8bd 613e ad9a 0180 fe87 b3bc
00000310: 4312 f13e 8088 b9be 4adb d6be 0361 983e
00000320: 7b28 1a3d 6496 e23d 5a6b f53e f921 c43f
00000330: c1c7 abbf 96ec f4bc aaa8 0000 1108 0100
00000340: 257f 0100 f019 0080 538d 0c3f cc23 38bf
00000350: 1e93 91bf ce44 06bf 83cf 81be 1c29 b8bd
00000360: 85dc 8dbf a7ba e63e 71c6 2340 0c36 bbbe
00000370: 5175 0000 f31d 9410 6588 0180 4508 0180
00000380: e693 bebf dc45 183f e6ac 18be 6063 4fbd
00000390: 8417 083f cdb0 0000 3466 793e 7bdc 51bc
000003a0: 0d07 ffbe ad2b a3be fec3 0080 bf83 a4b0
000003b0: 8142 0200 f8e5 0000 3ccc f53e dc1f 953e
000003c0: ca74 7fbf f504 adbe 7b7e e0be dfdb f23e
000003d0: defc 763e 3abf b5bf d91c 64bf 6d41 8c3e
000003e0: 6240 0080 75c2 0000 88f4 0500 07c3 0180
000003f0: 8e5f 40be 07c9 303f f46c 77bf 37af a13e

conv_block.0.bias f4 [50]
-1.784385e-07 -0.05165247 -0.016412117 -0.020631144 -0.10050418 -0.08861262 -0.045026045 -0.049762905
-0.0017429962 -0.26230803 0.08435965 0.14183533 0.079857826 -1.3768685e-10 -0.16535614 0.008397744
-0.2437673 -0.15282221 -0.03732303 -0.16082403 0.11780948 -1.954549e-07 0.10981574 -0.00029747238
0.026797066 -2.3627262e-18 0.10924803 0.04631642 0.17403252 -7.1566385e-05 0.038868118 -0.38596284
0.096780576 0.090740226 -0.354705 -0.27116033 0.0342622 0.044374764 -0.20729744 -0.079728775
-0.031177258 -0.20957543 -0.20851435 -3.5070863e-11 -0.13282871 -0.035328325 -0.089332424 -0.3650171
-0.18311115 0.102830075
00000000: cd98 3fb4 8a91 53bd b472 86bc a502 a9bc
00000010: 23d5 cdbd 897a b5bd 3b6d 38bd 30d4 4bbd
00000020: 3f75 e4ba 3d4d 86be c1c4 ac3d 483d 113e
00000030: 808c a33d 6763 17af 1f53 29be b196 093c
00000040: 239e 79be 6d7d 1cbe 09e0 18bd 0eaf 24be
00000050: 1946 f13d 3cde 51b4 13e7 e03d 11f6 9bb9
00000060: 8585 db3c a356 2ea2 6ebd df3d 49b6 3d3d
00000070: 9535 323e e915 96b8 2d34 1f3d ec9c c5be
00000080: e534 c63d 03d6 b93d e59b b5be 87d5 8abe
00000090: 8556 0c3d 50c2 353d c845 54be d748 a3bd
000000a0: 7367 ffbc f19a 56be c984 55be 483e 1aae
000000b0: 4004 08be 6fb4 10bd ebf3 b6bd 85e3 babe
000000c0: 7d81 3bbe 9398 d23d

conv_block.0.lin.weight f4 [50, 50]
-4.0908e-41 -5.4574e-41 1.9328e-41 3.0969e-41 8.172e-41 5.4426e-41 4.7578e-41 5.921e-41
-1.25985e-40 -1.10754e-40 -6.8034e-41 -7.9389e-41 -5.52e-43 4.2395e-41 -8.75e-42 6.6263e-41
-1.51989e-40 -1.596e-41 1.463e-42 -8.509e-41 -7.4312e-41 5.1458e-41 -4.0139e-41 6.6961e-41
-7.333e-42 7.0548e-41 3.3935e-41 -9.1367e-41 -7.7552e-41 2.1824e-41 -1.6263e-41 -7.2552e-41
-1.4362e-41 1e-40 -3.2696e-41 7.1405e-41 -1.14056e-40 -1.913e-42 -4.5654e-41 -1.7822e-41
8.8893e-41 -4.0072e-41 8.0837e-41 -3.614e-42 4.6373e-41 -2.8378e-41 6.1984e-41 -4.2319e-41
1.6296e-41 4.728e-42 0.38645703 -0.3590768 1.8150359 -0.05504628 -0.08821284 0.36357036
0.068797514 -0.32168704 2.9659839 0.55332357 -1.4365569 -0.45906252 1.6093712 1.9483283
0.1262507 0.5525894 1.9719353 0.5041753 -0.81058705 0.46384245 0.17565832 0.54941934
0.3139668 0.2717754 0.20049328 0.3329714 -0.25518286 0.9928081 0.077961795 -0.33549824
-0.3156204 -0.48700538 -0.2606039 0.1095672 -0.49376455 -0.5567756 -0.053129215 0.01222243
0.43864474 -0.46369871 0.31760225 -0.35113257 -0.2261442 0.0021706342 -0.356541 0.36056924
-0.057057858 -0.124550045 0.6358157 1.4477421 1.1593211 -0.47153312 1.3504044 0.4614002
0.2610712 1.3449453 0.18251133 -0.49511772 0.8421245 -2.327377 -0.13694495 0.32332188
0.3122831 1.4965572 0.12029925 0.26170188 1.0307506 -0.8779628 -0.22604325 -0.11242913
-0.61762285 -0.010394475 -0.14848904 0.2918717 0.3194815 0.3241269 0.4418806 0.16552332
-0.36634755 -0.7887567 -0.06605086 -0.30443543 -0.15536445 1.3034737 -0.32346362 -0.6521588
-0.37675497 0.23335451 0.40319076 -0.107630566 0.49129632 0.02281177 0.11294263 -0.56671834
-0.17282866 -0.90669405 -0.8040821 -0.8179862 -0.3071211 -0.2661652 0.29452553 0.2853729
-0.5772745 0.029669361 0.6098061 -0.64075804 -0.014330846 0.37607825 0.98852533 -0.23843892
-0.00081900024 -0.014131346 0.46787065 0.6612099 -1.144522 -0.5601787 -0.39188638 -0.06314971
0.17324522 -1.2639819 0.24337834 0.11568986 0.22401206 -0.7119793 -0.021053877 -0.51969004
0.1976627 -3.3143878 0.5254684 0.13622487 0.09316059 -0.49203265 0.29650047 -4.5209618
0.111300044 0.47620982 1.5989158 0.093165435 0.079976514 0.06634151 -0.9140526 -0.20869347
0.63525724 0.33857495 0.44259492 0.020472744 -0.23553967 -0.20827407 -0.26211065 -0.5205002
0.22100766 0.20620917 0.24046062 -0.02922461 -0.7452359 0.40715247 0.21980606 -0.16417356
0.18016206 0.3180036 -0.8477204 0.117691845 -0.6874815 -0.79805714 -0.28167954 0.25306806
0.12029114 -0.1836046 -0.5123783 0.7553377 0.325887 0.076467834 -0.358335 0.58925706
0.2343443 -0.12360528 0.22610721 0.15706396 -0.5326059 0.18978 0.41166148 -0.042010657
-0.32256836 0.73272085 -0.28665113 -0.25986096 0.4921958 0.027064687 0.061084174 -0.74440444
-2.530159 0.3018792 -0.510245 -0.8210526 -0.24264324 0.16686493 -0.12058442 -0.40510675
0.44171244 1.3420424 0.36876515 0.44520068 0.015430621 0.11428961 -0.14740348 0.21130066
00000000: 0972 0080 2198 0080 e135 0000 5456 0000
00000010: cde3 0000 b897 0000 a184 0000 0ea5 0000
00000020: 325f 0180 bd34 0180 a7bd 0080 4edd 0080
00000030: 8a01 0080 2e76 0000 6418 0080 b7b8 0000
00000040: afa7 0180 7d2c 0080 1404 0000 32ed 0080
00000050: 27cf 0080 728f 0000 e46f 0080 a9ba 0000
00000060: 7114 0080 a9c4 0000 995e 0000 b2fe 0080
00000070: 2fd8 0080 d63c 0000 562d 0080 3fca 0080
00000080: 0928 0080 c216 0100 255b 0080 0cc7 0000
00000090: f13d 0180 5505 0080 447f 0080 ae31 0080
000000a0: ccf7 0000 b46f 0080 57e1 0000 130a 0080
000000b0: 4581 0000 1b4f 0080 c9ac 0000 f875 0080
000000c0: 6d2d 0000 2e0d 0000 b2dd c53e ead8 b7be
000000d0: 1953 e83f 3578 61bd efa8 b4bd e525 ba3e
000000e0: b6e5 8c3d 2ab4 a4be aed2 3d40 9da6 0d3f
000000f0: 19e1 b7bf 3e0a ebbe e0ff cd3f d262 f93f
00000100: dd47 013e 8076 0d3f 6068 fc3f a211 013f
00000110: a282 4fbf c27c ed3e c6df 333e bfa6 0c3f
00000120: 42c0 a03e 2526 8b3e 1c4e 4d3e 3a7b aa3e
00000130: 54a7 82be ac28 7e3f 6faa 9f3d 6dc6 abbe
00000140: ff98 a1be c558 f9be e06d 85be c564 e03d
00000150: b5ce fcbe d988 0ebf 059e 59bd 9640 483c
00000160: 0b96 e03e eb69 edbe c39c a23e a6c7 b3be
00000170: 5892 67be 3341 0e3b 8b8c b6be 889c b83e
00000180: 80b5 69bd 1814 ffbd d1c4 223f 9d4f b93f
00000190: a264 943f ca6c f1be 0dda ac3f a63c ec3e
000001a0: 20ab 853e 2b27 ac3f 40e4 3a3e 1280 fdbe
000001b0: 7995 573f bff3 14c0 4c3b 0cbe 728a a53e
000001c0: 92e3 9f3e 308f bf3f 745f f63d cafd 853e
000001d0: a3ef 833f 2cc2 60bf e277 67be 3e41 e6bd
000001e0: 881c 1ebf 974d 2abc 830d 18be 3570 953e
000001f0: 1493 a33e f6f3 a53e 2d3e e23e f27e 293e
00000200: e891 bbbe f6eb 49bf ac45 87bd f6de 9bbe
00000210: dc17 1fbe 3ad8 a63f 069d a5be e1f3 26bf
00000220: 07e6 c0be 7cf4 6e3e 056f ce3e 6a6d dcbd
00000230: 318b fb3e c0df ba3c 774e e73d 7414 11bf
00000240: fff9 30be 1a1d 68bf 53d8 4dbf 8b67 51bf
00000250: fa3e 9dbe ce46 88be 0dcc 963e 661c 923e
00000260: 43c8 13bf 290d f33c 411c 1c3f b808 24bf
00000270: edcb 6abc 548d c03e ff0f 7d3f 5529 74be
00000280: 2db2 56ba 2987 67bc be8c ef3e 0d45 293f
00000290: b27f 92bf df67 0fbf 55a5 c8be a354 81bd
000002a0: 3267 313e 29ca a1bf 2c38 793e ceee ec3d
000002b0: 6b63 653e 4744 36bf 2e79 acbc 680a 05bf
000002c0: 1768 4a3e ee1e 54c0 1985 063f 887e 0b3e
000002d0: fbca be3d b4eb fbbe e9ce 973e b8ab 90c0
000002e0: 47f1 e33d c6d1 f33e 46a9 cc3f 85cd be3d
000002f0: baca a33d 0fde 873d 5aff 69bf beb3 55be
00000300: 38a0 223f b259 ad3e cd9b e23e 75b6 a73c
00000310: 5031 71be cc45 55be 5e33 86be 803f 05bf
00000320: d54f 623e 7f28 533e 4f3b 763e 7368 efbc
00000330: c8c7 3ebf 4a76 d03e d714 613e 1d1d 28be
00000340: 677c 383e 5ed1 a23e 3404 59bf 6c08 f13d
00000350: cafe 2fbf 794d 4cbf 4d38 90be 2392 813e
00000360: 345b f63d d802 3cbe 392b 03bf d05d 413f
00000370: a9da a63e 2b9b 9c3d af77 b7be 8dd9 163f
00000380: f4f7 6f3e c424 fdbd a688 673e 60d5 203e
00000390: dc58 08bf b055 423e 4bc5 d23e 5e13 2cbd
000003a0: ae27 a5be 9893 3b3f f0c3 92be 7f0c 85be
000003b0: 1701 fc3e c3b6 dd3c 6633 7a3d 4a91 3ebf
000003c0: 20ee 21c0 e98f 9a3e 6b9f 02bf 8130 52bf
000003d0: 7877 78be a4de 2a3e f7f4 f6bd 276a cfbe
000003e0: 2228 e23e 0cc8 ab3f c9ce bc3e 58f1 e33e
000003f0: b7d0 7c3c ac10 ea3d f0f0 16be 335f 583e

conv_last.bias f4 [10]
0.20108071 -0.035174042 -0.060297884 0.030702332 -0.11007387 0.08422773 0.06985473 0.03596694
0.059570666 0.04717633
00000000: 1ae8 4d3e a812 10bd eafa 76bd 7583 fb3c
00000010: 696e e1bd 977f ac3d ff0f 8f3d 1252 133d
00000020: 5f00 743d f83b 413d

conv_last.lin.weight f4 [10, 50]
2.7623944e-27 0.0708577 0.29359803 1.4294478 -0.35684395 0.19859523 0.051278036 0.026373127
-3.3809e-41 -0.026827415 -1.0192494 0.965312 0.49573344 2.4985e-41 -0.13833132 0.08048443
-0.31256232 0.22951624 0.18043531 -0.11111249 -0.29823938 -4.0318e-41 0.31470448 3.9119402e-07
-0.019548884 -1.81622e-40 -0.28921118 -1.1138573 0.19827732 -8.6334e-41 -0.8436586 -2.590282
0.31256557 -0.28980428 -0.4394396 0.12087058 0.42442942 0.5605227 0.08711956 -0.7426767
0.06573444 0.8927916 -0.20465878 -5.2169e-41 -0.03904681 1.9667e-41 -0.34626102 0.05359146
-0.45621747 0.99841326 0.00018530038 0.2952767 0.6825385 0.2036204 0.53908163 0.3232843
0.18683825 -0.064556226 9.88578e-40 0.5118235 0.003685219 -0.5544226 0.10256498 -1.01217e-40
-0.44213575 -0.293438 0.016924255 0.39186096 -0.06519827 0.21697776 -1.9116325 -8.761e-42
-0.123149276 -8.090016e-08 0.51071346 -2.3416e-41 0.30050108 0.38029072 -0.8058016 4.853e-42
0.41299677 0.87114656 0.13357855 0.461426 -0.14402772 0.18720263 -0.7015635 -1.311735
0.40614268 0.18115695 -0.041840643 -1.0123026 -0.21302079 -3.1284e-41 -1.4183235 -1.7617096e-18
-0.18513943 0.4705304 0.5284639 -1.2758085 3.5428145e-06 -0.1822879 -0.18355247 -0.5435913
-0.65672344 -1.2973907 -0.8634991 -0.76370144 6.8602e-41 1.2710598 -0.39490274 -0.6359963
0.39209202 1.36016e-40 0.98526835 0.38845018 0.06268537 -0.35707867 -0.17443566 0.15368958
0.060367376 -4.42578e-40 -0.34243938 -2.536184e-10 0.9269827 -1.6071e-40 0.40487292 1.2029629
-0.4191925 7.2559e-41 0.40236065 2.718556 -0.4305211 0.35300094 0.52966815 -0.14426881
-1.007215 1.0193183 -0.15505292 0.051055413 -0.14234751 -0.19751292 0.6848369 2.21159e-40
-0.81631047 -1.3519866e-19 0.5598687 -0.3545188 0.5203969 0.056333803 0.0013569716 0.05806446
0.57952696 0.6655644 0.029914387 0.3585157 0.16637631 0.5823646 -8.1999446e-38 0.51740986
0.13581653 -0.0031308434 0.021334773 -6.8019e-41 0.013270782 -0.23551373 -0.10602735 -0.15856656
0.3814965 0.15406431 -1.9486914 3.027e-42 0.21605013 -1.427933e-10 1.0059947 -1.46881e-40
0.34537625 0.10441646 -0.7897443 -9.868e-42 0.03086307 1.134405 0.37298658 0.41331926
-0.20740056 0.20342237 -0.8061494 -1.2441533 0.15846637 -0.2948271 -0.4735516 -0.96031857
-0.32402757 4.6038e-41 -2.0440521 -5.9651326e-14 -0.038133033 0.036981933 0.28068125 -1.1482711
0.0009920613 0.1527515 0.39818498 -0.057572145 0.42659688 -0.36938134 0.30557725 -0.15567282
-7.158002e-29 -0.043341827 0.08265384 -0.46681568 -0.047220383 9.0371e-41 0.047285173 -0.031200701
0.3658584 -0.2321424 0.27020502 0.2394183 -1.7662252 -1.49803e-40 0.05346105 2.721998e-07
0.6871412 -1.38094e-40 0.31962195 0.73463255 -1.0175948 -6.8417e-41 0.56749386 1.6571045
0.3150733 0.5139213 -0.36664453 0.20264389 -0.8538861 -1.3997296 0.43079478 0.040896714
0.17791133 -0.8663395 -0.6251762 -3.2129e-41 -1.2207572 -3.394795e-14 -0.06500093 0.13735317
0.4839594 -0.43085578 -1.5796577e-06 -0.1443194 0.22506164 0.8986427 -0.1700055 0.788305
00000000: 04dc 5a13 d81d 913d 7b52 963e 25f8 b63f
00000010: 40b4 b6be 8c5c 4b3e eb08 523d 750c d83c
00000020: 3f5e 0080 2bc5 dbbc c476 82bf b01e 773f
00000030: c6d0 fd3e a645 0000 baa6 0dbe 05d5 a43d
00000040: 2b08 a0be 4e06 6b3e 09c4 383e f28e e3bd
00000050: d5b2 98be 6470 0080 f220 a13e 4c05 d234
00000060: fb24 a0bc 4afa 0180 7d13 94be e092 8ebf
00000070: 3609 4b3e aaf0 0080 03fa 57bf 2ec7 25c0
00000080: 9808 a03e 3a61 94be 3afe e0be ff8a f73d
00000090: d04e d93e 6a7e 0f3f bd6b b23d 0f20 3ebf
000000a0: c79f 863d fe8d 643f 1292 51be 6d91 0080
000000b0: 8cef 1fbd d336 0000 2049 b1be b882 5b3d
000000c0: 5695 e9be 0398 7f3f 314d 4239 822e 973e
000000d0: d8ba 2e3f de81 503e 4101 0a3f 8585 a53e
000000e0: 8752 3f3e 0e36 84bd c1c3 0a00 dd06 033f
000000f0: b783 713b a4ee 0dbf 970d d23d 271a 0180
00000100: 9e5f e2be 813d 96be bca4 8a3c 00a2 c83e
00000110: ac86 85bd 6b2f 5e3e 60b0 f4bf 6c18 0080
00000120: b035 fcbd 55bb adb3 1ebe 023f 4641 0080
00000130: 47db 993e 77b5 c23e 0349 4ebf 870d 0000
00000140: 5074 d33e 7603 5f3f d1c8 083e 0740 ec3e
00000150: 017c 13be 0cb2 3f3e aa99 33bf efe6 a7bf
00000160: eff1 cf3e 3581 393e 1861 2bbd 2293 81bf
00000170: 1f22 5abe 3557 0080 a08b b5bf c1fd 01a2
00000180: 3195 3dbe 5ce9 f03e 6949 073f b14d a3bf
00000190: 17c1 6d36 aea9 3abe 2ef5 3bbe cd28 0bbf
000001a0: 071f 28bf e610 a6bf 470e 5dbf f081 43bf
000001b0: 3cbf 0000 16b2 a23f b130 cabe a7d0 22bf
000001c0: 49c0 c83e 287b 0100 8c3a 7c3f f1e2 c63e
000001d0: 3061 803d 04d3 b6be 439f 32be cd60 1d3e
000001e0: c843 773d bad1 0480 3754 afbe 9e6d 8baf
000001f0: bd4e 6d3f febf 0180 814b cf3e b0fa 993f
00000200: 66a0 d6be 44ca 0000 3702 ce3e d2fc 2d40
00000210: 436d dcbe 8abc b43e 5598 073f 34bb 13be
00000220: 6cec 80bf 0679 823f 31c6 1ebe 7b1f 513d
00000230: 8cc3 11be d440 4abe 7951 2f3f 8068 0200
00000240: b9f9 50bf 4a9d 1fa0 8e53 0f3f 7d83 b5be
00000250: bb38 053f 46be 663d 69dc b13a 00d5 6d3d
00000260: e15b 143f 6e62 2a3f 040f f53c 5f8f b73e
00000270: 8d5e 2a3e d915 153f 4639 df81 f974 043f
00000280: 7d13 0b3e d62e 4dbb 43c6 ae3c 9cbd 0080
00000290: b26d 593c 832a 71be de24 d9bd 465f 22be
000002a0: 8253 c33e 09c3 1d3e b86e f9bf 7008 0000
000002b0: 3f3c 5d3e be00 1daf 6fc4 803f 7299 0180
000002c0: 28d5 b03e 4cd8 d53d af2c 4abf 821b 0080
000002d0: 8dd4 fc3c 2f34 913f 19f8 be3e 959e d33e
000002e0: d060 54be f44d 503e cf5f 4ebf 6a40 9fbf
000002f0: 0245 223e 94f3 96be 5b75 f2be 70d7 75bf
00000300: f1e6 a5be 5680 0000 c0d1 02c0 a652 86a9
00000310: 6231 1cbd 5e7a 173d 74b5 8f3e 8cfa 92bf
00000320: 0e08 823a e46a 1c3e e7de cb3e c5d0 6bbd
00000330: e86a da3e 8d1f bdbe 9f74 9c3e b268 1fbe
00000340: 177a b590 3387 31bd 6b46 a93d 7702 efbe
00000350: 296a 41bd ebfb 0000 19ae 413d 9d98 ffbc
00000360: cb51 bb3e bdb6 6dbe 5058 8a3e 122a 753e
00000370: ab13 e2bf 97a1 0180 f9f9 5a3d db22 9234
00000380: 7ce8 2f3f f380 0180 7da5 a33e e110 3c3f
00000390: 8c40 82bf b8be 0080 4747 113f 001c d43f
000003a0: 4a51 a13e 5990 033f d5b8 bbbe e181 4f3e
000003b0: 4898 5abf 572a b3bf 2291 dc3e 5083 273d
000003c0: 632e 363e 6dc8 5dbf 8c0b 20bf 9059 0080
000003d0: c641 9cbf 52e3 18a9 351f 85bd 4fa6 0c3e
000003e0: 87c9 f73e 2199 dcbe a004 d4b5 77c8 13be
000003f0: 8f76 663e 730d 663f ec15 2ebe 5bce 493f

pred_model.0.weight f4 [10, 110]
-0.22986978 -0.5231642 1.2690604 -0.119362816 0.64836144 -0.33146778 -0.18089353 -0.1608297
1.5215935 -0.6397237 -0.2221114 0.05894056 1.552731 0.48688498 0.07550936 0.4096057
1.2816101 0.061373133 -0.13301642 0.4335233 0.31513408 0.063027576 -0.73122245 0.14342833
0.18173291 -0.02203616 -0.10552278 0.42242923 -0.45899743 -0.054223314 -0.45298335 0.54547656
0.027122935 0.5533991 -0.07224036 0.62303585 0.64314955 -0.29966053 0.05378408 -0.06612888
0.12136704 -0.31003076 0.62454057 0.04440523 -0.41715267 0.2663396 0.2678285 0.27248245
0.6647244 0.5309041 -5.6606154e-07 0.31246555 -2.8561332 -1.5256168 -0.10177466 -0.68940693
-0.3917699 -0.92133385 -2.798e-41 -0.0072515835 0.44893226 0.23661022 0.0980733 9.1682233e-38
-0.021371031 0.16043295 -0.1889206 -0.30185091 -0.4159071 0.17723805 2.7268746 7.954102e-33
-0.20368849 -6.38392e-40 -2.3116136 -5.02371e-40 -0.03250636 0.5525061 0.64796925 -6.58479e-40
0.5711258 1.167006 -0.5167935 0.117822126 0.29160494 -0.2556703 0.4835697 2.1108687
-0.9224354 0.60110986 -0.83212286 1.1027738 0.576923 -6.532568e-14 1.7826371 -3.4549e-41
0.11532174 -0.816178 -0.19313966 0.7138121 -0.89891976 -0.022920942 0.9971626 -0.0073957327
0.25661352 -0.8712197 0.5782196 0.95244855 0.5131731 -0.6600054 0.410654 0.2929536
0.53447145 0.22185877 0.28004262 0.06795907 0.33747888 0.25361392 0.9838281 0.27346885
-0.26728138 -0.19455253 0.20208833 -0.20827392 -0.069359004 0.1362217 0.5464058 0.14368887
0.18470874 0.18425061 0.24826373 0.0014583721 0.24437517 0.14615168 0.009961383 0.12263703
0.105054386 0.14573056 0.22233821 0.15669636 0.43772873 -0.22252032 0.08704066 -0.81555146
0.04417228 -0.12542063 0.24589163 0.20672947 -0.14827782 0.08339039 -0.20484155 -0.04750707
0.14693151 -0.41668615 0.1673636 0.30433437 0.08776994 -0.16615757 0.31733564 0.40821046
0.00015216602 0.4117791 1.742159 1.2106847 0.15774855 0.19996357 0.31666425 0.32039395
2.689e-42 0.30554116 0.05395461 -0.52135205 0.08250629 -5.0866e-41 0.019652497 -0.08096541
-0.23215699 -0.075793445 0.009589444 -0.19801956 -1.918578 3.566e-41 -0.12623882 -9.907148e-06
0.7590006 4.004e-42 0.13559408 -0.39603886 -1.0995573 8.467814e-19 -0.13011368 0.28735206
0.14904119 0.48620638 -0.4476397 0.2574466 -0.8994006 -0.6256183 0.5748909 -0.67648643
-0.2876872 -0.34719107 0.032074645 -4.6005e-41 -2.3397415 -7.789033e-17 -0.42686093 -0.0018709307
0.27993742 -0.87911713 0.50961804 0.45075327 0.07068872 0.87486565 0.51815856 -0.49720925
-0.1514342 1.5005114 -0.7958178 -0.7357407 0.34765407 0.08119952 0.8275925 0.30801278
0.61467254 -0.15429075 -0.011602965 0.029408494 -0.10555055 -0.6291481 0.09947437 -0.29905385
0.5557209 1.0589912 0.11232701 -0.116158426 1.3385441 -0.14476229 0.11720332 -0.3664224
-0.13165335 -0.17622435 -0.20022807 -0.23501016 -0.12948611 0.092753164 -0.050913762 -0.16296431
0.03351518 -0.01977545 0.08728429 -0.26584312 0.1514528 0.2347215 -0.26111186 0.15371513
00000000: fc62 6bbe 17ee 05bf 9270 a23f 7e74 f4bd
00000010: 04fb 253f 25b6 a9be 273c 39be 8ab0 24be
00000020: 93c3 c23f efc4 23bf 2c71 63be a86b 713d
00000030: e4bf c63f fd48 f93e a7a4 9a3d d7b7 d13e
00000040: cd0b a43f 6562 7b3d 7535 08be c4f6 dd3e
00000050: 4159 a13e 9a14 813d 6531 3bbf e0de 123e
00000060: 3118 3a3e 2d85 b4bc 541c d8bd a548 d83e
00000070: b601 ebbe 4419 5ebd 6fed e7be 5aa4 0b3f
00000080: eb30 de3c 90ab 0d3f c1f2 93bd 477f 1f3f
00000090: 73a5 243f 1b6d 99be b24c 5c3d 946e 87bd
000000a0: 488f f83d 5abc 9ebe e4e1 1f3f 42e2 353d
000000b0: 0995 d5be aa5d 883e d120 893e d282 8b3e
000000c0: 612b 2a3f 55e9 073f 74f3 17b5 7cfb 9f3e
000000d0: e3ca 36c0 6947 c3bf 3c6f d0bd f97c 30bf
000000e0: 1096 c8be 89dc 6bbf ff4d 0080 b19e edbb
000000f0: 73da e53e f349 723e a8da c83d 3195 f901
00000100: 4d12 afbc 8948 243e 6774 41be 348c 9abe
00000110: c7f1 d4be e47d 353e 1d85 2e40 4333 250a
00000120: b793 50be 94f3 0680 7af1 13c0 6878 0580
00000130: 6425 05bd 0a71 0d3f 50e1 253f 922b 0780
00000140: 4d35 123f 7460 953f 944c 04bf ba4c f13d
00000150: 3e4d 953e 38e7 82be 7396 f73e 7918 0740
00000160: ba24 6cbf 56e2 193f 0106 55bf b127 8d3f
00000170: 3ab1 133f b119 93a9 742d e43f 4f60 0080
00000180: ce2d ec3d 0bf1 50bf 67c6 45be 64bc 363f
00000190: 9b1f 66bf b3c4 bbbc 0c46 7f3f e757 f2bb
000001a0: d962 833e 4108 5fbf 3306 143f abd3 733f
000001b0: 505f 033f 1df6 28bf 3e41 d23e 04fe 953e
000001c0: 1fd3 083f f22e 633e bf61 8f3e 202e 8b3d
000001d0: 08ca ac3e afd9 813e 29dc 7b3f 1c04 8c3e
000001e0: 1bd9 88be c738 47be 3ef0 4e3e c245 55be
000001f0: 180c 8ebd b47d 0b3e 40e1 0b3f 2d23 133e
00000200: 4a24 3d3e 31ac 3c3e d938 7e3e d926 bf3a
00000210: 7c3d 7a3e c9a8 153e 1235 233c 2029 fb3d
00000220: c126 d73d 643a 153e a1ac 633e 0375 203e
00000230: fb1d e03e 5edc 63be 6042 b23d fbc7 50bf
00000240: feed 343d 446e 00be 04cb 7b3e e4b0 533e
00000250: 24d6 17be 95c8 aa3d fcc1 51be c696 42bd
00000260: 3775 163e e357 d5be 5d61 2b3e b7d1 9b3e
00000270: bac0 b33d 3625 2abe d179 a23e f600 d13e
00000280: c18e 1f39 b6d4 d23e 11ff de3f b7f7 9a3f
00000290: d688 213e 40c3 4c3e d121 a23e ad0a a43e
000002a0: 7f07 0000 e46f 9c3e 82ff 5c3d 5477 05bf
000002b0: 0ff9 a83d cb8d 0080 46fe a03c 31d1 a5bd
000002c0: 90ba 6dbe 9839 9bbd 0b1d 1d3c a4c5 4abe
000002d0: f793 f5bf 6863 0000 c044 01be e036 26b7
000002e0: dd4d 423f 290b 0000 2dd9 0a3e 9bc5 cabe
000002f0: 4bbe 8cbf feec 7921 853c 05be cf1f 933e
00000300: 419e 183e 0bf0 f83e 0831 e5be 0ad0 833e
00000310: 1e3f 66bf 8528 20bf 0d2c 133f 372e 2dbf
00000320: bd4b 93be 07c3 b1be b460 033d 3e80 0080
00000330: 53be 15c0 569a b3a4 848d dabe 043a f5ba
00000340: f553 8f3e d20d 61bf 5476 023f 22c9 e63e
00000350: 3fc5 903d 32f7 5f3f 0aa6 043f 3692 febe
00000360: 9111 1bbe c210 c03f b7ba 4bbf 8159 3cbf
00000370: b7ff b13e ef4b a63d 1add 533f dab3 9d3e
00000380: 2e5b 1d3f 65fe 1dbe 5d1a 3ebc 15ea f03c
00000390: e32a d8bd da0f 21bf 38b9 cb3d 961d 99be
000003a0: ba43 0e3f 068d 873f b40b e63d 78e4 edbd
000003b0: 6a55 ab3f 913c 14be 4b08 f03d b89b bbbe
000003c0: 23d0 06be 2874 34be 9608 4dbe 81a6 70be
000003d0: 0298 04be 5ff5 bd3d f38a 50bd 1ee0 26be
000003e0: 3747 093d 2000 a2bc 1bc2 b23d 971c 88be
000003f0: 7116 1b3e d55a 703e 74b0 85be 8067 1d3e

pred_model.0.bias f4 [10]
-0.2063594 0.052331656 0.11026407 0.12708868 -0.011621856 -0.18458028 0.23738925 -0.027092528
-0.43560907 -0.07188417
00000000: e14f 53be b859 563d 21d2 e13d 8923 023e
00000010: 9969 3ebc 9d02 3dbe 2b16 733e 26f1 ddbc
00000020: 2708 dfbe 0238 93bd

pred_model.2.weight f4 [10, 10]
1.26743e-40 0.00010655924 -2.8385458e-09 -0.009813084 1.1955575e-07 -1.444665e-08 -2.2355e-41 -3.9246e-41
-1.5326776e-27 -4.7144e-41 0.25611448 0.30040014 1.6685804 0.05028438 3.484834e-33 -0.15088639
0.2219874 -1.14647e-40 0.16590938 -1.9166315 -6.569358e-32 -2.610479e-09 2.6478512e-29 -8.6306606e-08
1.38273e-40 -9.451935e-13 -0.00013887807 9.8646e-41 1.38553e-40 2.83932e-40 -0.60912055 0.46852535
-1.2111664 0.18499076 7.800676e-06 1.0029918 -0.7131408 -1.2785381e-28 -0.14527394 3.8234878
-1.56913e-40 0.00014095037 -2.5207e-41 -3.2105196e-09 -2.76577e-40 -0.00034853877 -6.26322e-40 -2.11527e-40
1.8548e-41 -3.66571e-40 -0.9192312 0.29596016 -0.9640043 0.6097447 1.5425036e-05 0.40798846
0.11231381 6.883773e-25 -0.15069817 2.0147457 0.81400126 0.13490514 1.624857 -0.044370163
3.0362864e-07 -0.2318881 0.4584751 -3.64438e-40 0.1457798 -2.4066389 1.1896831 -2.336957
-0.89103854 1.012393 0.0002536532 -3.458522 0.22240351 3.3073959e-18 0.29730278 -2.2617807
-0.8576663 0.33763883 -0.99141335 0.5929314 0.00013371445 0.20535472 0.0018597391 -5.295748e-18
-0.12979671 1.8527828 0.89168227 -0.03189947 1.6061738 -0.0624962 -4.189812e-06 -0.48338678
0.68578213 1.5717253e-32 0.14690848 -2.127973
00000000: 4f61 0100 8e78 df38 3a10 43b1 0fc7 20bc
00000010: 3c5f 0034 0a31 78b2 513e 0080 676d 0080
00000020: cadc f292 6b83 0080 7021 833e 0cce 993e
00000030: 0b94 d53f fef6 4d3d 1cc1 9009 f681 1abe
00000040: aa50 633e 973f 0180 26e4 293e 2e54 f5bf
00000050: df8c aa8b 0864 33b1 1343 0610 8f57 b9b3
00000060: 7381 0100 2f06 85ab cc9f 11b9 fc12 0100
00000070: 3b82 0100 7d17 0300 53ef 1bbf 8ee2 ef3e
00000080: 8007 9bbf 386e 3d3e a6df 0237 0962 803f
00000090: 6590 36bf ef12 2291 b1c2 14be 06b4 7440
000000a0: 69b5 0180 14cc 1339 4446 0080 0fa0 5cb1
000000b0: fc02 0380 15bc b6b9 eed1 0680 a74d 0280
000000c0: b433 0000 dafd 0380 bc52 6bbf 1788 973e
000000d0: fcc8 76bf 3b18 1c3f 0365 8137 dde3 d03e
000000e0: c804 e63d de0a 5517 9f50 1abe 98f1 0040
000000f0: 6362 503f 9324 0a3e 50fb cf3f 7dbd 35bd
00000100: 6702 a334 1374 6dbe 40bd ea3e e8f7 0380
00000110: 4d47 153e 5f06 1ac0 8947 983f b490 15c0
00000120: 1a1b 64bf 1896 813f c2fc 8439 6d58 5dc0
00000130: bfbd 633e f10a 7422 1238 983e 04c1 10c0
00000140: 0590 5bbf ffde ac3e 44cd 7dbf 5aca 173f
00000150: b335 0c39 8248 523e 7dc2 f33a ed60 c3a2
00000160: 6ee9 04be fd27 ed3f 4a45 643f 05a9 02bd
00000170: 1a97 cd3f 04fc 7fbd 3696 8cb6 797e f7be
00000180: 6b8f 2f3f a037 a30a 2d6f 163e b630 08c0

pred_model.2.bias f4 [10]
-0.032353662 -0.19446744 -2.3519767e-07 0.74064434 -0.0046847193 0.54794824 0.060548753 -0.7694083
0.6365995 0.08884303
00000000: 4685 04bd 7922 47be a58a 7cb4 de9a 3d3f
00000010: 4682 99bb 5646 0c3f f801 783d f1f7 44bf
00000020: 2ff8 223f 56f3 b53d

pred_model.4.weight f4 [2, 10]
-0.008316659 -0.7589735 1.9408086e-05 2.2361274 7.031921e-08 0.6922596 -0.87262154 -5.9855285
0.91315025 -0.6114943 -0.004426091 0.770054 -2.034952e-05 -2.2384264 -6.787075e-08 -0.68134326
0.59238863 5.9233356 -0.8079713 0.8184131
00000000: 9942 08bc 164c 42bf 8cce a237 b61c 0f40
00000010: 6502 9733 ed37 313f 2064 5fbf 7389 bfc0
00000020: 37c4 693f e48a 1cbf be08 91bb 4222 453f
00000030: 43b4 aab7 6142 0fc0 57c0 91b3 836c 2ebf
00000040: c8a6 173f f78b bd40 35d7 4ebf 8583 513f

pred_model.4.bias f4 [2]
0.029062042 -0.1978674
00000000: 8513 ee3c c09d 4abe
