params/mutag_net.pt (torch, 24257 bytes, 12 tensors)

conv_first.bias f4 [50]
0.007303685 0.008817491 -0.0002989556 0.031156765 0.081157304 -0.03146929 0.056304738 0.020066705
-0.023276094 0.046204343 -0.018083632 -0.012899153 0.026312478 -0.044114955 0.09584781 -0.06476161
0.014987208 0.02120826 -0.0146076605 -0.13685288 -0.02157836 0.02790728 -0.03445238 0.035846516
0.05382708 0.03466773 -0.018148534 0.0062700165 -0.04384151 0.0075674467 -0.053666834 0.07302001
-0.027713899 0.040305655 -0.026781365 -0.040740583 -0.0836732 0.032656033 -0.051296543 -0.09972616
0.0003146817 0.05487626 -0.045764934 0.03072701 -0.075627364 0.04737564 0.09195415 -0.021922013
0.010107161 -0.06415409
00000000: c053 ef3b 3d77 103c 24bd 9cb9 793c ff3c
00000010: cd35 a63d f1e5 00bd cc9f 663d ee62 a43c
00000020: 82ad bebc c440 3d3d 2024 94bc f856 53bc
00000030: 448d d73c e2b1 34bd db4b c43d bca1 84bd
00000040: e88c 753c f2bc ad3c f854 6fbc 2923 0cbe
00000050: 1ac5 b0bc cf9d e43c f01d 0dbd ccd3 123d
00000060: c979 5c3d c0ff 0d3d 3cac 94bc b674 cd3b
00000070: 2893 33bd 58f8 f73b c1d1 5bbd 848b 953d
00000080: 4208 e3bc 8b17 253d 9864 dbbc 99df 26bd
00000090: db5c abbd 55c2 053d 531c 52bd 3b3d ccbd
000000a0: ddfb a439 eec5 603d 0374 3bbd 36b7 fb3c
000000b0: 85e2 9abd f60c 423d 7552 bc3d cb95 b3bc
000000c0: 8198 253c 3863 83bd

conv_first.lin.weight f4 [50, 14]
-0.28373316 0.41580966 -0.78097224 0.08802516 -0.3839905 -0.002406972 0.57732636 0.09111278
-0.3654747 0.413077 0.42034364 0.22751525 1.08519404e-17 0.047977366 0.033095583 -0.53260124
-0.048929848 -0.2105205 0.6029161 -0.107561134 -0.099011585 0.012987502 1.1380669 0.010764929
0.2300016 0.013121056 -1.9397557e-17 -0.00936433 0.45282656 -0.45446116 -0.20259666 -0.32820335
-0.40030316 -0.097071186 -0.3062609 -0.3513004 1.0321019 -0.37896547 -0.016430734 0.22621721
-1.6606796e-17 0.013155234 0.18388979 -0.15883717 0.44991615 0.21605761 -0.43388724 0.11129182
-0.30538237 -0.3926512 0.03146011 -0.7344001 0.38908523 0.3259012 7.5188706e-17 -0.00330801
0.10995469 -0.13625729 0.5593866 0.22686617 -0.56292105 -0.5170448 0.9334069 0.033995844
-1.1596401 0.22672844 -0.09063677 -0.029094677 -3.3797316e-17 -0.0136574125 0.15375133 -0.43345946
-0.64761394 0.2717855 -0.07289986 -0.118963584 -0.6608448 0.56140965 1.1076094 -0.71595913
0.47175908 0.47467494 6.3571815e-17 -0.0005317612 -0.18885629 0.13467549 0.22706413 0.30577612
0.2750625 -0.034011975 0.008245112 -0.658218 0.10247573 -0.17278077 1.3303155 0.20411761
3.9390953e-17 0.00850611 -0.15700123 0.28020266 0.14467661 0.08226327 -0.6631575 0.038373224
0.1491369 0.74967074 -0.9135758 0.37907943 -0.051641427 -0.032617327 -4.97765e-17 -0.0041644443
0.35564172 0.26127782 0.015495268 -0.3028449 0.04527182 0.16173404 0.17674531 0.73310184
0.5776006 -0.20769908 -7.907743e-06 0.27429485 -3.1470163e-17 -1.5317143e-10 -0.4941682 0.42222875
0.105084404 0.15794285 -0.39824775 0.13026713 0.13700572 0.17066342 -0.4328974 0.17656556
0.72306794 0.5345929 -6.025169e-17 0.056916203 -0.1616314 0.42716682 -0.15935563 -0.15299492
-0.50362283 0.2345972 0.27148864 -0.29612893 0.6752836 0.8916792 0.940101 2.5596276e-13
-2.9575667e-17 -1.4521769e-13 0.1425968 -0.001651805 -0.26451734 -0.10709764 0.5547745 0.5939999
-0.32716247 0.45154363 0.28397852 -0.17301843 -0.0071413494 -0.0026688348 -2.3760017e-18 -1.0953399e-06
-0.42706078 -0.22317216 0.66985506 0.28170276 0.28507277 -0.24616465 0.31116235 -0.013836356
0.29905802 -0.10930294 0.059268847 -0.031705644 1.1411502e-18 0.015172931 -0.016585218 1.2260486e-05
-8.723837e-18 -5.223345e-05 0.00025568393 -2.2251913e-06 1.4269375e-17 -1.4307351e-17 1.1795202e-17 -3.8516206e-17
-7.661858e-18 -7.794564e-17 -2.8486727e-17 1.9138455e-17 0.20519717 -0.018143859 -0.86456686 -0.2240406
0.32717842 -0.1887184 0.82043904 0.55110633 0.556725 -0.2718154 -0.06210371 0.50891584
7.0112305e-17 -0.0198099 0.48908797 -0.45008084 -0.16467685 -0.35360003 -0.27001408 -0.22237524
-0.45887363 -0.30585364 1.6056201 -0.3284673 -4.763678e-17 0.26808313 8.731726e-18 4.1101493e-17
-0.14553747 -0.033997916 -0.42467654 0.21376993 -0.39800218 0.045044526 0.3680794 -0.3670012
0.111922674 0.30467904 0.30028543 -0.02630298 -8.8228565e-18 -0.009042723 0.39895862 -0.34114847
-1.3068329 0.31208697 -0.46835825 -0.12391044 -1.2720162 0.45017496 0.75399745 -1.2301774
-0.0283182 0.82709104 -2.6651608e-18 -0.016409328 -0.08512733 -0.47916323 1.3405579 0.3130659
00000000: 7945 91be 01e5 d43e cced 47bf 8946 b43d
00000010: 679a c4be 4abe 1dbb a9cb 133f 5699 ba3d
00000020: 801f bbbe d47e d33e 4837 d73e c2f9 683e
00000030: d72e 4823 ea83 443d 3c8f 073d 8e58 08bf
00000040: aa6a 48bd b092 57be b658 1a3f 0349 dcbd
00000050: 96c6 cabd 88c9 543c 2dac 913f 625f 303c
00000060: 8a85 6b3e b3f9 563c 30e9 b2a3 d96c 19bc
00000070: e2d8 e73e 22af e8be 8075 4fbe 450a a8be
00000080: 89f4 ccbe 42cd c6bd 3bce 9cbe a5dd b3be
00000090: ea1b 843f c307 c2be bf99 86bc 7ca5 673e
000000a0: b02b 99a3 0d89 573c 9b4d 3c3e 36a6 22be
000000b0: 695b e63e 353e 5d3e 7826 debe f7ec e33d
000000c0: 145b 9cbe 9409 c9be 51dc 003d a501 3cbf
000000d0: 2e36 c73e 86dc a63e 945f ad24 33cb 58bb
000000e0: ed2f e13d 0887 0bbe f633 0f3f 9b4f 683e
000000f0: 981b 10bf 0c5d 04bf c1f3 6e3f 3a3f 0b3d
00000100: 166f 94bf 802b 683e c59f b9bd f657 eebc
00000110: d4dc 1ba4 57c3 5fbc fd70 1d3e 66ee ddbe
00000120: 07ca 25bf 7827 8b3e 864c 95bd 2ea3 f3bd
00000130: 202d 29bf 8bb8 0f3f 25c6 8d3f 1949 37bf
00000140: 688a f13e 9808 f33e 2d96 9224 e465 0bba
00000150: 8b63 41be 5fe8 093e 8083 683e b08e 9c3e
00000160: fed4 8c3e 2450 0bbd 8216 073c fa80 28bf
00000170: ccde d13d 71ed 30be c747 aa3f 3504 513e
00000180: a1a8 3524 365d 0b3c eec4 20be b976 8f3e
00000190: 1b26 143e a579 a83d b1c4 29bf 3e2d 1d3d
000001a0: 58b7 183e 6cea 3f3f 1be0 69bf b316 c23e
000001b0: f685 53bd bf99 05bd b88d 65a4 e475 88bb
000001c0: ac16 b63e 35c6 853e dddf 7d3c 7d0e 9bbe
000001d0: f26e 393d 9c9d 253e b9fc 343e 90ac 3b3f
000001e0: a2dd 133f 11af 54be 7fab 04b7 6070 8c3e
000001f0: 6921 11a4 ed69 28af 9d03 fdbe 5e2e d83e
00000200: 7e36 d73d c5bb 213e 21e7 cbbe bf64 053e
00000210: 3a4b 0c3e 64c2 2e3e baa4 ddbe 9acd 343e
00000220: fb1a 393f 15db 083f 52ee 8aa4 f720 693d
00000230: b482 25be 9cb5 da3e 1f2e 23be b3aa 1cbe
00000240: 6ded 00bf 403a 703e 8f00 8b3e 369e 97be
00000250: 63df 2c3f 1745 643f 76aa 703f 1f18 902a
00000260: c964 08a4 2680 23aa e504 123e 6181 d8ba
00000270: d16e 87be 0256 dbbd b405 0e3f 6110 183f
00000280: d781 a7be ba30 e73e a265 913e be2b 31be
00000290: fb01 eabb 9ee7 2ebb 6751 2fa2 9803 93b5
000002a0: b6a7 dabe 3e87 64be 9f7b 2b3f 583b 903e
000002b0: 0ff5 913e 9612 7cbe ac50 9f3e e2b1 62bc
000002c0: 221e 993e 38da dfbd e4c3 723d c7dd 01bd
000002d0: 7067 a821 e397 783c b9dd 87bc 63b2 4d37
000002e0: 28ed 20a3 3d15 5bb8 510d 8639 7f54 15b6
000002f0: 9c9c 8323 47f6 83a3 4495 5923 e99f 31a4
00000300: 1a56 0da3 fcba b3a4 315f 03a4 6685 b023
00000310: 351f 523e 6ea2 94bc 4154 5dbf e66a 65be
00000320: ee83 a73e 653f 41be 4b08 523f 4e15 0d3f
00000330: 8885 0e3f 632b 8bbe 7660 7ebd 4f48 023f
00000340: 00ab a124 5f48 a2bc bd69 fa3e ff70 e6be
00000350: 0ca1 28be 100b b5be 493f 8abe 56b6 63be
00000360: 7cf1 eabe d998 9cbe f684 cd3f de2c a8be
00000370: 95af 5ba4 3142 893e 6912 2123 148c 3d24
00000380: c607 15be 6641 0bbd 346f d9be 81e6 5a3e
00000390: f1c6 cbbe 9c80 383d e774 bc3e 95e7 bbbe
000003a0: b737 e53d e4fe 9b3e 03bf 993e 5979 d7bc
000003b0: c3c0 22a3 ee27 14bc 4e44 cc3e 03ab aebe
000003c0: 4d46 a7bf ddc9 9f3e a7cc efbe c2c4 fdbd
000003d0: 6dd1 a2bf 557d e63e fa05 413f 7476 9dbf
000003e0: 92fb e7bc 3dbc 533f 77a7 44a2 db6c 86bc
000003f0: 3d57 aebd e254 f5be 6797 ab3f 2c4a a03e

conv_block.0.bias f4 [50]
-0.030153789 -0.061581895 -0.004697212 -0.055063922 0.019504633 -0.15743625 0.037686992 -0.121466026
0.049721673 -0.004464154 0.179397 0.04630816 -0.030552074 -0.03566109 -0.0056276536 -0.035540525
-3.345679e-05 0.01878721 -0.0032699767 -0.0006166466 -9.000141e-06 -0.018519038 -0.16086498 -0.037407376
-0.08873474 -0.07277513 0.118355066 -0.23909776 0.12607159 -0.11876105 -0.017997043 -0.009857894
-0.046060152 -0.036254726 -0.079942174 -0.0022815124 -0.039628014 -0.327505 -0.059230797 -0.024031572
-0.13004869 0.075917415 0.014168523 -0.06539308 -0.018791154 -0.012660196 0.094099894 0.0005152298
0.009549989 -0.021072408
00000000: 1405 f7bc 4c3d 7cbd 12eb 99bb b58a 61bd
00000010: 2ec8 9f3c f836 21be ad5d 1a3d 2ec3 f8bd
00000020: f4a8 4b3d 0a48 92bb d9b3 373e a0ad 3d3d
00000030: 5848 fabc 5d11 12bd 2e68 b8bb f192 11bd
00000040: f453 0cb8 a3e7 993c 1b4d 56bb 74a6 21ba
00000050: 50ff 16b7 3db5 97bc cab9 24be 7a38 19bd
00000060: 8fba b5bd 210b 95bd 2464 f23d 0bd6 74be
00000070: e918 013e fe38 f3bd 896e 93bc 0183 21bc
00000080: 92a9 3cbd d67f 14bd b9b8 a3bd 6d85 15bb
00000090: fc50 22bd bcae a7be fe9b 72bd dcdd c4bc
000000a0: 7c2b 05be 977a 9b3d 1823 683c cfec 85bd
000000b0: e8ef 99bc b66c 4fbc 72b7 c03d 7d10 073a
000000c0: 8f77 1c3c 0ba0 acbc

conv_block.0.lin.weight f4 [50, 50]
0.5823798 -0.2618169 0.0063328105 0.10544014 -0.012643562 0.053436447 0.06521563 0.1172221
-0.07986073 0.835612 0.32257742 -0.1101148 -0.14758027 7.227817e-17 -0.28991494 0.07704989
0.17376101 -0.21402101 0.064518526 0.6211987 -0.11558878 0.76442564 0.23410286 0.18165438
-0.47395456 -0.41162005 -0.051017873 -0.13069136 0.22825663 -0.061874274 0.76184726 -0.6602137
0.056812853 0.26820868 -0.015394068 -0.049214944 -0.32443622 0.033508312 0.21690382 -0.026834404
0.23833175 0.3362907 0.18972303 -0.34886396 0.27241734 -0.12027663 0.06401316 0.31229994
-0.03378471 0.65971375 0.43887433 -0.24003017 -0.0713047 -0.19597614 0.31115642 -0.33241776
-0.17892908 0.14823088 0.15065722 0.6513027 -0.30391094 -0.24738182 -0.025113143 4.3481118e-16
0.007223733 0.19195616 0.1524119 0.07750706 0.099008195 -0.67532206 0.20968777 0.8394817
-0.0011794564 0.29282275 1.0287243 0.10862906 0.33117083 0.06802274 1.1158338 -0.10429893
0.34703287 -0.2846977 -0.1439285 0.729429 0.03370574 0.21866414 0.06584695 0.0951022
0.2740312 0.085868254 -0.08998939 0.40226248 0.17512195 -0.18841977 0.02170577 0.20362057
0.5634721 -0.16701816 0.009783206 0.17647313 9.38708e-18 -2.3774881e-17 4.467747e-17 2.4858869e-16
1.8688612e-16 9.3982474e-17 -5.5757065e-18 3.753877e-17 -2.981469e-16 1.4630798e-17 4.685832e-18 -1.3653356e-16
-1.163705e-17 9.694672e-17 4.404944e-17 1.1385996e-13 1.7478724e-19 -5.9930567e-12 1.4538963e-15 3.3891634e-17
-4.7921266e-17 1.1880892e-17 2.1366997e-15 -7.8472236e-17 5.1125727e-17 -1.5138085e-17 1.7427786e-16 1.2469851e-16
-5.666879e-17 -2.8854012e-17 1.6353713e-17 1.0713133e-17 2.0808227e-16 -1.1736803e-17 9.547839e-18 1.792195e-12
1.24417e-17 -3.72841e-17 4.1315405e-18 -1.1957837e-07 -1.7594489e-15 -8.0640275e-18 7.3156945e-18 -1.2153824e-16
-3.2168038e-17 4.1816624e-17 1.6013651e-17 -2.757678e-16 -7.812581e-17 -6.417587e-18 0.85490143 -0.0064899884
0.43216679 -0.18095134 -0.42909986 0.23645143 -0.08463248 -0.1059592 0.2955659 0.7075245
0.10665321 0.10615089 1.138166 -4.208141e-15 0.08710737 0.26718277 0.075854 0.02053821
-0.24456735 0.58540595 0.25716648 -1.6159095 0.20684443 0.10204991 -0.2209993 0.044301227
-0.074162096 -0.61252093 -0.10527199 -0.14964664 0.051538453 0.4497063 -0.20381118 -0.4074087
0.014281528 -0.115728274 -0.11583926 -0.17005269 -0.05931583 0.01787967 -0.075508535 -0.23419392
0.93347335 0.15591365 0.2132964 -0.42612737 0.10463325 0.2912905 0.06723419 -0.5939727
0.5156977 -0.03616423 0.18107148 0.25446427 -0.10170279 0.05522323 0.013444793 0.050962646
0.22488315 0.89812225 0.1364177 0.024286354 -0.178751 1.0415374e-17 -0.25288287 -0.07833952
0.26314363 0.12302018 0.09093982 -0.02155374 -0.018402532 0.6952113 0.10523168 0.3167574
-0.1682942 -0.14148077 0.22780755 0.021834841 0.39714903 -0.18314438 0.61137605 0.021441793
0.32185343 -0.22430404 0.46149066 0.3213309 -0.083972424 0.14133498 -0.43002948 -0.057316497
0.005857249 0.055136543 -0.03734264 -0.25152907 0.17047256 0.10808186 0.41846624 -0.16452082
0.21257502 0.91824746 -0.056558616 -0.11103198 -0.116662286 -0.14327611 -0.13821994 -0.14922453
00000000: d816 153f dd0c 86be 7783 cf3b 00f1 d73d
00000010: f126 4fbc 2de0 5a3d c68f 853d 2412 f03d
00000020: 068e a3bd abea 553f de28 a53e de83 e1bd
00000030: 481f 17be 80a9 a624 bb6f 94be 55cc 9d3d
00000040: 68ee 313e 5328 5bbe 4a22 843d e106 1f3f
00000050: cfb9 ecbd 66b1 433f a9b8 6f3e 9b03 3a3e
00000060: 2caa f2be ddbf d2be 1ef8 50bd f5d3 05be
00000070: 1bbc 693e e16f 7dbd 6c08 433f c403 29bf
00000080: 98b4 683d a652 893e 6737 7cbc 9c95 49bd
00000090: 811c a6be 0340 093d 091c 5e3e d3d3 dbbc
000000a0: 3d0d 743e 4b2e ac3e c146 423e 4c9e b2be
000000b0: 497a 8b3e 9853 f6bd 5519 833d c7e5 9f3e
000000c0: d661 0abd 00e3 283f 23b4 e03e 78ca 75be
000000d0: 3308 92bd f8ad 48be e54f 9f3e a932 aabe
000000e0: 2f39 37be d6c9 173e e345 1a3e c6bb 263f
000000f0: 379a 9bbe a951 7dbe 14ba cdbc cea6 fa25
00000100: 10b5 ec3b 2890 443e dd11 1c3e 05bc 9e3d
00000110: cfc4 ca3d e8e1 2cbf 64b8 563e 46e8 563f
00000120: fd97 9aba ddec 953e 3dad 833f ea78 de3d
00000130: 398f a93e 824f 8b3d a4d3 8e3f ad9a d5bd
00000140: 4bae b13e e6c3 91be fe61 13be dcbb 3a3f
00000150: 080f 0a3d 7ee9 5f3e c4da 863d f1c4 c23d
00000160: d14d 8c3e b2db af3d 5b4c b8bd 59f5 cd3e
00000170: 2b53 333e 1df1 40be 4dd0 b13c e981 503e
00000180: b53f 103f cf06 2bbe bd49 203c 5fb5 343e
00000190: 3b29 2d23 da48 dba3 d909 4e24 374d 8f25
000001a0: 0c77 5725 76b5 d824 0fb5 cda2 f51d 2d24
000001b0: b7de aba5 fff1 8623 6fe0 ac22 9869 1da5
000001c0: 6aaa 56a3 3e8b df24 6624 4b24 e631 002a
000001d0: 345a 4e20 a8dc d2ac 4e87 d126 2e4c 1c24
000001e0: 72ff 5ca4 ed29 5b23 27f7 1927 d5f1 b4a4
000001f0: 9bc6 6b24 cb9f 8ba3 bfed 4825 81c4 0f25
00000200: 59ab 82a4 ce10 05a4 1dd6 9623 579f 4523
00000210: 0ce7 6f25 7c81 58a3 6520 3023 a13a fc2b
00000220: 4482 6523 4cf1 2ba4 4c6d 9822 7465 00b4
00000230: 3590 fda6 4bc1 14a3 64f3 0623 c21f 0ca5
00000240: 5159 14a4 5bd8 4024 2ab3 9323 25f8 9ea5
00000250: 5725 b4a4 65c4 eca2 d2da 5a3f f8a9 d4bb
00000260: f744 dd3e 4f4b 39be fab2 dbbe 5320 723e
00000270: cb53 adbd 2301 d9bd 6a54 973e 5320 353f
00000280: 006d da3d a365 d93d 6caf 913f 409d 97a7
00000290: 5965 b23d 2ecc 883e 5859 9b3d c03f a83c
000002a0: dd6f 7abe 2add 153f 53ab 833e 1fd6 cebf
000002b0: 07cf 533e 8bff d03d a44d 62be 3475 353d
000002c0: 4ce2 97bd 2cce 1cbf d798 d7bd f83c 19be
000002d0: fc19 533d e73f e63e e1b3 50be e097 d0be
000002e0: 12fd 693c f202 edbd 223d edbd 4b22 2ebe
000002f0: 28f5 72bd 6378 923c 38a4 9abd 88d0 6fbe
00000300: 1cf8 6e3f d4a7 1f3e 5f6a 5a3e 5e2d dabe
00000310: f549 d63d 0724 953e 14b2 893d 980e 18bf
00000320: c404 043f f220 14bd cd6a 393e 2449 823e
00000330: 8d49 d0bd c131 623d 8d47 5c3c 35be 503d
00000340: c547 663e 57eb 653f 15b1 0b3e 2df4 c63c
00000350: 810a 37be 3721 4023 dd79 81be 7870 a0bd
00000360: c3ba 863e 01f2 fb3d a83e ba3d 7891 b0bc
00000370: e8c0 96bc 5ef9 313f b583 d73d 072e a23e
00000380: 5155 2cbe 56e0 10be 6246 693e fbde b23c
00000390: 1e57 cb3e 338a 3bbe 2483 1c3f b3a6 af3c
000003a0: f9c9 a43e f5af 65be 8148 ec3e 7c85 a43e
000003b0: bcf9 abbd 1eba 103e d32c dcbe b4c4 6abd
000003c0: 2aee bf3b dbd6 613d 99f4 18bd 6bc8 80be
000003d0: 5c90 2e3e 065a dd3d 3541 d63e 2578 28be
000003e0: 44ad 593e 4412 6b3f 02aa 67bd bc64 e3bd
000003f0: a3ec eebd f9b6 12be 8789 0dbe 51ce 18be

conv_last.bias f4 [10]
0.03277482 -0.019670019 0.020867659 0.018988356 0.02284319 -0.030011944 -0.0404695 -0.015595911
-0.05540573 -0.0006660636
00000000: e43e 063d 0523 a1bc a7f2 aa3c 788d 9b3c
00000010: a421 bb3c 9cdb f5bc 59c3 25bd fe85 7fbc
00000020: 1ef1 62bd c69a 2eba

conv_last.lin.weight f4 [10, 50]
-0.100639015 -0.005282279 -5.6183934e-17 0.0033984417 -0.35041404 -0.13281667 -0.49437103 0.41473746
-0.3774869 0.288855 0.4522125 0.41005826 0.397406 -0.014800261 -0.12860964 -0.036541596
-5.298931e-19 -0.37689987 0.0849014 2.3394717e-11 1.4188636e-18 -0.40370777 -4.090887e-11 0.47642097
0.14209206 0.3340342 0.17741321 0.2753241 0.7063894 0.014318551 -0.0020113704 -0.3400885
-5.473951e-19 -0.19022265 1.4731871 -2.7521574e-17 0.47342694 1.3297945 0.33557796 0.06922893
-0.20364003 -0.5337166 -0.24294573 -0.35139477 0.3887657 -3.826836e-17 0.4121835 0.1659465
0.37951565 0.38095027 0.31821474 -0.1718681 4.8504655e-18 0.24573418 0.29700476 0.13909943
0.6875614 -0.7399956 -0.26839116 -0.19592643 0.07268642 -0.17586909 -0.095232934 -0.052641433
-0.21214862 0.18504491 6.674255e-17 0.8634001 -0.26650664 5.714771e-10 -1.0035342e-18 0.5355854
-0.0003582351 -0.14143121 0.089920454 0.3364106 -0.3211679 -0.55178064 -0.8725908 -0.0124340765
-0.8347213 0.27606985 8.201251e-10 0.2700463 -1.8233415 1.8618524e-13 -0.088525765 -1.5614092
0.08627634 -0.10490194 0.070091225 0.28403577 -0.07741326 0.2181186 -0.15386927 2.7275839e-17
0.16418839 0.23021092 -0.2885883 -0.18638581 0.14053343 -0.15032211 -7.8011825e-18 -0.35638344
0.019234367 0.13970967 0.4447771 -0.28127515 0.19542775 0.09662264 -0.19831695 -0.22052144
-0.38318428 0.22075218 -0.19855969 -0.0076408433 -6.3424914e-17 0.49748743 0.049150996 -8.742745e-12
-3.275644e-17 0.18013862 6.5755266e-12 -0.43751198 0.033616204 -0.39237174 -0.2274289 -0.4564126
-0.26371843 -0.0080051 -0.2033621 -0.23892348 -1.08106756e-16 0.26738313 -1.1508605 9.476971e-18
-0.17771094 -1.138503 -0.21680997 -0.2769982 0.1525049 0.99952996 -0.04076391 -0.056567106
-0.27575073 -1.7308736e-17 -0.21243618 -0.1503956 -0.4450155 0.07485758 0.15586193 -0.17914237
5.456697e-18 -0.25262892 0.04117657 0.13612564 0.59495825 -0.051244445 -0.009146325 -0.12468066
0.28005892 -0.0993077 -0.04661258 -0.15686178 0.14437662 -0.16274776 -5.0079357e-17 0.25391823
-0.04794057 -5.1520014e-11 1.6615558e-18 -0.20263477 -1.6283245e-06 0.045294058 -0.29355624 -0.04591301
-0.64224136 -0.43226117 -0.56929255 -0.0017886104 -0.2661002 -0.031352557 8.282418e-18 -0.2645291
-0.84040964 4.8696047e-17 -0.3226122 -1.2656345 -0.42682195 0.111281574 0.1242159 0.9851266
0.11721458 0.31735423 -0.17788513 7.380472e-17 0.3204504 -0.12993385 -0.43182412 0.07786516
-0.13446504 0.29799047 -7.049797e-17 -0.5157087 -0.1820113 0.13790165 0.4832031 -0.64230955
0.33632314 0.08145661 -0.11473254 0.19921881 -0.39825168 0.2419938 -0.17125233 0.1411246
-2.102009e-17 0.10798718 0.16137594 1.9028725e-11 1.0442269e-17 -0.10272902 6.065525e-09 0.14618163
-0.05543327 -0.33849218 -0.6090462 -0.7883871 -0.371252 -0.013301228 -0.09813113 0.15056002
2.284171e-16 0.10180624 -1.0733831 -1.2412684e-17 -0.46206146 -1.233167 -0.4149185 -0.53047746
0.13526472 0.60753554 -0.024055753 0.3602891 -0.44224095 1.264731e-17 -0.035328526 -0.042328008
-0.11855165 0.114716135 -0.20763554 0.34516478 -5.3442753e-17 -0.11410983 0.08940229 0.1311507
00000000: d41b cebd f816 adbb 248d 81a4 64b8 5e3b
00000010: 7869 b3be 1801 08be 331e fdbe 7858 d43e
00000020: f745 c1be cde4 933e 6688 e73e 28f3 d13e
00000030: cd78 cb3e cb7c 72bc 3fb2 03be a4ac 15bd
00000040: 9765 1ca1 05f9 c0be c9e0 ad3d 38c8 cd2d
00000050: 2763 d121 c9b2 cebe 4beb 33ae 73ed f33e
00000060: 9580 113e 8806 ab3e cfab 353e 48f7 8c3e
00000070: f0d5 343f 5b98 6a3c 32d1 03bb 1420 aebe
00000080: 0190 21a1 bac9 42be 6591 bc3f 7bd7 fda3
00000090: 0465 f23e b536 aa3f e0d0 ab3e e6c7 8d3d
000000a0: 0387 50be a7a1 08bf c4c6 78be 04ea b3be
000000b0: 4c0c c73e 4e7b 30a4 b709 d33e e1ed 293e
000000c0: e04f c23e ea0b c33e 0bed a23e 31fe 2fbe
000000d0: 5af3 b222 bea1 7b3e 0211 983e 1570 0e3e
000000e0: 0604 303f 5a70 3dbf 916a 89be f0a0 48be
000000f0: 9edc 943d 0717 34be 7c09 c3bd 8b9e 57bd
00000100: 7d3d 59be 6a7c 3d3e d9e5 9924 ca07 5d3f
00000110: 8f73 88be 2016 1d30 7318 94a1 201c 093f
00000120: 80d1 bbb9 58d3 10be 3728 b83d 033e ac3e
00000130: 1e70 a4be 7f41 0dbf 1c62 5fbf 4cb8 4bbc
00000140: 4cb0 55bf 0759 8d3e 2c6f 6130 8243 8a3e
00000150: 4163 e9bf 3ea0 512a ff4c b5bd 42dc c7bf
00000160: a6b1 b03d d4d6 d6bd fd8b 8f3d 236d 913e
00000170: d88a 9ebd 7b5a 5f3e e88f 1dbe 4193 fb23
00000180: 0021 283e 69bc 6b3e d8c1 93be ecdb 3ebe
00000190: ffe7 0f3e 0aee 19be 0be8 0fa3 e477 b6be
000001a0: 6491 9d3c 0d10 0f3e d3b9 e33e 4c03 90be
000001b0: 361e 483e 17e2 c53d 9913 4bbe 5fd0 61be
000001c0: bb30 c4be dc0c 623e 3b53 4bbe 0a60 fabb
000001d0: 763f 92a4 acb6 fe3e 8e52 493d d3cd 19ad
000001e0: fb0f 17a4 4276 383e 145b e72c 9201 e0be
000001f0: 25b1 093d f3e4 c8be 1fe3 68be eaae e9be
00000200: 1a06 87be d327 03bc 283e 50be 5ba8 74be
00000210: f746 f9a4 71e6 883e 664f 93bf bbd1 2e23
00000220: dbf9 35be 77ba 91bf 6f03 5ebe b5d2 8dbe
00000230: 3f2a 1c3e 32e1 7f3f 0ff8 26bd e9b2 67bd
00000240: 332f 8dbe 19a5 9fa3 df88 59be 4e01 1abe
00000250: 12d9 e3be ee4e 993d 459a 1f3e 1971 37be
00000260: 0c51 c922 9458 81be c3a8 283d 8564 0b3e
00000270: 2f4f 183f b2e5 51bd 78da 15bc 9358 ffbd
00000280: e263 8f3e d661 cbbd d5ec 3ebd 60a0 20be
00000290: 77d7 133e 59a7 26be 45f3 66a4 9201 823e
000002a0: 555d 44bd 6196 62ae ce33 f521 7d7f 4fbe
000002b0: ce8c dab5 4386 393d 014d 96be 480f 3cbd
000002c0: ee69 24bf 5651 ddbe 28bd 11bf ce6f eaba
000002d0: 493e 88be 8a6b 00bd 9dc8 1823 5c70 87be
000002e0: 1625 57bf 2592 6024 6d2d a5be 5000 a2bf
000002f0: 6888 dabe 98e7 e33d e864 fe3d 4231 7c3f
00000300: 330e f03d 417c a23e 8527 36be 9e2e aa24
00000310: 1312 a43e 610d 05be 0d18 ddbe c577 9f3d
00000320: 34b1 09be 3592 983e a88e a2a4 7c05 04bf
00000330: 2c61 3abe 1736 0d3e 6666 f73e 666e 24bf
00000340: 8c32 ac3e b9d2 a63d e5f8 eabd 0400 4c3e
00000350: a5e7 cbbe 39cd 773e c55c 2fbe f882 103e
00000360: 49e0 c1a3 6228 dd3d bc3f 253e e160 a72d
00000370: 39a0 4023 9863 d2bd ec68 d031 a3b0 153e
00000380: ff0d 63bd d94e adbe 74ea 1bbf bdd3 49bf
00000390: be14 bebe 65ed 59bc f9f8 c8bd 682c 1a3e
000003a0: 6aac 8325 ca7f d03d 9e64 89bf 3ef9 64a3
000003b0: 5293 ecbe 6bd8 9dbf 3370 d4be 5fcd 07bf
000003c0: d682 0a3e 7387 1b3f 9210 c5bc d077 b83e
000003d0: 686d e2be 3c4d 6923 a5b4 10bd 2260 2dbd
000003e0: 35cb f2bd 4bf0 ea3d 699e 54be 70b9 b03e
000003f0: 1176 76a4 6ab2 e9bd 8c18 b73d 5e4c 063e

pred_model.0.weight f4 [10, 110]
0.46004194 -0.23346785 0.14765638 0.04226435 0.10700262 0.12567148 0.11146659 0.14796308
0.109075315 0.71339947 0.45446563 0.024561785 -0.19164671 7.933519e-17 -0.019279871 0.18473439
0.0029973877 0.1273694 -0.034001246 -0.6168091 0.025195861 0.49243128 -0.072206154 0.19252041
-0.9139214 -7.615638e-05 -0.0023106395 -0.04910825 0.017692797 -0.10264986 0.44601375 0.21281123
0.14625612 -1.1309437 0.5472018 0.09775748 -0.29798636 0.15521662 -0.87785417 0.2132725
0.09259934 -0.91411066 -0.39777052 0.0072094034 0.2903677 0.064591706 -0.71764904 0.08163808
0.0858181 1.6981089 -0.10732464 -0.04921439 -3.4351928e-18 0.15773292 0.07587438 0.12593511
0.50946254 -1.994256 -0.1392203 -0.039342318 -0.14411174 0.14930707 -0.019309344 0.08388957
0.24465136 0.12419536 -1.553644e-17 0.46491906 0.065968975 -1.3341806e-11 1.3983688e-17 0.12915109
-2.3964676e-11 0.2016186 0.10360476 0.24964134 -0.7823597 -0.27593547 -0.7817377 -0.012599498
-0.3557991 -0.008080029 4.9523824e-18 0.06363079 -2.066074 4.9177396e-17 0.2671358 -0.6507005
0.18418258 -0.03811434 0.09032161 -0.255869 0.08217331 -0.23141333 -0.24014857 6.4129352e-18
-0.05998483 0.29443002 -0.16860567 -0.61461985 -0.045274593 1.337949 0.008715253 -0.060224853
-0.13758583 0.1372216 -0.1312985 -1.0917022 0.119370684 -0.32995912 -0.7443283 0.27892172
0.09853445 0.045909975 -0.1921402 0.17443766 -0.10473396 -0.2211944 0.11914305 -0.58529395
-0.22518879 0.029765097 -0.15189043 0.0069734566 0.25245178 0.06060376 -0.15997584 0.09676449
-0.25925437 0.44112006 0.03454472 -0.32777804 0.032010056 -0.14827405 -0.01620493 0.22595596
-0.10520009 -0.12998793 -0.50947464 0.08352725 -0.2571904 0.1829047 -0.10284328 -0.809101
-0.12926231 -0.17397958 0.07331775 -0.06932403 0.5443187 0.06584696 -0.2754946 0.62103575
0.5167273 0.101175025 0.08673346 -0.06102734 0.6800788 0.19513515 -0.14578135 -1.313511
-0.42411917 -0.050465744 2.6154751e-12 0.33567855 -0.04255461 -0.14486174 -0.28961003 0.5205075
-0.2785401 0.050525226 0.21388781 0.21240336 0.308185 0.07301628 0.11887451 -0.069822855
-2.7862794e-16 -0.3770253 -0.03450598 -8.813036e-12 7.284635e-17 -0.113363534 0.0012219725 0.19709505
0.2939606 0.1725666 0.40004998 0.24273238 0.31428897 0.021801118 0.11225757 -0.16940293
-0.00017098473 -0.09319402 1.2842826 -0.00022954922 0.26154158 0.75889117 0.17255956 0.37822875
-0.12907997 -1.0736277 0.017948382 -0.08173309 0.29292402 -2.59024e-10 0.13665822 0.17316242
0.093782045 -0.3251629 0.35015061 -0.504502 -0.3085266 -0.12348111 -0.61109513 -0.12702523
0.31496817 0.5589535 -0.6680577 0.0012052126 -0.1608438 0.26719055 0.68185204 0.005762815
-0.07374532 0.06212842 -0.24108346 -0.13069722 0.20853716 0.025441963 0.38716957 0.08015338
-0.1411022 2.0631406e-17 0.38613713 0.60806656 -0.17814972 0.039980035 0.0071067987 0.5871292
0.32190666 1.2179033 0.5130088 -0.021019513 1.1110513 0.206424 0.09262673 -0.02417661
0.5884617 0.09021482 -0.047948226 -0.19661167 -0.21635643 0.6382679 -0.013148301 0.011680989
00000000: 9e8a eb3e 3212 6fbe 3c33 173e 621d 2d3d
00000010: 3124 db3d 06b0 003e 9848 e43d a283 173e
00000020: e162 df3d 59a1 363f b8af e83e cc35 c93c
00000030: 093f 44be 3bef b624 d2f0 9dbc 032b 3d3e
00000040: d26f 443b 206d 023e e444 0bbd 34e7 1dbf
00000050: 8d67 ce3c f41f fc3e d2e0 93bd 1224 453e
00000060: c1f6 69bf 25b6 9fb8 196e 17bb bb25 49bd
00000070: 7cf0 903c 173a d2bd ea5b e43e 30eb 593e
00000080: 2ac4 153e c3c2 90bf 6b15 0c3f 1335 c83d
00000090: ab91 98be 1bf1 1e3e 0dbb 60bf 1b64 5a3e
000000a0: b9a4 bd3d 2803 6abf 94a8 cbbe dc3c ec3b
000000b0: 13ab 943e a848 843d d9b7 37bf de31 a73d
000000c0: 66c1 af3d a25b d93f 05cd dbbd 0795 49bd
000000d0: f578 7da2 bd84 213e 0764 9b3d 22f5 003e
000000e0: 236c 023f c843 ffbf c48f 0ebe 6925 21bd
000000f0: 0792 13be f4e3 183e a12e 9ebc 4bce ab3d
00000100: e385 7a3e 235a fe3d 624c 8fa3 df09 ee3e
00000110: be1a 873d 27b6 6aad 0dfa 8023 2f40 043e
00000120: a7cb d2ad 1b75 4e3e bb2e d43d fba1 7f3e
00000130: ba48 48bf 6a47 8dbe f61f 48bf 206e 4ebc
00000140: 4d2b b6be 1962 04bc eeb5 b622 dc50 823d
00000150: 8e3a 04c0 6cca 6224 06c6 883e 4f94 26bf
00000160: 5c9a 3c3e c81d 1cbd 89fa b83d 4301 83be
00000170: 7b4a a83d 9ef7 6cbe 82e9 75be 7698 ec22
00000180: a7b2 75bd 88bf 963e f7a6 2cbe ba57 1dbf
00000190: da71 39bd ea41 ab3f 6cca 0e3c 56ae 76bd
000001a0: 4de3 0cbe d283 0c3e 1d73 06be e6bc 8bbf
000001b0: 9e78 f43d 67f0 a8be 4d8c 3ebf d4ce 8e3e
000001c0: 6ecc c93d 190c 3c3d 67c0 44be c99f 323e
000001d0: c27e d6bd c980 62be 4501 f43d d3d5 15bf
000001e0: e497 66be efd5 f33c 2a89 1bbe 9881 e43b
000001f0: 5c41 813e a63b 783d b5d0 23be 762c c63d
00000200: fdbc 84be 7dda e13e c47e 0d3d 86d2 a7be
00000210: fa1c 033d 27d5 17be 34c0 84bc 0061 673e
00000220: 2573 d7bd 8e1b 05be ee6c 02bf 5610 ab3d
00000230: 76ae 83be 5f4b 3b3e 7f9f d2bd 3e21 4fbf
00000240: 575d 04be b427 32be 9e27 963d c2f9 8dbd
00000250: 7858 0b3f c5da 863d a10d 8dbe 33fc 1e3f
00000260: 3e48 043f da34 cf3d 50a1 b13d cef7 79bd
00000270: a519 2e3f 82d1 473e b547 15be 2121 a8bf
00000280: 2626 d9be 2bb5 4ebd 360c 382c 0fde ab3e
00000290: be4d 2ebd a356 14be c447 94be fb3f 053f
000002a0: cf9c 8ebe 8af3 4e3d 6805 5b3e 4480 593e
000002b0: 6dca 9d3e 8f89 953d 7b74 f33d 49ff 8ebd
000002c0: 3a9e a0a5 7609 c1be 2456 0dbd 630a 1bad
000002d0: e5f8 a724 242b e8bd 982a a03a 49d3 493e
000002e0: 0182 963e 4cb5 303e 5ad3 cc3e d68e 783e
000002f0: 7cea a03e 4298 b23c 4ce7 e53d f677 2dbe
00000300: 5d4a 33b9 82dc bebd 5f63 a43f 26b3 70b9
00000310: c7e8 853e b146 423f 74b3 303e 33a7 c13e
00000320: 8a2d 04be a26c 89bf 7c08 933c ae63 a7bd
00000330: 23fa 953e 6366 8eaf 22f0 0b3e 7d51 313e
00000340: cd10 c03d c07b a6be f146 b33e 0b27 01bf
00000350: 33f7 9dbe aae3 fcbd bb70 1cbf e712 02be
00000360: 8243 a13e 9417 0f3f d405 2bbf 39f8 9d3a
00000370: 3db4 24be 33cd 883e db8d 2e3f ffd5 bc3b
00000380: c907 97bd 5f7a 7e3d 95de 76be 7ed5 05be
00000390: c48a 553e aa6b d03c 173b c63e 7527 a43d
000003a0: 187d 10be 884a be23 c4b3 c53e 40aa 1b3f
000003b0: e16c 36be 1bc2 233d 26e0 e83b 194e 163f
000003c0: f3d0 a43e 41e4 9b3f 8b54 033f 1d31 acbc
000003d0: ee36 8e3f d060 533e 15b3 bd3d 070e c6bc
000003e0: 6da5 163f 8cc2 b83d 5c65 44bd 9254 49be
000003f0: 8a8c 5dbe 8665 233f f96b 57bc 9e61 3f3c

pred_model.0.bias f4 [10]
0.04453651 0.022482224 -0.057873715 0.2681418 -0.08052848 0.047676876 0.12983952 0.11494801
-0.04289842 0.051641837
00000000: ea6b 363d a42c b83c fd0c 6dbd e249 893e
00000010: 1eec a4bd d448 433d a7f4 043e dd69 eb3d
00000020: 41b6 2fbd 6486 533d

pred_model.2.weight f4 [10, 10]
-0.39340332 0.07474884 -0.39435253 0.39701796 2.471815e-06 0.07107175 0.15829879 0.34787023
-1.7345569 0.34202135 -0.18240066 0.23625678 -0.55215335 0.32630488 0.004536367 0.41904846
-0.13230595 0.4622546 -1.217036 0.07561917 0.6033592 -0.6600946 0.91702366 0.21011281
-4.8090633e-06 -0.41077566 0.47911838 -0.7862004 1.0707875 -0.33236405 5.8292373e-18 -1.0339518e-08
-1.3831911e-17 -2.6880988e-07 5.628697e-17 -2.8008792e-17 1.4207097e-17 -1.553829e-07 -2.5806229e-17 -8.844493e-18
2.3312602e-16 1.0797886e-16 3.957148e-17 -0.23195781 -2.0587836e-17 5.7840326e-17 2.0364944e-16 -0.018142084
-7.119258e-17 -6.090846e-17 -0.37858328 0.09570684 0.7657578 0.1366987 -0.00010553861 0.15664005
-0.16148892 -0.046634123 1.1216432 0.28767043 -0.33320895 0.39189813 -0.48963368 0.3249402
0.020949693 0.40063617 -0.0010918849 0.6371968 -1.2472407 0.4152747 -0.42922533 0.020109216
0.738118 0.16623093 -0.00043107863 0.22144854 -0.187269 -0.0357203 1.0831155 0.24115203
5.4737357e-17 -0.097203925 -1.427711e-17 -0.09049307 2.8448065e-17 1.22080915e-17 -3.95129e-17 0.10686408
-3.1482097e-17 -6.942152e-17 0.8242106 -0.55357367 1.3522192 -0.36342677 -2.1704908e-17 -0.3631
0.46336555 -0.10522748 1.5633601 -0.45164913
00000000: 296c c9be eb15 993d 93e8 c9be f045 cb3e
00000010: 75e1 2536 118e 913d 1419 223e 0c1c b23e
00000020: f605 debf 6c1d af3e 3dc7 3abe 4ced 713e
00000030: ec59 0dbf 6f11 a73e cea5 943b 858d d63e
00000040: 367b 07be a3ac ec3e d6c7 9bbf 39de 9a3d
00000050: c075 1a3f f6fb 28bf 10c2 6a3f d027 573e
00000060: 8a5d a1b6 3051 d2be 014f f53e 6e44 49bf
00000070: 910f 893f 9f2b aabe 970f d722 aea1 31b2
00000080: 5a27 7fa3 f350 90b4 f6c9 8124 f22a 01a4
00000090: 8f09 8323 54d7 26b4 3c05 eea3 f026 23a3
000000a0: 5463 8625 78fb f824 c27d 3624 5986 6dbe
000000b0: a7e3 bda3 e75e 8524 b5ca 6a25 b59e 94bc
000000c0: af28 a4a4 0272 8ca4 abd5 c1be f301 c43d
000000d0: b408 443f befa 0b3e 9c54 ddb8 4066 203e
000000e0: 5a5d 25be 6c03 3fbd 0192 8f3f 8a49 933e
000000f0: 5d9a aabe dfa6 c83e 44b1 fabe 905e a63e
00000100: b19e ab3c 2f20 cd3e 941d 8fba 541f 233f
00000110: 95a5 9fbf e39e d43e 6cc3 dbbe 15bc a43c
00000120: 4df5 3c3f 7138 2a3e 6502 e2b9 68c3 623e
00000130: 72c3 3fbe 734f 12bd 87a3 8a3f 8ff0 763e
00000140: 776e 7c24 da12 c7bd dfae 83a3 6e54 b9bd
00000150: 8c31 0324 1533 6123 9938 36a4 8edb da3d
00000160: 802f 11a4 3b13 a0a4 77ff 523f 01b7 0dbf
00000170: 8515 ad3f 1313 babe 4431 c8a3 3ee8 b9be
00000180: 403e ed3e 8181 d7bd 2f1c c83f 8e3e e7be

pred_model.2.bias f4 [10]
-0.043781433 0.12682854 0.3602728 1.9827055e-10 -0.026799908 -0.04862444 0.09686428 -0.047541987
-0.056024555 0.07240201
00000000: 2954 33bd 57df 013e ad75 b83e 3300 5a2f
00000010: 7b8b dbbc 6c2a 47bd c860 c63d 63bb 42bd
00000020: 017a 65bd 8147 943d

pred_model.4.weight f4 [2, 10]
0.34445235 0.6134537 -0.8585967 -7.765132e-17 -0.006955988 -0.39627972 0.52222097 -0.52718186
-8.8032955e-08 -1.0904869 -0.36726525 -0.3621359 0.58378 7.475661e-18 -0.023678634 0.4113865
-0.5658907 0.34234256 -9.735389e-09 0.94197357
00000000: 0f5c b03e 4d0b 1d3f fecc 5bbf 400d b3a4
00000010: 0eef e3bb 2de5 cabe 46b0 053f 64f5 06bf
00000020: a10c bdb3 1395 8bbf 310a bcbe e069 b9be
00000030: 9b72 153f d0e6 0923 b2f9 c1bc 40a1 d23e
00000040: 37de 10bf 8647 af3e b240 27b2 2e25 713f

pred_model.4.bias f4 [2]
0.010696012 0.15407522
00000000: 533e 2f3c e5c5 1d3e
