params/nci1_net.pt (torch, 28865 bytes, 12 tensors)

conv_first.bias f4 [50]
000000 0d 90 46 bc 98 5e b1 bc a8 14 8b bc 46 7e dd 3d
       -0.012119305 -0.021651551 -0.016977623 0.108151
000010 e4 8f e0 bc f7 31 d3 3d da 51 dc 3c e7 e5 17 3e
       -0.027412362 0.103122644 0.026894499 0.14833795
000020 89 5b 09 bd e3 68 90 3d 66 11 93 3c 1c 44 92 bd
       -0.03353456 0.070512556 0.017952632 -0.07141897
000030 c7 e2 96 bd f2 b3 e1 bd 0f 7f 0c bd ab ed b4 3e
       -0.07367473 -0.1102065 -0.03430086 0.35337576
000040 5c 7f 48 3d cb 5d 1e bc 2e 7a aa 3d 13 5b 72 3d
       0.048949584 -0.009665917 0.08324085 0.059168886
000050 8a 1c a0 be ec 82 0b 3e 27 b3 b8 3e 61 a6 a6 3d
       -0.31271774 0.13624161 0.36074182 0.08137203
000060 8c 83 e6 bd bf 0e 8d 3e 8c 59 fc be c0 7b b0 bd
       -0.11255559 0.27550313 -0.4928707 -0.086173534
000070 85 54 f2 3d 7c 24 a9 bb f0 44 4f 3d 33 0d 12 be
       0.11832527 -0.00516182 0.050602853 -0.14262848
000080 bb 70 7e bd df 1d a1 be de 59 15 3e d6 b7 b4 3d
       -0.062119227 -0.31468102 0.14585063 0.088241264
000090 cd 5e 0b 3e f9 84 c2 bd cd fa 4b be 05 27 65 be
       0.13610382 -0.09498019 -0.19919892 -0.22378166
0000a0 5e ac e2 3c 1f 01 3e 3e 51 c4 e2 3c 57 d7 12 be
       0.027670082 0.18555115 0.027681502 -0.14339958
0000b0 5f 89 34 3e 17 c0 bb be 7c f6 cd ba 19 8a 5b be
       0.17630528 -0.3666999 -0.0015713717 -0.21439399
0000c0 34 25 2d 3e 7a 31 cc bd
       0.16908723 -0.099703744

conv_first.lin.weight f4 [50, 37]
000000 66 74 88 3e ef 1b 09 3e e6 ec 81 bd 69 56 c7 bf
       0.26651305 0.13389562 -0.06344013 -1.5573245
000010 02 e5 1a bf 27 dd 7a bf 9d 3d 04 be 7b 53 a1 bd
       -0.6050569 -0.979937 -0.12914129 -0.07877251
000020 d8 1f 7c 3f 12 00 2c 3e fc 71 88 3d 01 f4 96 3f
       0.9848609 0.16796902 0.06662366 1.1793214
000030 ef 01 b2 27 bd f0 36 bc b7 80 e3 b8 f0 9f 0d b4
       4.940702e-15 -0.011165795 -0.000108481785 -1.3189833e-07
000040 f8 b1 22 be d2 de a0 28 36 66 c8 3c 07 1b 2e 35
       -0.15888202 1.7860201e-14 0.0244628 6.485938e-07
000050 86 4c a0 bd 66 93 b7 bd f7 5d 03 80 91 f6 ef 28
       -0.07827096 -0.08963661 -3.09215e-40 2.6641261e-14
000060 2b f8 df 3e 8f 28 70 3f e8 39 7c 3e d2 8d 07 3d
       0.43744025 0.9381189 0.24631464 0.033094235
000070 18 b8 24 3f 05 86 3f 27 f9 0c 0e 3e 96 ed 09 2a
       0.64343405 2.6579227e-15 0.13872136 1.2250474e-13
000080 18 3b 06 00 39 da 1d 3e 50 86 cd 3c df 08 7f 2b
       5.72212e-40 0.15415277 0.02508846 9.060651e-13
000090 9a 40 6c 3e 6e c6 1b bf 53 47 05 bf 1c 65 68 3e
       0.23071519 -0.60849655 -0.5206196 0.2269482
0000a0 ea e4 83 bd 36 ed 97 be 80 d1 1d 3e d1 bf a7 3e
       -0.06440146 -0.29673165 0.15411949 0.32763532
0000b0 57 1f de b6 30 34 51 3e e1 78 43 39 53 d2 0f 80
       -6.619764e-06 0.20430064 0.0001864168 -1.452983e-39
0000c0 11 2f 48 ad 78 c6 00 80 0f c2 d4 3e 6d 97 9e 3e
       -1.1379135e-11 -7.1197e-41 0.41554305 0.30974904
0000d0 ea 8f 00 80 2c 99 18 3f 94 45 1a 17 9e 38 41 3d
       -5.1627e-41 0.5960872 4.9847904e-25 0.047173135
0000e0 d3 9b d2 3e c2 81 7c 3f 76 b5 a8 3f 08 7c 4a b1
       0.4113451 0.98635495 1.3180377 -2.9465372e-09
0000f0 85 2b 00 80 ea 12 e6 3e b2 d6 31 3f 37 79 c6 3d
       -1.5612e-41 0.44936305 0.69468224 0.09691089
000100 12 4d 07 3d 57 bd 56 3c bd b0 8e 3d 31 16 2a 3e
       0.033032484 0.013106666 0.06967304 0.16610028
000110 2a dd c0 3d 61 94 01 00 c7 5c 05 3e 54 5d c6 3d
       0.09417184 1.45064e-40 0.13023673 0.0968577
000120 fa 34 4b 3e d5 d9 02 00 6f b1 b0 3a 90 9e 34 3f
       0.19844428 2.61814e-40 0.0013480614 0.7055445
000130 0c 0e 53 3d 94 9f a2 bf d3 be 99 bd c9 6e f0 3f
       0.051527068 -1.2704949 -0.075071 1.8783809
000140 6a ab 3e be 05 a9 00 bd 1d 48 e0 3e 77 14 1c 3e
       -0.18620077 -0.03141119 0.43805018 0.15242182
000150 70 02 b5 a7 d6 87 6d 3f c6 d7 60 a7 5f 79 08 bf
       -5.0240235e-15 0.92785394 -3.1203216e-15 -0.533102
000160 18 7c 39 3a fd c7 b1 23 76 51 2f be bf 50 63 a6
       0.00070756814 1.9275077e-17 -0.17120919 -7.8865877e-16
000170 d9 86 d4 bc 66 1a c3 bd c7 2e cd bd 80 a1 3d be
       -0.025943207 -0.095265195 -0.10018688 -0.18518639
000180 52 95 02 00 ad 70 9e a6 e3 3b 6a 3e 70 75 08 3f
       2.37237e-40 -1.0993993e-15 0.22874407 0.53304195
000190 ef 00 1d 3f 0d 19 f6 a7 26 b9 82 3e f6 08 25 bd
       0.6132955 -6.8305876e-15 0.25531882 -0.04029175
0001a0 e2 32 19 a9 14 71 ab 29 f0 40 01 00 36 f4 70 2a
       -3.401696e-14 7.6135414e-14 1.1513e-40 2.140101e-13
0001b0 c9 63 6d a8 f0 62 88 a8 74 95 aa 3d e8 29 c0 bd
       -1.317778e-14 -1.514194e-14 0.08329287 -0.09382993
0001c0 53 2d e4 bd 85 6e e8 bd 3c 29 28 3e 7b e3 9e be
       -0.111414574 -0.11349205 0.1642198 -0.3103293
0001d0 16 d0 0e bf 0a b5 de bd c1 58 a0 3e e8 2b 17 be
       -0.55786264 -0.10874374 0.31317714 -0.14762843
0001e0 f1 19 60 bc 57 a7 61 bd 27 6c 00 be 5f a8 0d 39
       -0.01367806 -0.05509123 -0.12541257 0.00013509531
0001f0 61 f9 2b be 73 d2 3e 3d 76 58 e2 bb f4 0e ee 3d
       -0.16794349 0.04658742 -0.006907518 0.11623946
000200 79 7f 1e bd 58 f5 67 bd 25 65 d8 bd a0 03 36 be
       -0.038695786 -0.056630462 -0.10566167 -0.1777482
000210 73 a5 4d bd bb 84 00 00 df 90 43 3a b2 1b b6 bd
       -0.050206613 4.7615e-41 0.0007460247 -0.08892001
000220 19 e2 4d be 6a 3e 4c bd cf 1b 02 bc 9d e1 3a 3e
       -0.2010578 -0.04986421 -0.0079412 0.18250127
000230 b6 a3 df 3d a2 41 5c 3d b6 b9 47 3c ac f5 02 00
       0.10919897 0.05377353 0.012190273 2.71801e-40
000240 59 39 3a 3d 02 d2 1c 3c e1 53 3b 3d a9 0b 27 3c
       0.045464847 0.009571554 0.04573429 0.010195651
000250 b4 de 80 bf 59 ec 70 bf 37 89 f4 3e dd 15 ed bf
       -1.0067964 -0.9411064 0.47760937 -1.8522297
000260 19 34 71 be 5e a4 bd bf b2 29 6d 3f 85 f0 a3 3e
       -0.2355503 -1.4815786 0.92641747 0.3201944
000270 02 4b 10 bf 32 cc 00 00 8f 9b 01 00 4b 53 01 00
       -0.5636445 7.3251e-41 1.4764e-40 1.21715e-40
000280 b8 85 03 80 6e fb 2d 3f 43 2d 00 00 d0 0c 02 80
       -3.23476e-40 0.67961776 1.6237e-41 -1.88267e-40
000290 2d 77 2c 3e 0b b0 00 00 c2 62 d4 bd 1b 2e 30 be
       0.16842337 6.3152e-41 -0.10370399 -0.17205088
0002a0 a1 69 13 bf 55 37 0a bd 50 32 03 80 78 a7 03 00
       -0.5758305 -0.033744175 -2.93555e-40 3.35583e-40
0002b0 6d 45 59 bf e7 a1 76 bf f9 e7 ab 3e c8 66 00 80
       -0.8487156 -0.96340793 0.3357542 -3.6871e-41
0002c0 64 83 9a be 75 e3 1a be 4e 63 02 80 8a 32 03 00
       -0.30178368 -0.1512583 -2.19295e-40 2.93636e-40
0002d0 14 3d 0a 34 f4 72 01 80 c1 d0 04 80 16 1b 03 80
       1.2874472e-07 -1.33073e-40 -4.42229e-40 -2.85223e-40
0002e0 3c d9 02 00 13 34 f4 3e 23 f6 b2 3e a1 07 a8 be
       2.616e-40 0.4769598 0.34953412 -0.3281832
0002f0 af b6 99 3e 45 dc 78 3e 2c d5 59 be e0 be 30 be
       0.3002219 0.24302776 -0.21272725 -0.17260313
000300 c4 10 35 3f 88 ed 60 3f c5 18 f7 bd cc 11 08 bd
       0.7072871 0.87862444 -0.12065271 -0.033220097
000310 66 3f 59 be df b6 3b bd c5 cd 96 3f 25 f3 aa 3e
       -0.21215591 -0.045828696 1.1781546 0.3338863
000320 04 5c 7f bd 3b 6a 54 bf 95 ce 42 bd 44 2f 08 bd
       -0.062343612 -0.82974595 -0.047560293 -0.0332482
000330 45 e9 01 00 9b d8 aa be d3 8d 6f 3f 99 42 0b 00
       1.75517e-40 -0.33368382 0.9357578 1.034081e-39
000340 3b a5 29 bd 3c 2b 00 80 24 aa 9c be 70 8f bc be
       -0.04141734 -1.551e-41 -0.30598557 -0.36828184
000350 f5 d0 d1 3c 85 e0 cf 3e 8e 4d f3 2c ee 3a 8a 3e
       0.025612334 0.40600982 6.9150857e-12 0.26998085
000360 34 7a d1 3d cf 35 01 80 06 93 1e 3e c3 19 bc 3d
       0.102283865 -1.11138e-40 0.15485772 0.09184601
000370 e1 e4 b3 3e 51 8d 24 3d ed 37 0c 3f 5c a1 c1 3e
       0.35135558 0.040173832 0.54772836 0.3781842
000380 53 4d 7f be c2 e2 0b 3f e4 d8 97 3e 48 da 90 3f
       -0.2493184 0.5464288 0.29657662 1.1316614
000390 b2 3c 2c bf 7a 0a 08 bd d8 4e 2b 3f d4 3a 05 bf
       -0.67280114 -0.033213116 0.6691718 -0.5204289
0003a0 d0 6e fa bc 1d ec 8f be d6 f2 c5 bc b3 3e f9 3e
       -0.030570418 -0.28109828 -0.024163645 0.48680648
0003b0 b1 bf 97 3e 1d dc d9 bc c8 46 85 3f 8c 3c 09 be
       0.29638436 -0.026594216 1.0412226 -0.13402003
0003c0 60 fb c2 bd 1d a0 03 00 44 c5 a3 3e d1 7c b3 3f
       -0.09520602 3.32944e-40 0.3198644 1.4022466
0003d0 0a 6c 03 00 06 3e eb bc d3 c9 05 80 85 a7 e9 be
       3.14264e-40 -0.028716099 -5.31578e-40 -0.4563562
0003e0 ed 67 a0 be 18 43 83 3d 14 e4 e8 3e 68 3e 6b 39
       -0.3132929 0.064092815 0.4548651 0.00022434595
0003f0 49 e8 7c 3e 4c 95 00 3e 73 c8 68 35 21 3e 52 3e
       0.24697985 0.12556952 8.6718427e-07 0.20531513

conv_block.0.bias f4 [50]
000000 10 8c 96 be 6b f6 67 3d 7e 90 70 3e a4 f1 cb 3d
       -0.29403734 0.056631487 0.2349262 0.09958199
000010 2c ec fc bb 86 aa 52 be c5 af 1b bf 00 3c 69 be
       -0.0077185836 -0.20572862 -0.6081508 -0.22776794
000020 68 e3 ae bd a5 8a 20 a9 21 3c 7d 3d 6d 7b 7a 3d
       -0.08539468 -3.5647392e-14 0.06182492 0.061152864
000030 fe a4 f2 3d 96 9d c6 bd ec 7c 4f 3d e5 53 37 be
       0.11847876 -0.09698026 0.050656244 -0.17903097
000040 57 3a 82 be 1a 48 7f 3e 2b 23 a3 a3 45 1f c4 be
       -0.25435135 0.24929848 -1.768739e-17 -0.38305107
000050 e1 3e e8 bc 25 b7 ec a4 14 29 fa bd e0 8a 40 be
       -0.028350295 -1.02658944e-16 -0.12214866 -0.18802977
000060 3a 17 89 3d 1f d5 08 3e 9a ad 47 bd 11 07 d8 3d
       0.06693883 0.13362549 -0.048749544 0.10548223
000070 2f d6 07 b1 f1 2a b5 3d 31 b2 6d 3d 2c a1 3a b7
       -1.9766835e-09 0.08846081 0.058031265 -1.112399e-05
000080 dc 8c 57 96 5b 20 25 bd 03 f5 93 be 0a de 5d 99
       -1.7412009e-25 -0.04031406 -0.28897867 -1.1470273e-23
000090 2e 2c d4 3e 6d 6f aa be f3 12 e1 b6 15 6f 05 3e
       0.41439956 -0.33288136 -6.7077285e-06 0.13030656
0000a0 ab 8f ba 3d 8c 81 23 bd 4a 00 84 bd 55 96 71 3e
       0.09109434 -0.039918467 -0.06445368 0.23592503
0000b0 0a ea 76 be d2 42 f6 ad 6f 3a c3 be ad 35 b7 bd
       -0.24112716 -2.7996636e-11 -0.3813052 -0.08945785
0000c0 97 df 92 be cd 0a 13 3e
       -0.2868621 0.14359589

conv_block.0.lin.weight f4 [50, 50]
000000 fd 39 42 3c 3c bf 08 be cf 00 ef bd 51 c8 eb bb
       0.011854646 -0.133542 -0.11670076 -0.0071955104
000010 1f 75 62 be 23 d3 98 bd 19 ae 8d bd 98 28 24 3b
       -0.2211499 -0.07462146 -0.06917972 0.002504861
000020 83 cb 6e 3b d8 4d 24 bd 12 1e 71 be 77 55 18 be
       0.003643722 -0.0401133 -0.23546627 -0.14876352
000030 95 71 e3 bd dd 48 3c 3c 79 c6 ab bd 1a e3 37 3c
       -0.111056484 0.011491981 -0.08387465 0.011223579
000040 13 a0 ac bd 52 65 35 be ca de 53 3c 62 b0 65 bd
       -0.08428969 -0.17714432 0.012931535 -0.056076415
000050 7b 1f 10 3b 95 ce 82 bc 68 08 bf bc e1 84 57 3c
       0.002199142 -0.015967647 -0.023319438 0.013154239
000060 dc b8 1a 3c 83 15 21 3c f6 3b fe bd b5 45 82 bc
       0.009443488 0.009831789 -0.124137804 -0.01590238
000070 55 08 74 bc 24 a4 42 be c8 54 df bc 3f 8a c0 3b
       -0.014894565 -0.19007927 -0.027262107 0.005875855
000080 d4 e1 6c 3a 18 59 75 39 07 e9 86 bd fe d1 49 be
       0.00090363366 0.00023398211 -0.06587415 -0.19709012
000090 22 b1 56 3c e7 37 1b be 9d 16 39 be b4 1f 3c 3c
       0.013103755 -0.15158044 -0.18075033 0.011482168
0000a0 1a bd eb b9 cb 7c 58 3c cc 28 ec bb 1f ba 00 80
       -0.00044963585 0.013213347 -0.007207012 -6.6768e-41
0000b0 8c 5b 35 be e8 99 ad bb d0 ae 02 80 9f a1 21 be
       -0.17710704 -0.005297888 -2.46382e-40 -0.1578431
0000c0 97 37 65 be c4 c9 15 be 42 f6 52 bc fa 62 ae 3d
       -0.22384487 -0.14627749 -0.012876095 0.08514972
0000d0 1c e6 0f 3e 87 27 21 3e b6 12 18 be 63 a8 53 be
       0.14052624 0.15737735 -0.14850888 -0.20669703
0000e0 ce 07 a1 be 6a b1 0a bf f6 b1 0b bf 38 73 27 be
       -0.31451267 -0.5417696 -0.5456842 -0.16352546
0000f0 e5 6f 00 be 5c 34 af be 3c 9c 1b 3e 44 ca 8c bf
       -0.12542684 -0.34219635 0.15196317 -1.0999227
000100 bc 56 b7 bd e2 39 8c 3f 64 73 01 be ba 99 bd 3e
       -0.0895209 1.0955164 -0.12641674 0.37031347
000110 a4 e1 aa 3c 2d b5 8e be 64 87 0a c0 2c aa 6b 3f
       0.020859547 -0.278726 -2.1645136 0.92056537
000120 69 37 53 3f 59 4e b7 3e dd 97 9f bd 72 4a 51 3f
       0.82506424 0.35801962 -0.077926375 0.8175422
000130 51 af 1a 3d 2e be 78 3e a9 ee f4 3c 36 f5 08 bf
       0.03776485 0.24291298 0.029898958 -0.5349916
000140 f9 36 04 be 02 94 82 bf f4 4c d1 3d 1b 22 4a be
       -0.12911595 -1.0201418 0.10219756 -0.19739573
000150 65 44 ba 3c 7e 70 22 bf 3d 16 cd 3d a4 30 9e 3d
       0.022737691 -0.634529 0.10014007 0.07724121
000160 f1 a4 1e be 68 a4 81 be ef 03 28 c0 6c 2a 68 3f
       -0.15492608 -0.25320745 -2.62524 0.9068973
000170 6e 84 0b bf c1 c7 0b 9f ae fe 09 3f 71 0a 93 3b
       -0.54498947 -2.9599627e-20 0.53904235 0.0044873287
000180 6b a8 20 8d 6f c3 88 bd c1 da f9 3e 36 66 a2 be
       -4.950653e-31 -0.06677901 0.48799708 -0.31718606
000190 b5 d1 5b 3e 05 ab 21 bf a8 c7 d4 3d 79 88 2e 3e
       0.21466716 -0.6315158 0.10389644 0.17044248
0001a0 54 6d c1 bd b1 2c 5c bf 2c 32 66 bf 13 4d b8 bf
       -0.09444681 -0.86005694 -0.89920306 -1.4398521
0001b0 dd c5 aa bf 1e 02 b1 bd 2e 97 99 3e cd b5 13 bf
       -1.3341633 -0.08642982 0.29998153 -0.5769928
0001c0 39 49 90 bd fc 51 a7 be 4a d7 d1 3d e5 bf b1 3f
       -0.07045216 -0.32679737 0.10246141 1.3886687
0001d0 59 3d 17 bf 5c dd a6 bb 65 8c 11 3e 29 48 80 bf
       -0.59077984 -0.005092306 0.14213713 -1.0022022
0001e0 b0 10 de 3f 16 b7 9e be fa dd 65 be 3e 4e cc bf
       1.7348843 -0.30999058 -0.22447959 -1.5961378
0001f0 91 9c 85 3f f3 d6 6f 3f 8a a4 08 3e dc c8 63 3d
       1.0438405 0.9368736 0.13344017 0.055611476
000200 e5 c2 0a be 2e 7f 62 bd 22 af c9 be 58 41 ed 3e
       -0.13550909 -0.05529707 -0.39391428 0.46338916
000210 7d e6 28 3f 89 74 8f 3e 70 ad ca bf 57 bc c0 be
       0.659767 0.28018597 -1.5834179 -0.37643692
000220 ed f4 22 3e 6f 2d 09 bf b3 e2 43 3e f3 e0 fc bf
       0.15913744 -0.5358495 0.19129448 -1.9756149
000230 8e c8 48 bf a8 73 f0 be e4 8a 49 3f a8 4a a8 9e
       -0.7843102 -0.4696324 0.78727555 -1.7818569e-20
000240 9f 59 dc 3e f3 33 c6 3e a9 56 d0 0d 5b 72 f8 3d
       0.43037125 0.3871151 1.2839852e-30 0.121311866
000250 28 a1 38 3e c1 c4 c1 be 89 09 cd 3d 7c a2 96 3e
       0.18030226 -0.37845424 0.10011584 0.2942084
000260 1a 29 a8 3e 2a 51 af bb 7b c6 4b bf f8 e6 a8 3e
       0.32843858 -0.0053502517 -0.7959973 0.32988715
000270 01 a9 2c 3e a3 ce c3 3e 93 85 d9 3d 55 a5 7d 3e
       0.16861345 0.3824359 0.106211804 0.247701
000280 0a 52 0e 3e df 2f 1e bd 30 9f 01 be fc da 47 3e
       0.13898483 -0.038619872 -0.12658381 0.1951713
000290 29 63 dc 3d 77 df 83 bf 15 02 73 3e e5 85 a9 bb
       0.10761101 -1.0302571 0.23731263 -0.005173432
0002a0 ae f3 a7 3e 6f 03 b5 3b 46 0e 67 3e 64 31 20 bf
       0.328031 0.005524091 0.22564039 -0.62575364
0002b0 80 78 03 3e 5d 65 8c be 86 bb 82 3c dc 70 4a bf
       0.12838936 -0.27421084 0.015958559 -0.7907846
0002c0 3c cb cf bc 2c 4e 14 3e f7 2a 90 3e 2a c4 30 bf
       -0.025365464 0.14482945 0.2815778 -0.6904932
0002d0 06 b0 74 3e 07 11 b6 3d 1a 2e 86 3d 3d c8 f9 3d
       0.23895273 0.088899665 0.06551762 0.121963955
0002e0 50 6a dc 3d 96 25 9b 3e 47 52 94 3e dc 25 ea 3d
       0.10762465 0.30302113 0.28969023 0.11433002
0002f0 8c 9a 8c 3e 19 e5 9d bd 1f 94 14 3d c3 eb 1f 3f
       0.2746166 -0.077097125 0.03627407 0.6246912
000300 8d ef ad 3e 24 b0 39 20 39 c1 dc 3d b1 ec 1d be
       0.33971825 1.572839e-19 0.10779042 -0.15422322
000310 de 15 db 8c b4 bb fc be 39 93 16 3e 91 44 c8 3d
       -3.3755453e-31 -0.49361956 0.14704598 0.09778703
000320 67 56 02 3e 38 d5 92 be a0 64 38 3d 5a 08 1f 3e
       0.12728272 -0.28678298 0.04501784 0.1553053
000330 b3 79 ce bd 76 b0 8f 3e 0c b1 17 be d1 af 37 be
       -0.10081806 0.28064317 -0.14813632 -0.17938162
000340 12 9c 44 be 41 22 99 be d1 e7 49 bd 4c 4e 86 3d
       -0.19200161 -0.29908946 -0.049293343 0.06557903
000350 0a 81 d5 bd db d0 20 bf 3f 73 88 bd 79 2f 93 3f
       -0.10425003 -0.6281869 -0.066626064 1.1498863
000360 5a eb 06 be 7b e8 0a 3e e9 95 a3 3e 44 c7 0a 3c
       -0.13175717 0.13565247 0.3195031 0.00847036
000370 10 b5 ab be 56 66 18 3d e4 27 fe 3d ce 3b 85 bd
       -0.33536577 0.03720697 0.12409952 -0.065055475
000380 ea 8e 9e 3c 19 51 40 3f 1f f8 3c 3e f4 48 0c 3e
       0.019355256 0.75123745 0.18454026 0.13699704
000390 97 e0 9e 3d e6 78 18 3d 8e be 7f be 7a a3 fe be
       0.07757681 0.037224673 -0.24975035 -0.49734098
0003a0 fc 8b fb 3d ca 39 76 3c 73 d3 ee bd 12 29 bb 3c
       0.12282559 0.015028426 -0.116614245 0.022846732
0003b0 92 bc eb bd 9c d4 fc bd 77 ca 89 3d 3a 41 81 3e
       -0.11510576 -0.123452395 0.0672807 0.25245076
0003c0 30 a0 ff bf ed 27 78 3c ac 09 78 bf 1b eb cf 9c
       -1.997076 0.015146238 -0.9688976 -1.3758884e-21
0003d0 0e cd 04 3f f0 ca 74 3d cf 4f 25 0c 3b 99 c5 bd
       0.5187539 0.05976385 1.2735154e-31 -0.09648367
0003e0 ea e4 7f 3d f6 9a 57 bc 21 57 92 be 44 03 98 3e
       0.06247417 -0.013159504 -0.285821 0.2968999
0003f0 3b d7 83 be 81 e0 d7 3d 9b 8f bb 3e 74 10 19 bf
       -0.25750145 0.105408676 0.36633 -0.5979073

conv_last.bias f4 [10]
000000 e3 21 68 bd c9 5a 86 bc 21 ae ba 3d 7f 4d ca bd
       -0.056672942 -0.016400712 0.09115244 -0.098780625
000010 e3 ac af bd b8 0b 14 3d 70 9f 58 3c 8a 37 96 be
       -0.085778974 0.03614399 0.013221607 -0.29339248
000020 68 d9 15 be ce 57 fd bc
       -0.14633715 -0.030925658

conv_last.lin.weight f4 [10, 50]
000000 31 b7 88 be f2 d9 d5 be 4c 9d f6 3e 40 93 20 bd
       -0.26702264 -0.41767842 0.48166883 -0.03920293
000010 87 87 2e bd 02 29 84 bd 36 e7 61 be 56 48 6f bd
       -0.042609718 -0.06453134 -0.22060856 -0.058418594
000020 38 3f cd aa 20 8d 00 00 f9 63 66 3e c5 2f 37 3e
       -3.6459182e-13 5.0626e-41 0.22499074 0.17889316
000030 d2 ec d5 3e 4d 4e d8 32 7d c0 48 be 3f 8c ce 3e
       0.41782242 2.5181317e-08 -0.19604678 0.40341374
000040 15 4d 51 3d 37 5e 38 bf 93 c0 00 80 1e ef cb bf
       0.0510989 -0.7201876 -6.9083e-41 -1.5932348
000050 99 88 3c bd 95 54 00 80 8f a1 f9 bf ef 86 f9 be
       -0.046028707 -3.0342e-41 -1.9502429 -0.4873576
000060 47 20 2b bc ea b2 14 bd e7 5c f3 3e c8 9c 5c 3e
       -0.010444707 -0.03630344 0.47531816 0.21544182
000070 ed ba 1f 80 5d 0d a9 be 69 f5 fc 3c 9b 4d a3 1a
       -2.913957e-39 -0.33018008 0.03087874 6.75406e-23
000080 95 c5 02 80 2f ca a1 be 5d d9 00 38 21 7a 00 00
       -2.5455e-40 -0.31599566 3.0720013e-05 4.3812e-41
000090 a2 81 01 3f 5b 7a 88 be 32 8d 17 82 a5 d5 75 3f
       0.5058843 -0.2665585 -1.1134249e-37 0.9602912
0000a0 9c 51 55 bd 2b 46 3f bd e5 39 22 a6 90 52 89 bf
       -0.052079782 -0.046697777 -5.62835e-16 -1.0728321
0000b0 b0 dd f4 3e 94 5e 01 00 1b 60 69 bf 9e 0a eb be
       0.47825384 1.25764e-40 -0.9116227 -0.45906538
0000c0 15 79 90 3e fd eb ce 3d cd f0 46 be 0e d0 18 bf
       0.28217378 0.10103605 -0.19427796 -0.59692466
0000d0 fd 11 e7 bd 9d 89 03 3f 31 c8 88 be 26 47 f5 3d
       -0.11282728 0.51381856 -0.26715234 0.11976461
0000e0 0d d3 d5 bf 28 9b d4 3e 85 ec 30 ac 89 32 00 00
       -1.6705033 0.41524625 -2.51424e-12 1.8129e-41
0000f0 f1 29 93 3e 19 91 37 3e 22 33 88 3e 7e 47 d6 31
       0.28742936 0.17926444 0.2660151 6.2363474e-09
000100 1a 87 94 3c b4 1d a4 3e d0 02 03 3e 17 fa 31 bf
       0.018130828 0.32053912 0.12794042 -0.6952223
000110 37 2f 00 00 a8 76 5f bf 6b 7a f6 3e bd de c3 84
       1.6937e-41 -0.8729043 0.48140272 -4.6048832e-36
000120 09 92 c9 bf 98 e2 1d bf 8f bf ce bb e5 92 4c bd
       -1.5747691 -0.6167388 -0.0063094567 -0.049944777
000130 88 40 0f be 29 3f f3 3e a5 35 09 80 92 f3 ae be
       -0.1398946 0.47509125 -8.45763e-40 -0.34170204
000140 f6 fd ce 3d 5b 45 de 20 d9 c5 00 80 63 83 33 3d
       0.10107033 3.7654158e-19 -7.0974e-41 0.043826472
000150 83 41 87 3a 88 92 00 00 36 9b 00 3f ec 98 11 3e
       0.0010319207 5.2566e-41 0.50236833 0.14218491
000160 2b ad f5 11 2d 8e 34 3e db ec 16 3e 4b 16 a2 3c
       3.8760907e-28 0.17632361 0.1473879 0.01978602
000170 7e 31 f1 a1 e2 c2 8d bf f7 36 01 3f 47 e0 00 80
       -1.6343896e-18 -1.1075099 0.50474495 -8.0456e-41
000180 99 89 59 bf 26 6c 32 3e 34 57 95 3e db 7e a0 3c
       -0.8497558 0.17424068 0.29168093 0.01959174
000190 45 ff 43 3e ca 98 63 3f 7b 9f 89 3e 0c 89 ca be
       0.19140346 0.8890501 0.26879486 -0.39557683
0001a0 5c ab 30 3e 49 c4 1c be f1 29 1a 40 18 92 2d bf
       0.17252868 -0.15309252 2.40881 -0.67801046
0001b0 0f c6 86 2c e9 f3 00 00 b4 f1 3d 3d a4 4c 83 be
       3.830498e-12 8.7498e-41 0.046373084 -0.2564441
0001c0 db 48 90 be a9 08 44 ab 29 15 55 be 38 76 18 bf
       -0.28180584 -6.9645206e-13 -0.20808853 -0.5955539
0001d0 8d 0b fa bd 1e b8 20 3f ce 98 00 00 65 a2 37 3f
       -0.122092344 0.6278094 5.4816e-41 0.7173217
0001e0 85 56 02 bf 43 bf 00 00 41 61 bb 3f e3 3b 3f 3f
       -0.5091327 6.8612e-41 1.4639055 0.74700755
0001f0 9c 33 ea be ce 15 6f bd c9 80 68 3e f5 c5 fb be
       -0.457425 -0.058370404 0.22705378 -0.49174467
000200 69 3a 00 00 f7 e4 38 3e 3b 56 48 bf 46 40 0f 9d
       2.0954e-41 0.18056093 -0.7825658 -1.895912e-21
000210 3d e7 00 80 0a 1e 16 3e 44 b5 98 ba 7e 94 00 00
       -8.2953e-41 0.14659896 -0.0011650701 5.3269e-41
000220 69 4c 4e bf 42 a9 d6 be e6 0b 0b 0a 6f a0 b3 3d
       -0.8058534 -0.41926008 6.6948444e-33 0.08770835
000230 65 f0 bf be 4d a9 39 bd 38 06 00 80 85 74 44 3f
       -0.37488094 -0.045327473 -2.231e-42 0.76740295
000240 13 24 c7 be 2e bc 00 80 4f 5e 36 3e 95 cd c4 be
       -0.3889471 -6.7506e-41 0.17809413 -0.38438097
000250 b3 65 5c 3e 30 70 2f 3e db d7 23 bd cc 6a a4 bd
       0.2152317 0.1713264 -0.040000778 -0.080281824
000260 e4 d4 c4 3e 15 e4 27 3e 8d 85 27 3e ab a6 0c 3f
       0.38443673 0.163956 0.1635954 0.54941815
000270 62 04 84 bf e1 4b 0d 3f d9 ea 65 ab 0b 5e 00 80
       -1.0313838 0.5519391 -8.168306e-13 -3.3736e-41
000280 2d 39 95 3e 64 19 a3 3e d8 ce fa 3e e9 0e 47 2a
       0.29145184 0.3185531 0.48985934 1.7679924e-13
000290 fd 8f 7f 3e 7f c4 ad 3e 6c fe 3a 3c e0 3a 5e bf
       0.24957271 0.33938977 0.011413198 -0.86808586
0002a0 d6 4a 00 80 47 a5 74 bf c0 2c a3 bd 5a 7f 00 80
       -2.6846e-41 -0.95564693 -0.0796752 -4.5685e-41
0002b0 4f dc ba bf f6 3c 2a bf 29 2e 97 3d c6 2a fa bd
       -1.4598483 -0.6649927 0.07381851 -0.1221519
0002c0 16 64 14 bf 94 0e a0 3e a3 b6 00 80 95 bb 92 3d
       -0.5796522 0.31261122 -6.5518e-41 0.07164685
0002d0 fd b7 d0 3b d4 e8 a9 1d 45 74 00 00 3c da b5 3d
       0.0063695894 4.4974666e-21 4.171e-41 0.088795155
0002e0 ae cf 79 a5 7e 1d 00 00 60 0e 76 3e 9f 0f 35 be
       -2.1667672e-16 1.058e-41 0.24028921 -0.1768174
0002f0 d0 09 56 89 80 c6 fb 3e 0d a7 8e bd 30 cd 5b ba
       -2.5763927e-33 0.4917488 -0.06965456 -0.00083847623
000300 85 5e 00 00 d5 02 3c bf 2e e1 39 3e c8 15 03 80
       3.3907e-41 -0.7344182 0.18152305 -2.8332e-40
000310 18 be 48 bf 10 5d 09 be 89 fd 87 3e ac a3 09 be
       -0.7841506 -0.13414407 0.2656062 -0.13441342
000320 3c 25 02 be 96 ca 14 bf ea e5 c1 3b 38 25 9d bb
       -0.12709516 -0.5812162 0.0059173005 -0.0047956966
000330 2a d9 70 be 12 42 0e 3f dd b3 96 bf 40 35 27 3e
       -0.23520342 0.55569565 -1.177364 0.16328907
000340 64 b0 3c 2b 5f 2e 00 00 52 cf d0 bd af 52 1b 3e
       6.703581e-13 1.6635e-41 -0.10195793 0.1516826
000350 aa a9 3c 3e 5b 67 91 19 78 95 96 be c8 36 e7 3d
       0.18424097 1.5034394e-23 -0.2941091 0.112897456
000360 81 29 0e 3d a8 78 b5 be e4 bc 00 80 e2 b6 51 bf
       0.03470755 -0.35443616 -6.7761e-41 -0.8191968
000370 bc 47 8b 3e 33 4c 00 00 63 9c c8 bf 25 4a 38 bf
       0.27203166 2.7335e-41 -1.5672725 -0.71988136
000380 53 71 fd 3e 33 a6 4a bc 1e aa 56 3d 74 6f 16 3f
       0.49500522 -0.012368727 0.05240833 0.58763814
000390 db 01 00 80 54 c1 36 be 50 e3 d7 3e 4b 9f 56 18
       -6.66e-43 -0.17847186 0.42165613 2.7739274e-24
0003a0 bf 47 00 00 d9 40 56 be 46 8b 21 2d 62 22 00 00
       2.5738e-41 -0.20923175 9.182715e-12 1.2334e-41
0003b0 a7 44 7d 3f 9b 7f 22 3e 13 26 00 80 41 35 18 3f
       0.9893288 0.1586899 -1.3658e-41 0.5945626
0003c0 f0 53 66 bd 03 03 ba 3c 46 89 00 80 b5 5c 26 bf
       -0.056232393 0.022706514 -4.9244e-41 -0.6498521
0003d0 60 52 4b 3e 2a 8b 05 00 05 d9 39 3e 2d e5 90 3d
       0.19855642 5.091e-40 0.18149193 0.07074962
0003e0 e2 dc 8c 3e 98 3e 80 be c8 6e 32 3e 40 dd b5 3f
       0.2751227 -0.25047755 0.17425072 1.4208145
0003f0 87 c0 c0 3c 6b d4 9f be 0e dd 82 3d d7 1e 8a bc
       0.023529304 -0.3121675 0.06389819 -0.016860409

pred_model.0.weight f4 [10, 110]
000000 b6 18 00 80 b3 90 01 80 d4 d8 00 80 84 b8 00 00
       -8.865e-42 -1.43744e-40 -7.7783e-41 6.6192e-41
000010 76 d2 00 00 31 da 00 80 ce 3c 01 00 ad 0c 01 80
       7.5499e-41 -7.8272e-41 1.13648e-40 -9.6383e-41
000020 eb a3 00 80 92 a2 00 00 72 97 00 00 ed 6a 00 00
       -5.8803e-41 5.8319e-41 5.4328e-41 3.8358e-41
000030 a3 bc 00 00 77 fb 00 80 3e a5 00 00 88 a4 00 00
       6.767e-41 -9.0209e-41 5.9278e-41 5.9023e-41
000040 8f 6b 01 80 f3 5b 00 80 9f 11 00 80 6f c6 00 00
       -1.3042e-40 -3.2985e-41 -6.321e-42 7.1185e-41
000050 66 47 00 00 29 a7 00 00 b6 70 00 00 21 26 00 80
       2.5613e-41 5.9966e-41 4.0433e-41 -1.3678e-41
000060 51 35 01 80 c4 40 00 00 d7 66 00 80 41 42 00 80
       -1.10962e-40 2.3234e-41 -3.6892e-41 -2.3767e-41
000070 ef dc 01 00 cc ac 00 80 3d 79 00 80 c6 0c 00 80
       1.71092e-40 -6.1988e-41 -4.3492e-41 -4.582e-42
000080 d2 3e 00 80 43 99 00 00 c6 3a 00 80 99 d0 00 80
       -2.2536e-41 5.498e-41 -2.1084e-41 -7.4831e-41
000090 53 f7 00 80 7b 6b 00 80 43 6c 00 80 cc d4 00 00
       -8.8723e-41 -3.8557e-41 -3.8837e-41 7.6337e-41
0000a0 18 b0 00 80 61 16 02 80 9a b8 00 80 17 1d 00 80
       -6.317e-41 -1.91699e-40 -6.6223e-41 -1.0435e-41
0000b0 a6 22 01 80 8d 32 00 80 52 28 04 80 d3 80 00 80
       -1.04265e-40 -1.8134e-41 -3.81806e-40 -4.6213e-41
0000c0 b3 e9 00 00 be 80 00 80 5a 7f 01 80 03 cf 00 80
       8.3835e-41 -4.6184e-41 -1.3752e-40 -7.4262e-41
0000d0 7c 64 00 80 ab 03 00 00 a0 54 00 80 4f 81 00 00
       -3.6047e-41 1.316e-42 -3.0358e-41 4.6387e-41
0000e0 12 b9 00 00 41 b2 00 80 4f f2 00 00 c8 6f 07 00
       6.6391e-41 -6.3945e-41 8.6924e-41 6.82948e-40
0000f0 5e 32 00 00 2b d0 00 00 d9 54 00 80 5c 4a 06 00
       1.8068e-41 7.4677e-41 -3.0438e-41 5.77688e-40
000100 be 44 00 00 a4 b9 00 00 9e ec 00 80 fa 24 00 80
       2.466e-41 6.6595e-41 -8.4882e-41 -1.3265e-41
000110 98 45 c0 09 28 3b 00 80 97 60 00 80 40 06 00 80
       4.6287764e-33 -2.1221e-41 -3.465e-41 -2.242e-42
000120 df 80 00 80 84 6a 00 00 06 75 00 00 a8 04 00 80
       -4.623e-41 3.821e-41 4.198e-41 -1.67e-42
000130 a0 8e 00 00 d6 50 00 80 cb 22 00 00 49 6b 00 80
       5.1164e-41 -2.8998e-41 1.2481e-41 -3.8487e-41
000140 4a 52 00 00 72 29 00 00 c8 30 00 00 13 a3 00 80
       2.952e-41 1.4868e-41 1.75e-41 -5.85e-41
000150 40 1f 01 80 32 75 02 00 21 2a 00 00 9a 74 00 80
       -1.03046e-40 2.25713e-40 1.5113e-41 -4.1829e-41
000160 4e 5f 05 80 2a 1a 00 00 8c c6 00 80 c6 a8 02 80
       -4.93366e-40 9.386e-42 -7.1225e-41 -2.44215e-40
000170 0d 95 01 80 c5 06 00 00 10 8a 00 80 ad f8 01 80
       -1.45305e-40 2.428e-42 -4.9527e-41 -1.81044e-40
000180 a7 94 00 80 70 de 00 80 50 d7 03 00 7f e1 00 00
       -5.3326e-41 -7.9796e-41 3.52746e-40 8.0893e-41
000190 66 c1 00 00 d4 7f 00 00 0d 3f 00 00 c2 34 00 00
       6.9378e-41 4.5856e-41 2.2618e-41 1.8926e-41
0001a0 c7 7d 00 80 69 a0 00 00 05 5b 00 00 16 5e 00 80
       -4.512e-41 5.7544e-41 3.2652e-41 -3.3752e-41
0001b0 82 c6 00 80 cf 4a 00 80 ba 42 3d a5 b2 4c 5b a5
       -7.1211e-41 -2.6836e-41 -1.6415745e-16 -1.9021207e-16
0001c0 c6 31 5d b3 c4 91 4f 02 08 65 45 b4 e6 57 4f 9e
       -5.150084e-08 1.5249791e-37 -1.838381e-07 -1.0976666e-20
0001d0 f1 9d 01 a6 47 68 00 00 61 1d 12 00 33 80 d4 a0
       -4.4969916e-16 3.7408e-41 1.663578e-39 -3.5999032e-19
0001e0 d6 41 8e b7 08 71 6c ad cf 77 8c a1 bc 89 03 00
       -1.6958376e-05 -1.3440145e-11 -9.518482e-19 3.24916e-40
0001f0 81 6d 66 b5 42 67 00 80 cc 12 1c 9c 65 9f 69 ae
       -8.5841026e-07 -3.7042e-41 -5.1640365e-22 -5.3119637e-11
000200 82 27 8e b0 8d 74 0f 9a 2a 94 02 80 54 bf 00 80
       -1.0343089e-09 -2.9665856e-23 -2.36822e-40 -6.8636e-41
000210 be cb 78 8d 2e 36 00 80 5a 8b 00 00 72 70 00 80
       -7.6666146e-31 -1.9436e-41 4.999e-41 -4.0338e-41
000220 c2 d0 b3 aa 31 94 10 aa 7d e1 83 9d 71 47 cf ab
       -3.1941642e-13 -1.2841183e-13 -3.490856e-21 -1.4728064e-12
000230 eb 37 5b a3 dd c0 00 80 80 d5 1d 8d ba 67 00 00
       -1.1883855e-17 -6.9186e-41 -4.863635e-31 3.721e-41
000240 83 8e 90 9b af c6 df af 4f bf 4c 8e c3 8f 2e aa
       -2.3914898e-22 -4.0704637e-10 -2.5237053e-30 -1.5504182e-13
000250 9a a9 96 b4 51 ab 00 80 60 37 00 00 37 bd 00 80
       -2.806308e-07 -6.1457e-41 1.9865e-41 -6.7877e-41
000260 04 d0 00 00 19 e3 04 00 58 ec 81 ae 01 50 0f 8e
       7.4622e-41 4.48809e-40 -5.908224e-11 -1.7664631e-30
000270 1d f1 03 80 c0 ee 11 ad 38 f3 34 b3 89 69 3a a8
       -3.62002e-40 -8.295309e-12 -4.2130722e-08 -1.0347958e-14
000280 4a 08 04 80 ab f9 3c aa 8a 68 30 98 7b a9 85 b2
       -3.70316e-40 -1.6784375e-13 -2.2800246e-24 -1.5560309e-08
000290 cb 96 dc af 3b 02 45 a8 0d c4 00 00 af ed 56 a1
       -4.0124912e-10 -1.09361804e-14 7.033e-41 -7.282059e-19
0002a0 09 3d 0d 3a 8a 2e 0f 80 6d 60 d9 b4 5e 98 0b b4
       0.0005387818 -1.394228e-39 -4.048956e-07 -1.3000815e-07
0002b0 a6 c9 38 b7 d6 16 0a 80 46 d1 37 95 55 45 02 a1
       -1.1014205e-05 -9.26547e-40 -3.7121643e-26 -4.4137473e-19
0002c0 37 23 04 00 3b 0c 0d b5 19 b8 04 00 27 39 00 00
       3.79975e-40 -5.254439e-07 4.33384e-40 2.0502e-41
0002d0 76 29 00 80 ee 41 02 00 53 8f 00 00 60 d4 b4 11
       -1.4873e-41 2.07322e-40 5.1415e-41 2.8529879e-28
0002e0 e7 f6 a8 ab 57 95 00 00 83 49 7a b2 ad 72 15 b2
       -1.2005647e-12 5.3573e-41 -1.456863e-08 -8.699016e-09
0002f0 34 f6 05 00 74 7c 04 a3 dd 59 cf 86 0c ab 32 ae
       5.47499e-40 -7.182088e-18 -7.799679e-35 -4.0624434e-11
000300 e9 74 01 80 6f 57 1a b7 f3 21 03 00 e3 b6 03 00
       -1.33775e-40 -9.1994725e-06 2.87685e-40 3.41114e-40
000310 ad 0c 00 00 81 c3 00 80 ef f6 04 00 23 92 c2 af
       4.547e-42 -7.0134e-41 4.55925e-40 -3.539223e-10
000320 65 c5 66 b0 3d 82 00 80 b8 13 03 00 f1 22 ac 95
       -8.3954027e-10 -4.672e-41 2.8258e-40 -6.9525375e-26
000330 e7 4d 50 aa 56 0d 93 2c f5 9b 00 80 00 3a 28 a9
       -1.8501139e-13 4.179472e-12 -5.5947e-41 -3.73538e-14
000340 c3 fa 06 80 3c cb 6d b4 9c fe a8 12 19 77 83 a8
       -6.4097e-40 -2.2146281e-07 1.0665057e-27 -1.4595572e-14
000350 22 bd 6e 8b 0f d4 56 84 7c 5a 43 17 45 ba b3 23
       -4.597942e-32 -2.5252952e-36 6.3122106e-25 1.9486107e-17
000360 93 2c 95 21 1b 19 06 80 85 af 00 80 b2 c9 68 9c
       1.0108431e-18 -5.60019e-40 -6.2965e-41 -7.7023046e-22
000370 2f a1 53 3d aa bb 0c 3e 92 c0 d1 3c d1 8b 8a 3d
       0.05166739 0.13743463 0.02560452 0.06764949
000380 b3 11 2f bd c6 9c 1e 3c 9b 6f 37 be 63 cf 68 c0
       -0.04274149 0.009680932 -0.17913668 -3.6376579
000390 be f4 06 be b6 b6 6f bd 72 23 b0 3d 0e 0d 4e 3e
       -0.13179299 -0.058523856 0.08600511 0.20122167
0003a0 9f ff 9f 3e 31 75 2f be 45 4b 0e 3d 26 3b bd 3e
       0.3124971 -0.17134549 0.03473975 0.3695919
0003b0 f1 10 b6 3e 7b 3f 60 bd 8a 92 14 3d b2 ec 71 bc
       0.355598 -0.05474804 0.036272563 -0.014765905
0003c0 6c 18 47 3f 96 7e 4f 3e 03 8e 06 3f 23 5a 38 3f
       0.7777164 0.20263132 0.5256044 0.7201254
0003d0 6e 8e 8b bf c3 0b 7e 3e 30 72 c1 bb 2c 9b 1c 3e
       -1.0902841 0.24809174 -0.005903505 0.15293568
0003e0 98 95 43 3d ce b9 e1 bd cc 04 17 bd 48 1c d5 3c
       0.047750086 -0.110217676 -0.03686981 0.026014462
0003f0 cd 36 aa 3d 1c 0f 00 3e b2 75 97 3e 1c bb 1a 3e
       0.08311234 0.12505764 0.29581982 0.15110439

pred_model.0.bias f4 [10]
000000 a2 50 ee b1 6c 8c 20 bd 6c 72 20 3e f6 61 2b 3e
       -6.9358785e-09 -0.039196417 0.15668648 0.16736588
000010 3e a4 89 bf 9a b9 52 be 7d 41 08 3a b2 3a a2 3d
       -1.0753248 -0.20578614 0.0005197747 0.079213515
000020 71 c1 05 b9 1b 19 06 3f
       -0.00012755931 0.5238206

pred_model.2.weight f4 [10, 10]
000000 71 49 00 80 0b 69 d7 bc e4 1e be 3c ad bc 60 3f
       -2.6346e-41 -0.026295206 0.02320809 0.87787896
000010 32 8a e7 3f 71 7d 83 3c d7 bf 34 bf be ac d4 bd
       1.8089049 0.016051026 -0.70605224 -0.103845105
000020 4b 6e df a1 87 00 4b 3f c4 5b 08 98 11 b1 d1 bc
       -1.5140262e-18 0.7929768 -1.7623918e-24 -0.025597127
000030 d3 20 7a 3c 01 25 4b 3f 25 a1 e1 3f f8 2b 83 3c
       0.015266615 0.7935334 1.7627302 0.016012177
000040 2c f6 41 bf c3 a4 92 bd 69 61 2c a3 37 5d 58 3f
       -0.75766253 -0.07160332 -9.344766e-18 0.84517235
000050 a0 29 06 80 7c ea d9 3d 5b 18 38 bf d1 0b 3f bf
       -5.65945e-40 0.106404275 -0.71912163 -0.74627405
000060 b7 59 7f bf 6e e8 2f bd 8e 58 97 3f 3d c8 b6 bf
       -0.9974627 -0.04294627 1.18239 -1.4279858
000070 08 39 e0 23 04 0c 86 3e dd 01 93 05 6b 96 15 bc
       2.4310282e-17 0.26181042 1.3824498e-35 -0.009130101
000080 d2 be a7 bd 00 43 6a 3f 23 7d 98 3f 6b 04 f3 3b
       -0.08190693 0.91508484 1.1913189 0.007416298
000090 a8 ab 3d bf 45 8d 3f bc f1 1d db a2 64 34 19 3f
       -0.7409005 -0.011691396 -5.939177e-18 0.59845567
0000a0 ef 6f 00 00 38 29 02 80 96 18 4a ac e9 66 5a b8
       4.0154e-41 -1.98457e-40 -2.8719574e-12 -5.2071093e-05
0000b0 15 e8 03 00 00 8c 05 00 31 5e be ab 30 c3 08 ae
       3.58762e-40 5.094e-40 -1.3526455e-12 -3.109618e-11
0000c0 3f 8e 02 00 7d c9 49 bb 7b 80 00 00 e6 c4 cc ba
       2.34699e-40 -0.0030790262 4.609e-41 -0.0015622645
0000d0 99 cd d2 bd fc 2a d2 3e 57 35 63 3f 4d 52 72 b9
       -0.10293121 0.4104842 0.88753265 -0.00023109578
0000e0 3e a9 36 bf 4c d9 d5 3d 78 52 0d 23 62 f6 14 3f
       -0.71351993 0.10441837 7.661089e-18 0.5818845
0000f0 4f de 00 80 c9 70 05 80 e8 58 a6 35 5f 19 82 b6
       -7.9749e-41 -4.99637e-40 1.2393839e-06 -3.8772555e-06
000100 96 bd 00 00 7d e9 02 80 53 d1 04 80 44 f9 49 b2
       6.801e-41 -2.67431e-40 -4.42433e-40 -1.1756416e-08
000110 f7 4d 03 80 47 85 2e b2 05 ab 6e 38 6d 1c 09 00
       -3.03475e-40 -1.0158437e-08 5.6902896e-05 8.36717e-40
000120 ba ef e6 b5 64 ee c1 b2 ed a5 02 00 94 93 04 00
       -1.7206105e-06 -2.2576565e-08 2.43194e-40 4.20283e-40
000130 7d 8c 06 00 fe 90 f2 b2 45 8f 04 80 7c 85 c0 2a
       6.0141e-40 -2.8238443e-08 -4.18737e-40 3.4198675e-13
000140 77 bd 01 00 8c bd a9 bc f0 4c 90 bd 12 f9 0b 3f
       1.59803e-40 -0.020720266 -0.07045925 0.54676926
000150 f1 7c c7 3f 41 44 5d 3c 32 07 35 bf df 65 7b 3d
       1.5585004 0.0135050425 -0.70714104 0.06137645
000160 10 e4 5d 24 f2 34 2b 3f ea 27 34 26 43 65 c4 3d
       4.8114912e-17 0.66877663 6.250414e-16 0.09589627
000170 01 81 c7 bf 40 b2 42 3e 11 ed 47 bf 98 02 14 bd
       -1.5586244 0.1901331 -0.7809611 -0.036135286
000180 8e 83 96 3f e6 23 f3 be ea b9 0c a3 65 6e 07 3f
       1.1758897 -0.47488326 -7.628784e-18 0.52902824

pred_model.2.bias f4 [10]
000000 3b bc 4a be 9e 00 5e be da 4a 9d 3f 2c 9e f8 ba
       -0.19798367 -0.21679923 1.2288468 -0.0018968037
000010 f0 01 15 ba 93 d7 f2 bd f2 24 f9 b8 d1 b3 97 b9
       -0.00056841876 -0.11857524 -0.00011880127 -0.00028934938
000020 d6 ca 58 be cb 4d 79 3f
       -0.21171126 0.9738433

pred_model.4.weight f4 [2, 10]
000000 ec 52 fa be a3 21 06 bf d5 0f f3 3f 6d d1 30 bf
       -0.4889139 -0.52395076 1.8989207 -0.6906956
000010 d3 88 f6 3b 8b fd 0f bf ab 44 29 82 7f 44 00 00
       0.007523635 -0.5624625 -1.2435866e-37 2.4572e-41
000020 65 3d f0 be 2c 89 a2 3f 8f b2 43 3f f1 06 36 3f
       -0.4692184 1.2698112 0.76444334 0.7110434
000030 5b da d4 bf 04 2b 86 3e 6a 86 f6 bb fb 59 2f 3e
       -1.6629137 0.26204693 -0.0075233476 0.17124169
000040 c3 aa 50 82 8c 4a 00 00 c3 67 39 3f 2a 51 cb bf
       -1.5330433e-37 2.6742e-41 0.7242395 -1.5884144

pred_model.4.bias f4 [2]
000000 6c fe 80 3f 4a b1 44 bf
       1.0077643 -0.7683302
